{"format": "graph-model", "generatedBy": "2.5.0", "convertedBy": "TensorFlow.js Converter v3.0.0", "signature": {"inputs": {"input:0": {"name": "input:0", "dtype": "DT_UINT8", "tensorShape": {"dim": [{"size": "-1"}, {"size": "-1"}, {"size": "3"}]}}}, "outputs": {"stack:0": {"name": "stack:0", "dtype": "DT_FLOAT", "tensorShape": {"dim": [{"size": "1"}, {"size": "19206"}, {"size": "4"}]}}, "ArgMax:0": {"name": "ArgMax:0", "dtype": "DT_INT32", "tensorShape": {"dim": [{"size": "1"}, {"size": "19206"}]}}, "truediv_3:0": {"name": "truediv_3:0", "dtype": "DT_FLOAT", "tensorShape": {}}, "Sigmoid:0": {"name": "Sigmoid:0", "dtype": "DT_FLOAT", "tensorShape": {"dim": [{"size": "1"}, {"size": "19206"}]}}}}, "modelTopology": {"node": [{"name": "ArgMax/dimension", "op": "Const", "attr": {"value": {"tensor": {"dtype": "DT_INT32", "tensorShape": {}}}, "dtype": {"type": "DT_INT32"}}}, {"name": "Reshape/shape", "op": "Const", "attr": {"value": {"tensor": {"dtype": "DT_INT32", "tensorShape": {"dim": [{"size": "3"}]}}}, "dtype": {"type": "DT_INT32"}}}, {"name": "Reshape_2/shape", "op": "Const", "attr": {"value": {"tensor": {"dtype": "DT_INT32", "tensorShape": {"dim": [{"size": "3"}]}}}, "dtype": {"type": "DT_INT32"}}}, {"name": "Reshape_4/shape", "op": "Const", "attr": {"value": {"tensor": {"dtype": "DT_INT32", "tensorShape": {"dim": [{"size": "3"}]}}}, "dtype": {"type": "DT_INT32"}}}, {"name": "Reshape_6/shape", "op": "Const", "attr": {"value": {"tensor": {"dtype": "DT_INT32", "tensorShape": {"dim": [{"size": "3"}]}}}, "dtype": {"type": "DT_INT32"}}}, {"name": "pad_to_bounding_box/stack/0", "op": "Const", "attr": {"value": {"tensor": {"dtype": "DT_INT32", "tensorShape": {}}}, "dtype": {"type": "DT_INT32"}}}, {"name": "pad_to_bounding_box/stack/1", "op": "Const", "attr": {"value": {"tensor": {"dtype": "DT_INT32", "tensorShape": {}}}, "dtype": {"type": "DT_INT32"}}}, {"name": "pad_to_bounding_box/stack/2", "op": "Const", "attr": {"value": {"tensor": {"dtype": "DT_INT32", "tensorShape": {}}}, "dtype": {"type": "DT_INT32"}}}, {"name": "pad_to_bounding_box/sub_1/x", "op": "Const", "attr": {"value": {"tensor": {"dtype": "DT_INT32", "tensorShape": {}}}, "dtype": {"type": "DT_INT32"}}}, {"name": "pad_to_bounding_box/stack/4", "op": "Const", "attr": {"value": {"tensor": {"dtype": "DT_INT32", "tensorShape": {}}}, "dtype": {"type": "DT_INT32"}}}, {"name": "pad_to_bounding_box/sub/x", "op": "Const", "attr": {"value": {"tensor": {"dtype": "DT_INT32", "tensorShape": {}}}, "dtype": {"type": "DT_INT32"}}}, {"name": "resize/ExpandDims/dim", "op": "Const", "attr": {"value": {"tensor": {"dtype": "DT_INT32", "tensorShape": {}}}, "dtype": {"type": "DT_INT32"}}}, {"name": "strided_slice_4/stack", "op": "Const", "attr": {"value": {"tensor": {"dtype": "DT_INT32", "tensorShape": {"dim": [{"size": "3"}]}}}, "dtype": {"type": "DT_INT32"}}}, {"name": "strided_slice_4/stack_1", "op": "Const", "attr": {"value": {"tensor": {"dtype": "DT_INT32", "tensorShape": {"dim": [{"size": "3"}]}}}, "dtype": {"type": "DT_INT32"}}}, {"name": "strided_slice_4/stack_2", "op": "Const", "attr": {"value": {"tensor": {"dtype": "DT_INT32", "tensorShape": {"dim": [{"size": "3"}]}}}, "dtype": {"type": "DT_INT32"}}}, {"name": "pad_to_bounding_box/ExpandDims/dim", "op": "Const", "attr": {"value": {"tensor": {"dtype": "DT_INT32", "tensorShape": {}}}, "dtype": {"type": "DT_INT32"}}}, {"name": "pad_to_bounding_box/stack/6", "op": "Const", "attr": {"value": {"tensor": {"dtype": "DT_INT32", "tensorShape": {}}}, "dtype": {"type": "DT_INT32"}}}, {"name": "pad_to_bounding_box/stack/7", "op": "Const", "attr": {"value": {"tensor": {"dtype": "DT_INT32", "tensorShape": {}}}, "dtype": {"type": "DT_INT32"}}}, {"name": "pad_to_bounding_box/Reshape/shape", "op": "Const", "attr": {"value": {"tensor": {"dtype": "DT_INT32", "tensorShape": {"dim": [{"size": "2"}]}}}, "dtype": {"type": "DT_INT32"}}}, {"name": "ExpandDims/dim", "op": "Const", "attr": {"value": {"tensor": {"dtype": "DT_INT32", "tensorShape": {}}}, "dtype": {"type": "DT_INT32"}}}, {"name": "fpn_cells/cell_0/fnode0/resample_1_4_5/ResizeNearestNeighbor/size", "op": "Const", "attr": {"value": {"tensor": {"dtype": "DT_INT32", "tensorShape": {"dim": [{"size": "2"}]}}}, "dtype": {"type": "DT_INT32"}}}, {"name": "fpn_cells/cell_0/fnode0/op_after_combine5/conv/depthwise_kernel", "op": "Const", "attr": {"value": {"tensor": {"dtype": "DT_FLOAT", "tensorShape": {"dim": [{"size": "3"}, {"size": "3"}, {"size": "64"}, {"size": "1"}]}}}, "dtype": {"type": "DT_FLOAT"}}}, {"name": "fpn_cells/cell_0/fnode1/resample_1_5_6/ResizeNearestNeighbor/size", "op": "Const", "attr": {"value": {"tensor": {"dtype": "DT_INT32", "tensorShape": {"dim": [{"size": "2"}]}}}, "dtype": {"type": "DT_INT32"}}}, {"name": "fpn_cells/cell_0/fnode1/op_after_combine6/conv/depthwise_kernel", "op": "Const", "attr": {"value": {"tensor": {"dtype": "DT_FLOAT", "tensorShape": {"dim": [{"size": "3"}, {"size": "3"}, {"size": "64"}, {"size": "1"}]}}}, "dtype": {"type": "DT_FLOAT"}}}, {"name": "fpn_cells/cell_0/fnode2/resample_1_6_7/ResizeNearestNeighbor/size", "op": "Const", "attr": {"value": {"tensor": {"dtype": "DT_INT32", "tensorShape": {"dim": [{"size": "2"}]}}}, "dtype": {"type": "DT_INT32"}}}, {"name": "fpn_cells/cell_0/fnode2/op_after_combine7/conv/depthwise_kernel", "op": "Const", "attr": {"value": {"tensor": {"dtype": "DT_FLOAT", "tensorShape": {"dim": [{"size": "3"}, {"size": "3"}, {"size": "64"}, {"size": "1"}]}}}, "dtype": {"type": "DT_FLOAT"}}}, {"name": "fpn_cells/cell_0/fnode3/resample_1_7_8/ResizeNearestNeighbor/size", "op": "Const", "attr": {"value": {"tensor": {"dtype": "DT_INT32", "tensorShape": {"dim": [{"size": "2"}]}}}, "dtype": {"type": "DT_INT32"}}}, {"name": "fpn_cells/cell_0/fnode3/op_after_combine8/conv/depthwise_kernel", "op": "Const", "attr": {"value": {"tensor": {"dtype": "DT_FLOAT", "tensorShape": {"dim": [{"size": "3"}, {"size": "3"}, {"size": "64"}, {"size": "1"}]}}}, "dtype": {"type": "DT_FLOAT"}}}, {"name": "fpn_cells/cell_0/fnode4/op_after_combine9/conv/depthwise_kernel", "op": "Const", "attr": {"value": {"tensor": {"dtype": "DT_FLOAT", "tensorShape": {"dim": [{"size": "3"}, {"size": "3"}, {"size": "64"}, {"size": "1"}]}}}, "dtype": {"type": "DT_FLOAT"}}}, {"name": "fpn_cells/cell_0/fnode5/op_after_combine10/conv/depthwise_kernel", "op": "Const", "attr": {"value": {"tensor": {"dtype": "DT_FLOAT", "tensorShape": {"dim": [{"size": "3"}, {"size": "3"}, {"size": "64"}, {"size": "1"}]}}}, "dtype": {"type": "DT_FLOAT"}}}, {"name": "fpn_cells/cell_0/fnode6/op_after_combine11/conv/depthwise_kernel", "op": "Const", "attr": {"value": {"tensor": {"dtype": "DT_FLOAT", "tensorShape": {"dim": [{"size": "3"}, {"size": "3"}, {"size": "64"}, {"size": "1"}]}}}, "dtype": {"type": "DT_FLOAT"}}}, {"name": "fpn_cells/cell_0/fnode7/op_after_combine12/conv/depthwise_kernel", "op": "Const", "attr": {"value": {"tensor": {"dtype": "DT_FLOAT", "tensorShape": {"dim": [{"size": "3"}, {"size": "3"}, {"size": "64"}, {"size": "1"}]}}}, "dtype": {"type": "DT_FLOAT"}}}, {"name": "fpn_cells/cell_1/fnode0/resample_1_4_5/ResizeNearestNeighbor/size", "op": "Const", "attr": {"value": {"tensor": {"dtype": "DT_INT32", "tensorShape": {"dim": [{"size": "2"}]}}}, "dtype": {"type": "DT_INT32"}}}, {"name": "fpn_cells/cell_1/fnode0/op_after_combine5/conv/depthwise_kernel", "op": "Const", "attr": {"value": {"tensor": {"dtype": "DT_FLOAT", "tensorShape": {"dim": [{"size": "3"}, {"size": "3"}, {"size": "64"}, {"size": "1"}]}}}, "dtype": {"type": "DT_FLOAT"}}}, {"name": "fpn_cells/cell_1/fnode1/resample_1_5_6/ResizeNearestNeighbor/size", "op": "Const", "attr": {"value": {"tensor": {"dtype": "DT_INT32", "tensorShape": {"dim": [{"size": "2"}]}}}, "dtype": {"type": "DT_INT32"}}}, {"name": "fpn_cells/cell_1/fnode1/op_after_combine6/conv/depthwise_kernel", "op": "Const", "attr": {"value": {"tensor": {"dtype": "DT_FLOAT", "tensorShape": {"dim": [{"size": "3"}, {"size": "3"}, {"size": "64"}, {"size": "1"}]}}}, "dtype": {"type": "DT_FLOAT"}}}, {"name": "fpn_cells/cell_1/fnode2/resample_1_6_7/ResizeNearestNeighbor/size", "op": "Const", "attr": {"value": {"tensor": {"dtype": "DT_INT32", "tensorShape": {"dim": [{"size": "2"}]}}}, "dtype": {"type": "DT_INT32"}}}, {"name": "fpn_cells/cell_1/fnode2/op_after_combine7/conv/depthwise_kernel", "op": "Const", "attr": {"value": {"tensor": {"dtype": "DT_FLOAT", "tensorShape": {"dim": [{"size": "3"}, {"size": "3"}, {"size": "64"}, {"size": "1"}]}}}, "dtype": {"type": "DT_FLOAT"}}}, {"name": "fpn_cells/cell_1/fnode3/resample_1_7_8/ResizeNearestNeighbor/size", "op": "Const", "attr": {"value": {"tensor": {"dtype": "DT_INT32", "tensorShape": {"dim": [{"size": "2"}]}}}, "dtype": {"type": "DT_INT32"}}}, {"name": "fpn_cells/cell_1/fnode3/op_after_combine8/conv/depthwise_kernel", "op": "Const", "attr": {"value": {"tensor": {"dtype": "DT_FLOAT", "tensorShape": {"dim": [{"size": "3"}, {"size": "3"}, {"size": "64"}, {"size": "1"}]}}}, "dtype": {"type": "DT_FLOAT"}}}, {"name": "fpn_cells/cell_1/fnode4/op_after_combine9/conv/depthwise_kernel", "op": "Const", "attr": {"value": {"tensor": {"dtype": "DT_FLOAT", "tensorShape": {"dim": [{"size": "3"}, {"size": "3"}, {"size": "64"}, {"size": "1"}]}}}, "dtype": {"type": "DT_FLOAT"}}}, {"name": "fpn_cells/cell_1/fnode5/op_after_combine10/conv/depthwise_kernel", "op": "Const", "attr": {"value": {"tensor": {"dtype": "DT_FLOAT", "tensorShape": {"dim": [{"size": "3"}, {"size": "3"}, {"size": "64"}, {"size": "1"}]}}}, "dtype": {"type": "DT_FLOAT"}}}, {"name": "fpn_cells/cell_1/fnode6/op_after_combine11/conv/depthwise_kernel", "op": "Const", "attr": {"value": {"tensor": {"dtype": "DT_FLOAT", "tensorShape": {"dim": [{"size": "3"}, {"size": "3"}, {"size": "64"}, {"size": "1"}]}}}, "dtype": {"type": "DT_FLOAT"}}}, {"name": "fpn_cells/cell_1/fnode7/op_after_combine12/conv/depthwise_kernel", "op": "Const", "attr": {"value": {"tensor": {"dtype": "DT_FLOAT", "tensorShape": {"dim": [{"size": "3"}, {"size": "3"}, {"size": "64"}, {"size": "1"}]}}}, "dtype": {"type": "DT_FLOAT"}}}, {"name": "fpn_cells/cell_2/fnode0/resample_1_4_5/ResizeNearestNeighbor/size", "op": "Const", "attr": {"value": {"tensor": {"dtype": "DT_INT32", "tensorShape": {"dim": [{"size": "2"}]}}}, "dtype": {"type": "DT_INT32"}}}, {"name": "fpn_cells/cell_2/fnode0/op_after_combine5/conv/depthwise_kernel", "op": "Const", "attr": {"value": {"tensor": {"dtype": "DT_FLOAT", "tensorShape": {"dim": [{"size": "3"}, {"size": "3"}, {"size": "64"}, {"size": "1"}]}}}, "dtype": {"type": "DT_FLOAT"}}}, {"name": "fpn_cells/cell_2/fnode1/resample_1_5_6/ResizeNearestNeighbor/size", "op": "Const", "attr": {"value": {"tensor": {"dtype": "DT_INT32", "tensorShape": {"dim": [{"size": "2"}]}}}, "dtype": {"type": "DT_INT32"}}}, {"name": "fpn_cells/cell_2/fnode1/op_after_combine6/conv/depthwise_kernel", "op": "Const", "attr": {"value": {"tensor": {"dtype": "DT_FLOAT", "tensorShape": {"dim": [{"size": "3"}, {"size": "3"}, {"size": "64"}, {"size": "1"}]}}}, "dtype": {"type": "DT_FLOAT"}}}, {"name": "fpn_cells/cell_2/fnode2/resample_1_6_7/ResizeNearestNeighbor/size", "op": "Const", "attr": {"value": {"tensor": {"dtype": "DT_INT32", "tensorShape": {"dim": [{"size": "2"}]}}}, "dtype": {"type": "DT_INT32"}}}, {"name": "fpn_cells/cell_2/fnode2/op_after_combine7/conv/depthwise_kernel", "op": "Const", "attr": {"value": {"tensor": {"dtype": "DT_FLOAT", "tensorShape": {"dim": [{"size": "3"}, {"size": "3"}, {"size": "64"}, {"size": "1"}]}}}, "dtype": {"type": "DT_FLOAT"}}}, {"name": "fpn_cells/cell_2/fnode3/resample_1_7_8/ResizeNearestNeighbor/size", "op": "Const", "attr": {"value": {"tensor": {"dtype": "DT_INT32", "tensorShape": {"dim": [{"size": "2"}]}}}, "dtype": {"type": "DT_INT32"}}}, {"name": "fpn_cells/cell_2/fnode3/op_after_combine8/conv/depthwise_kernel", "op": "Const", "attr": {"value": {"tensor": {"dtype": "DT_FLOAT", "tensorShape": {"dim": [{"size": "3"}, {"size": "3"}, {"size": "64"}, {"size": "1"}]}}}, "dtype": {"type": "DT_FLOAT"}}}, {"name": "fpn_cells/cell_2/fnode4/op_after_combine9/conv/depthwise_kernel", "op": "Const", "attr": {"value": {"tensor": {"dtype": "DT_FLOAT", "tensorShape": {"dim": [{"size": "3"}, {"size": "3"}, {"size": "64"}, {"size": "1"}]}}}, "dtype": {"type": "DT_FLOAT"}}}, {"name": "fpn_cells/cell_2/fnode5/op_after_combine10/conv/depthwise_kernel", "op": "Const", "attr": {"value": {"tensor": {"dtype": "DT_FLOAT", "tensorShape": {"dim": [{"size": "3"}, {"size": "3"}, {"size": "64"}, {"size": "1"}]}}}, "dtype": {"type": "DT_FLOAT"}}}, {"name": "fpn_cells/cell_2/fnode6/op_after_combine11/conv/depthwise_kernel", "op": "Const", "attr": {"value": {"tensor": {"dtype": "DT_FLOAT", "tensorShape": {"dim": [{"size": "3"}, {"size": "3"}, {"size": "64"}, {"size": "1"}]}}}, "dtype": {"type": "DT_FLOAT"}}}, {"name": "fpn_cells/cell_2/fnode7/op_after_combine12/conv/depthwise_kernel", "op": "Const", "attr": {"value": {"tensor": {"dtype": "DT_FLOAT", "tensorShape": {"dim": [{"size": "3"}, {"size": "3"}, {"size": "64"}, {"size": "1"}]}}}, "dtype": {"type": "DT_FLOAT"}}}, {"name": "class_net/class-0/depthwise_kernel", "op": "Const", "attr": {"value": {"tensor": {"dtype": "DT_FLOAT", "tensorShape": {"dim": [{"size": "3"}, {"size": "3"}, {"size": "64"}, {"size": "1"}]}}}, "dtype": {"type": "DT_FLOAT"}}}, {"name": "class_net/class-1/depthwise_kernel", "op": "Const", "attr": {"value": {"tensor": {"dtype": "DT_FLOAT", "tensorShape": {"dim": [{"size": "3"}, {"size": "3"}, {"size": "64"}, {"size": "1"}]}}}, "dtype": {"type": "DT_FLOAT"}}}, {"name": "class_net/class-2/depthwise_kernel", "op": "Const", "attr": {"value": {"tensor": {"dtype": "DT_FLOAT", "tensorShape": {"dim": [{"size": "3"}, {"size": "3"}, {"size": "64"}, {"size": "1"}]}}}, "dtype": {"type": "DT_FLOAT"}}}, {"name": "class_net/class-predict/depthwise_kernel", "op": "Const", "attr": {"value": {"tensor": {"dtype": "DT_FLOAT", "tensorShape": {"dim": [{"size": "3"}, {"size": "3"}, {"size": "64"}, {"size": "1"}]}}}, "dtype": {"type": "DT_FLOAT"}}}, {"name": "class_net/class-predict/pointwise_kernel", "op": "Const", "attr": {"value": {"tensor": {"dtype": "DT_FLOAT", "tensorShape": {"dim": [{"size": "1"}, {"size": "1"}, {"size": "64"}, {"size": "45"}]}}}, "dtype": {"type": "DT_FLOAT"}}}, {"name": "class_net/class-predict/bias", "op": "Const", "attr": {"value": {"tensor": {"dtype": "DT_FLOAT", "tensorShape": {"dim": [{"size": "45"}]}}}, "dtype": {"type": "DT_FLOAT"}}}, {"name": "Reshape_8/shape", "op": "Const", "attr": {"value": {"tensor": {"dtype": "DT_INT32", "tensorShape": {"dim": [{"size": "3"}]}}}, "dtype": {"type": "DT_INT32"}}}, {"name": "concat/axis", "op": "Const", "attr": {"value": {"tensor": {"dtype": "DT_INT32", "tensorShape": {}}}, "dtype": {"type": "DT_INT32"}}}, {"name": "Max/reduction_indices", "op": "Const", "attr": {"value": {"tensor": {"dtype": "DT_INT32", "tensorShape": {}}}, "dtype": {"type": "DT_INT32"}}}, {"name": "stack", "op": "Const", "attr": {"value": {"tensor": {"dtype": "DT_FLOAT", "tensorShape": {"dim": [{"size": "1"}, {"size": "19206"}, {"size": "4"}]}}}, "dtype": {"type": "DT_FLOAT"}}}, {"name": "Cast_4", "op": "Const", "attr": {"value": {"tensor": {"dtype": "DT_FLOAT", "tensorShape": {}}}, "dtype": {"type": "DT_FLOAT"}}}, {"name": "strided_slice_3/stack", "op": "Const", "attr": {"value": {"tensor": {"dtype": "DT_INT32", "tensorShape": {"dim": [{"size": "1"}]}}}, "dtype": {"type": "DT_INT32"}}}, {"name": "strided_slice_3/stack_1", "op": "Const", "attr": {"value": {"tensor": {"dtype": "DT_INT32", "tensorShape": {"dim": [{"size": "1"}]}}}, "dtype": {"type": "DT_INT32"}}}, {"name": "strided_slice_3/stack_2", "op": "Const", "attr": {"value": {"tensor": {"dtype": "DT_INT32", "tensorShape": {"dim": [{"size": "1"}]}}}, "dtype": {"type": "DT_INT32"}}}, {"name": "Cast_3", "op": "Const", "attr": {"value": {"tensor": {"dtype": "DT_FLOAT", "tensorShape": {}}}, "dtype": {"type": "DT_FLOAT"}}}, {"name": "input", "op": "Placeholder", "attr": {"shape": {"shape": {"dim": [{"size": "-1"}, {"size": "-1"}, {"size": "3"}]}}, "dtype": {"type": "DT_UINT8"}}}, {"name": "Const_3", "op": "Const", "attr": {"value": {"tensor": {"dtype": "DT_FLOAT", "tensorShape": {"dim": [{"size": "1"}, {"size": "1"}, {"size": "3"}]}}}, "dtype": {"type": "DT_FLOAT"}}}, {"name": "ConstantFolding/truediv_recip", "op": "Const", "attr": {"value": {"tensor": {"dtype": "DT_FLOAT", "tensorShape": {"dim": [{"size": "1"}, {"size": "1"}, {"size": "3"}]}}}, "dtype": {"type": "DT_FLOAT"}}}, {"name": "strided_slice_2/stack", "op": "Const", "attr": {"value": {"tensor": {"dtype": "DT_INT32", "tensorShape": {"dim": [{"size": "1"}]}}}, "dtype": {"type": "DT_INT32"}}}, {"name": "strided_slice_2/stack_1", "op": "Const", "attr": {"value": {"tensor": {"dtype": "DT_INT32", "tensorShape": {"dim": [{"size": "1"}]}}}, "dtype": {"type": "DT_INT32"}}}, {"name": "strided_slice_2/stack_2", "op": "Const", "attr": {"value": {"tensor": {"dtype": "DT_INT32", "tensorShape": {"dim": [{"size": "1"}]}}}, "dtype": {"type": "DT_INT32"}}}, {"name": "efficientnet-lite0/stem/conv2d/Conv2D_weights", "op": "Const", "attr": {"value": {"tensor": {"dtype": "DT_FLOAT", "tensorShape": {"dim": [{"size": "3"}, {"size": "3"}, {"size": "3"}, {"size": "32"}]}}}, "dtype": {"type": "DT_FLOAT"}}}, {"name": "class_net/class-0_4/separable_conv2d_bn_offset", "op": "Const", "attr": {"value": {"tensor": {"dtype": "DT_FLOAT", "tensorShape": {"dim": [{"size": "64"}]}}}, "dtype": {"type": "DT_FLOAT"}}}, {"name": "efficientnet-lite0/stem/conv2d/Conv2D_bn_offset", "op": "Const", "attr": {"value": {"tensor": {"dtype": "DT_FLOAT", "tensorShape": {"dim": [{"size": "32"}]}}}, "dtype": {"type": "DT_FLOAT"}}}, {"name": "class_net/class-2/separable_conv2d_bn_offset", "op": "Const", "attr": {"value": {"tensor": {"dtype": "DT_FLOAT", "tensorShape": {"dim": [{"size": "64"}]}}}, "dtype": {"type": "DT_FLOAT"}}}, {"name": "efficientnet-lite0/blocks_0/depthwise_conv2d/depthwise_weights", "op": "Const", "attr": {"value": {"tensor": {"dtype": "DT_FLOAT", "tensorShape": {"dim": [{"size": "3"}, {"size": "3"}, {"size": "32"}, {"size": "1"}]}}}, "dtype": {"type": "DT_FLOAT"}}}, {"name": "efficientnet-lite0/blocks_0/depthwise_conv2d/depthwise_bn_offset", "op": "Const", "attr": {"value": {"tensor": {"dtype": "DT_FLOAT", "tensorShape": {"dim": [{"size": "32"}]}}}, "dtype": {"type": "DT_FLOAT"}}}, {"name": "efficientnet-lite0/blocks_0/conv2d/Conv2D_weights", "op": "Const", "attr": {"value": {"tensor": {"dtype": "DT_FLOAT", "tensorShape": {"dim": [{"size": "1"}, {"size": "1"}, {"size": "32"}, {"size": "16"}]}}}, "dtype": {"type": "DT_FLOAT"}}}, {"name": "efficientnet-lite0/blocks_0/conv2d/Conv2D_bn_offset", "op": "Const", "attr": {"value": {"tensor": {"dtype": "DT_FLOAT", "tensorShape": {"dim": [{"size": "16"}]}}}, "dtype": {"type": "DT_FLOAT"}}}, {"name": "efficientnet-lite0/blocks_1/conv2d/Conv2D_weights", "op": "Const", "attr": {"value": {"tensor": {"dtype": "DT_FLOAT", "tensorShape": {"dim": [{"size": "1"}, {"size": "1"}, {"size": "16"}, {"size": "96"}]}}}, "dtype": {"type": "DT_FLOAT"}}}, {"name": "efficientnet-lite0/blocks_1/conv2d/Conv2D_bn_offset", "op": "Const", "attr": {"value": {"tensor": {"dtype": "DT_FLOAT", "tensorShape": {"dim": [{"size": "96"}]}}}, "dtype": {"type": "DT_FLOAT"}}}, {"name": "efficientnet-lite0/blocks_1/depthwise_conv2d/depthwise_weights", "op": "Const", "attr": {"value": {"tensor": {"dtype": "DT_FLOAT", "tensorShape": {"dim": [{"size": "3"}, {"size": "3"}, {"size": "96"}, {"size": "1"}]}}}, "dtype": {"type": "DT_FLOAT"}}}, {"name": "efficientnet-lite0/blocks_1/depthwise_conv2d/depthwise_bn_offset", "op": "Const", "attr": {"value": {"tensor": {"dtype": "DT_FLOAT", "tensorShape": {"dim": [{"size": "96"}]}}}, "dtype": {"type": "DT_FLOAT"}}}, {"name": "efficientnet-lite0/blocks_1/conv2d_1/Conv2D_weights", "op": "Const", "attr": {"value": {"tensor": {"dtype": "DT_FLOAT", "tensorShape": {"dim": [{"size": "1"}, {"size": "1"}, {"size": "96"}, {"size": "24"}]}}}, "dtype": {"type": "DT_FLOAT"}}}, {"name": "efficientnet-lite0/blocks_1/conv2d_1/Conv2D_bn_offset", "op": "Const", "attr": {"value": {"tensor": {"dtype": "DT_FLOAT", "tensorShape": {"dim": [{"size": "24"}]}}}, "dtype": {"type": "DT_FLOAT"}}}, {"name": "efficientnet-lite0/blocks_2/conv2d/Conv2D_weights", "op": "Const", "attr": {"value": {"tensor": {"dtype": "DT_FLOAT", "tensorShape": {"dim": [{"size": "1"}, {"size": "1"}, {"size": "24"}, {"size": "144"}]}}}, "dtype": {"type": "DT_FLOAT"}}}, {"name": "efficientnet-lite0/blocks_2/conv2d/Conv2D_bn_offset", "op": "Const", "attr": {"value": {"tensor": {"dtype": "DT_FLOAT", "tensorShape": {"dim": [{"size": "144"}]}}}, "dtype": {"type": "DT_FLOAT"}}}, {"name": "efficientnet-lite0/blocks_2/depthwise_conv2d/depthwise_weights", "op": "Const", "attr": {"value": {"tensor": {"dtype": "DT_FLOAT", "tensorShape": {"dim": [{"size": "3"}, {"size": "3"}, {"size": "144"}, {"size": "1"}]}}}, "dtype": {"type": "DT_FLOAT"}}}, {"name": "efficientnet-lite0/blocks_2/depthwise_conv2d/depthwise_bn_offset", "op": "Const", "attr": {"value": {"tensor": {"dtype": "DT_FLOAT", "tensorShape": {"dim": [{"size": "144"}]}}}, "dtype": {"type": "DT_FLOAT"}}}, {"name": "efficientnet-lite0/blocks_2/conv2d_1/Conv2D_weights", "op": "Const", "attr": {"value": {"tensor": {"dtype": "DT_FLOAT", "tensorShape": {"dim": [{"size": "1"}, {"size": "1"}, {"size": "144"}, {"size": "24"}]}}}, "dtype": {"type": "DT_FLOAT"}}}, {"name": "fpn_cells/cell_2/fnode5/op_after_combine10/conv/separable_conv2d_weights", "op": "Const", "attr": {"value": {"tensor": {"dtype": "DT_FLOAT", "tensorShape": {"dim": [{"size": "1"}, {"size": "1"}, {"size": "64"}, {"size": "64"}]}}}, "dtype": {"type": "DT_FLOAT"}}}, {"name": "efficientnet-lite0/blocks_2/conv2d_1/Conv2D_bn_offset", "op": "Const", "attr": {"value": {"tensor": {"dtype": "DT_FLOAT", "tensorShape": {"dim": [{"size": "24"}]}}}, "dtype": {"type": "DT_FLOAT"}}}, {"name": "efficientnet-lite0/blocks_3/conv2d/Conv2D_weights", "op": "Const", "attr": {"value": {"tensor": {"dtype": "DT_FLOAT", "tensorShape": {"dim": [{"size": "1"}, {"size": "1"}, {"size": "24"}, {"size": "144"}]}}}, "dtype": {"type": "DT_FLOAT"}}}, {"name": "efficientnet-lite0/blocks_3/conv2d/Conv2D_bn_offset", "op": "Const", "attr": {"value": {"tensor": {"dtype": "DT_FLOAT", "tensorShape": {"dim": [{"size": "144"}]}}}, "dtype": {"type": "DT_FLOAT"}}}, {"name": "fpn_cells/cell_2/fnode5/op_after_combine10/conv/separable_conv2d_bn_offset", "op": "Const", "attr": {"value": {"tensor": {"dtype": "DT_FLOAT", "tensorShape": {"dim": [{"size": "64"}]}}}, "dtype": {"type": "DT_FLOAT"}}}, {"name": "efficientnet-lite0/blocks_3/depthwise_conv2d/depthwise_weights", "op": "Const", "attr": {"value": {"tensor": {"dtype": "DT_FLOAT", "tensorShape": {"dim": [{"size": "5"}, {"size": "5"}, {"size": "144"}, {"size": "1"}]}}}, "dtype": {"type": "DT_FLOAT"}}}, {"name": "efficientnet-lite0/blocks_3/depthwise_conv2d/depthwise_bn_offset", "op": "Const", "attr": {"value": {"tensor": {"dtype": "DT_FLOAT", "tensorShape": {"dim": [{"size": "144"}]}}}, "dtype": {"type": "DT_FLOAT"}}}, {"name": "efficientnet-lite0/blocks_3/conv2d_1/Conv2D_weights", "op": "Const", "attr": {"value": {"tensor": {"dtype": "DT_FLOAT", "tensorShape": {"dim": [{"size": "1"}, {"size": "1"}, {"size": "144"}, {"size": "40"}]}}}, "dtype": {"type": "DT_FLOAT"}}}, {"name": "efficientnet-lite0/blocks_3/conv2d_1/Conv2D_bn_offset", "op": "Const", "attr": {"value": {"tensor": {"dtype": "DT_FLOAT", "tensorShape": {"dim": [{"size": "40"}]}}}, "dtype": {"type": "DT_FLOAT"}}}, {"name": "efficientnet-lite0/blocks_4/conv2d/Conv2D_weights", "op": "Const", "attr": {"value": {"tensor": {"dtype": "DT_FLOAT", "tensorShape": {"dim": [{"size": "1"}, {"size": "1"}, {"size": "40"}, {"size": "240"}]}}}, "dtype": {"type": "DT_FLOAT"}}}, {"name": "efficientnet-lite0/blocks_4/conv2d/Conv2D_bn_offset", "op": "Const", "attr": {"value": {"tensor": {"dtype": "DT_FLOAT", "tensorShape": {"dim": [{"size": "240"}]}}}, "dtype": {"type": "DT_FLOAT"}}}, {"name": "efficientnet-lite0/blocks_4/depthwise_conv2d/depthwise_weights", "op": "Const", "attr": {"value": {"tensor": {"dtype": "DT_FLOAT", "tensorShape": {"dim": [{"size": "5"}, {"size": "5"}, {"size": "240"}, {"size": "1"}]}}}, "dtype": {"type": "DT_FLOAT"}}}, {"name": "efficientnet-lite0/blocks_4/depthwise_conv2d/depthwise_bn_offset", "op": "Const", "attr": {"value": {"tensor": {"dtype": "DT_FLOAT", "tensorShape": {"dim": [{"size": "240"}]}}}, "dtype": {"type": "DT_FLOAT"}}}, {"name": "efficientnet-lite0/blocks_4/conv2d_1/Conv2D_weights", "op": "Const", "attr": {"value": {"tensor": {"dtype": "DT_FLOAT", "tensorShape": {"dim": [{"size": "1"}, {"size": "1"}, {"size": "240"}, {"size": "40"}]}}}, "dtype": {"type": "DT_FLOAT"}}}, {"name": "efficientnet-lite0/blocks_4/conv2d_1/Conv2D_bn_offset", "op": "Const", "attr": {"value": {"tensor": {"dtype": "DT_FLOAT", "tensorShape": {"dim": [{"size": "40"}]}}}, "dtype": {"type": "DT_FLOAT"}}}, {"name": "efficientnet-lite0/blocks_5/conv2d/Conv2D_weights", "op": "Const", "attr": {"value": {"tensor": {"dtype": "DT_FLOAT", "tensorShape": {"dim": [{"size": "1"}, {"size": "1"}, {"size": "40"}, {"size": "240"}]}}}, "dtype": {"type": "DT_FLOAT"}}}, {"name": "efficientnet-lite0/blocks_5/conv2d/Conv2D_bn_offset", "op": "Const", "attr": {"value": {"tensor": {"dtype": "DT_FLOAT", "tensorShape": {"dim": [{"size": "240"}]}}}, "dtype": {"type": "DT_FLOAT"}}}, {"name": "fpn_cells/cell_0/fnode3/resample_0_0_8/conv2d/Conv2D_weights", "op": "Const", "attr": {"value": {"tensor": {"dtype": "DT_FLOAT", "tensorShape": {"dim": [{"size": "1"}, {"size": "1"}, {"size": "40"}, {"size": "64"}]}}}, "dtype": {"type": "DT_FLOAT"}}}, {"name": "class_net/class-1_1/separable_conv2d_weights", "op": "Const", "attr": {"value": {"tensor": {"dtype": "DT_FLOAT", "tensorShape": {"dim": [{"size": "1"}, {"size": "1"}, {"size": "64"}, {"size": "64"}]}}}, "dtype": {"type": "DT_FLOAT"}}}, {"name": "fpn_cells/cell_0/fnode3/resample_0_0_8/conv2d/Conv2D_bn_offset", "op": "Const", "attr": {"value": {"tensor": {"dtype": "DT_FLOAT", "tensorShape": {"dim": [{"size": "64"}]}}}, "dtype": {"type": "DT_FLOAT"}}}, {"name": "efficientnet-lite0/blocks_5/depthwise_conv2d/depthwise_weights", "op": "Const", "attr": {"value": {"tensor": {"dtype": "DT_FLOAT", "tensorShape": {"dim": [{"size": "3"}, {"size": "3"}, {"size": "240"}, {"size": "1"}]}}}, "dtype": {"type": "DT_FLOAT"}}}, {"name": "efficientnet-lite0/blocks_5/depthwise_conv2d/depthwise_bn_offset", "op": "Const", "attr": {"value": {"tensor": {"dtype": "DT_FLOAT", "tensorShape": {"dim": [{"size": "240"}]}}}, "dtype": {"type": "DT_FLOAT"}}}, {"name": "efficientnet-lite0/blocks_5/conv2d_1/Conv2D_weights", "op": "Const", "attr": {"value": {"tensor": {"dtype": "DT_FLOAT", "tensorShape": {"dim": [{"size": "1"}, {"size": "1"}, {"size": "240"}, {"size": "80"}]}}}, "dtype": {"type": "DT_FLOAT"}}}, {"name": "class_net/class-2_3/separable_conv2d_weights", "op": "Const", "attr": {"value": {"tensor": {"dtype": "DT_FLOAT", "tensorShape": {"dim": [{"size": "1"}, {"size": "1"}, {"size": "64"}, {"size": "64"}]}}}, "dtype": {"type": "DT_FLOAT"}}}, {"name": "efficientnet-lite0/blocks_5/conv2d_1/Conv2D_bn_offset", "op": "Const", "attr": {"value": {"tensor": {"dtype": "DT_FLOAT", "tensorShape": {"dim": [{"size": "80"}]}}}, "dtype": {"type": "DT_FLOAT"}}}, {"name": "efficientnet-lite0/blocks_6/conv2d/Conv2D_weights", "op": "Const", "attr": {"value": {"tensor": {"dtype": "DT_FLOAT", "tensorShape": {"dim": [{"size": "1"}, {"size": "1"}, {"size": "80"}, {"size": "480"}]}}}, "dtype": {"type": "DT_FLOAT"}}}, {"name": "class_net/class-1_1/separable_conv2d_bn_offset", "op": "Const", "attr": {"value": {"tensor": {"dtype": "DT_FLOAT", "tensorShape": {"dim": [{"size": "64"}]}}}, "dtype": {"type": "DT_FLOAT"}}}, {"name": "efficientnet-lite0/blocks_6/conv2d/Conv2D_bn_offset", "op": "Const", "attr": {"value": {"tensor": {"dtype": "DT_FLOAT", "tensorShape": {"dim": [{"size": "480"}]}}}, "dtype": {"type": "DT_FLOAT"}}}, {"name": "efficientnet-lite0/blocks_6/depthwise_conv2d/depthwise_weights", "op": "Const", "attr": {"value": {"tensor": {"dtype": "DT_FLOAT", "tensorShape": {"dim": [{"size": "3"}, {"size": "3"}, {"size": "480"}, {"size": "1"}]}}}, "dtype": {"type": "DT_FLOAT"}}}, {"name": "efficientnet-lite0/blocks_6/depthwise_conv2d/depthwise_bn_offset", "op": "Const", "attr": {"value": {"tensor": {"dtype": "DT_FLOAT", "tensorShape": {"dim": [{"size": "480"}]}}}, "dtype": {"type": "DT_FLOAT"}}}, {"name": "efficientnet-lite0/blocks_6/conv2d_1/Conv2D_weights", "op": "Const", "attr": {"value": {"tensor": {"dtype": "DT_FLOAT", "tensorShape": {"dim": [{"size": "1"}, {"size": "1"}, {"size": "480"}, {"size": "80"}]}}}, "dtype": {"type": "DT_FLOAT"}}}, {"name": "efficientnet-lite0/blocks_6/conv2d_1/Conv2D_bn_offset", "op": "Const", "attr": {"value": {"tensor": {"dtype": "DT_FLOAT", "tensorShape": {"dim": [{"size": "80"}]}}}, "dtype": {"type": "DT_FLOAT"}}}, {"name": "efficientnet-lite0/blocks_7/conv2d/Conv2D_weights", "op": "Const", "attr": {"value": {"tensor": {"dtype": "DT_FLOAT", "tensorShape": {"dim": [{"size": "1"}, {"size": "1"}, {"size": "80"}, {"size": "480"}]}}}, "dtype": {"type": "DT_FLOAT"}}}, {"name": "efficientnet-lite0/blocks_7/conv2d/Conv2D_bn_offset", "op": "Const", "attr": {"value": {"tensor": {"dtype": "DT_FLOAT", "tensorShape": {"dim": [{"size": "480"}]}}}, "dtype": {"type": "DT_FLOAT"}}}, {"name": "class_net/class-0_2/separable_conv2d_weights", "op": "Const", "attr": {"value": {"tensor": {"dtype": "DT_FLOAT", "tensorShape": {"dim": [{"size": "1"}, {"size": "1"}, {"size": "64"}, {"size": "64"}]}}}, "dtype": {"type": "DT_FLOAT"}}}, {"name": "efficientnet-lite0/blocks_7/depthwise_conv2d/depthwise_weights", "op": "Const", "attr": {"value": {"tensor": {"dtype": "DT_FLOAT", "tensorShape": {"dim": [{"size": "3"}, {"size": "3"}, {"size": "480"}, {"size": "1"}]}}}, "dtype": {"type": "DT_FLOAT"}}}, {"name": "efficientnet-lite0/blocks_7/depthwise_conv2d/depthwise_bn_offset", "op": "Const", "attr": {"value": {"tensor": {"dtype": "DT_FLOAT", "tensorShape": {"dim": [{"size": "480"}]}}}, "dtype": {"type": "DT_FLOAT"}}}, {"name": "efficientnet-lite0/blocks_7/conv2d_1/Conv2D_weights", "op": "Const", "attr": {"value": {"tensor": {"dtype": "DT_FLOAT", "tensorShape": {"dim": [{"size": "1"}, {"size": "1"}, {"size": "480"}, {"size": "80"}]}}}, "dtype": {"type": "DT_FLOAT"}}}, {"name": "class_net/class-2_3/separable_conv2d_bn_offset", "op": "Const", "attr": {"value": {"tensor": {"dtype": "DT_FLOAT", "tensorShape": {"dim": [{"size": "64"}]}}}, "dtype": {"type": "DT_FLOAT"}}}, {"name": "efficientnet-lite0/blocks_7/conv2d_1/Conv2D_bn_offset", "op": "Const", "attr": {"value": {"tensor": {"dtype": "DT_FLOAT", "tensorShape": {"dim": [{"size": "80"}]}}}, "dtype": {"type": "DT_FLOAT"}}}, {"name": "efficientnet-lite0/blocks_8/conv2d/Conv2D_weights", "op": "Const", "attr": {"value": {"tensor": {"dtype": "DT_FLOAT", "tensorShape": {"dim": [{"size": "1"}, {"size": "1"}, {"size": "80"}, {"size": "480"}]}}}, "dtype": {"type": "DT_FLOAT"}}}, {"name": "class_net/class-0_2/separable_conv2d_bn_offset", "op": "Const", "attr": {"value": {"tensor": {"dtype": "DT_FLOAT", "tensorShape": {"dim": [{"size": "64"}]}}}, "dtype": {"type": "DT_FLOAT"}}}, {"name": "efficientnet-lite0/blocks_8/conv2d/Conv2D_bn_offset", "op": "Const", "attr": {"value": {"tensor": {"dtype": "DT_FLOAT", "tensorShape": {"dim": [{"size": "480"}]}}}, "dtype": {"type": "DT_FLOAT"}}}, {"name": "efficientnet-lite0/blocks_8/depthwise_conv2d/depthwise_weights", "op": "Const", "attr": {"value": {"tensor": {"dtype": "DT_FLOAT", "tensorShape": {"dim": [{"size": "5"}, {"size": "5"}, {"size": "480"}, {"size": "1"}]}}}, "dtype": {"type": "DT_FLOAT"}}}, {"name": "efficientnet-lite0/blocks_8/depthwise_conv2d/depthwise_bn_offset", "op": "Const", "attr": {"value": {"tensor": {"dtype": "DT_FLOAT", "tensorShape": {"dim": [{"size": "480"}]}}}, "dtype": {"type": "DT_FLOAT"}}}, {"name": "efficientnet-lite0/blocks_8/conv2d_1/Conv2D_weights", "op": "Const", "attr": {"value": {"tensor": {"dtype": "DT_FLOAT", "tensorShape": {"dim": [{"size": "1"}, {"size": "1"}, {"size": "480"}, {"size": "112"}]}}}, "dtype": {"type": "DT_FLOAT"}}}, {"name": "efficientnet-lite0/blocks_8/conv2d_1/Conv2D_bn_offset", "op": "Const", "attr": {"value": {"tensor": {"dtype": "DT_FLOAT", "tensorShape": {"dim": [{"size": "112"}]}}}, "dtype": {"type": "DT_FLOAT"}}}, {"name": "efficientnet-lite0/blocks_9/conv2d/Conv2D_weights", "op": "Const", "attr": {"value": {"tensor": {"dtype": "DT_FLOAT", "tensorShape": {"dim": [{"size": "1"}, {"size": "1"}, {"size": "112"}, {"size": "672"}]}}}, "dtype": {"type": "DT_FLOAT"}}}, {"name": "efficientnet-lite0/blocks_9/conv2d/Conv2D_bn_offset", "op": "Const", "attr": {"value": {"tensor": {"dtype": "DT_FLOAT", "tensorShape": {"dim": [{"size": "672"}]}}}, "dtype": {"type": "DT_FLOAT"}}}, {"name": "class_net/class-2_1/separable_conv2d_weights", "op": "Const", "attr": {"value": {"tensor": {"dtype": "DT_FLOAT", "tensorShape": {"dim": [{"size": "1"}, {"size": "1"}, {"size": "64"}, {"size": "64"}]}}}, "dtype": {"type": "DT_FLOAT"}}}, {"name": "efficientnet-lite0/blocks_9/depthwise_conv2d/depthwise_weights", "op": "Const", "attr": {"value": {"tensor": {"dtype": "DT_FLOAT", "tensorShape": {"dim": [{"size": "5"}, {"size": "5"}, {"size": "672"}, {"size": "1"}]}}}, "dtype": {"type": "DT_FLOAT"}}}, {"name": "efficientnet-lite0/blocks_9/depthwise_conv2d/depthwise_bn_offset", "op": "Const", "attr": {"value": {"tensor": {"dtype": "DT_FLOAT", "tensorShape": {"dim": [{"size": "672"}]}}}, "dtype": {"type": "DT_FLOAT"}}}, {"name": "efficientnet-lite0/blocks_9/conv2d_1/Conv2D_weights", "op": "Const", "attr": {"value": {"tensor": {"dtype": "DT_FLOAT", "tensorShape": {"dim": [{"size": "1"}, {"size": "1"}, {"size": "672"}, {"size": "112"}]}}}, "dtype": {"type": "DT_FLOAT"}}}, {"name": "efficientnet-lite0/blocks_9/conv2d_1/Conv2D_bn_offset", "op": "Const", "attr": {"value": {"tensor": {"dtype": "DT_FLOAT", "tensorShape": {"dim": [{"size": "112"}]}}}, "dtype": {"type": "DT_FLOAT"}}}, {"name": "efficientnet-lite0/blocks_10/conv2d/Conv2D_weights", "op": "Const", "attr": {"value": {"tensor": {"dtype": "DT_FLOAT", "tensorShape": {"dim": [{"size": "1"}, {"size": "1"}, {"size": "112"}, {"size": "672"}]}}}, "dtype": {"type": "DT_FLOAT"}}}, {"name": "class_net/class-2_1/separable_conv2d_bn_offset", "op": "Const", "attr": {"value": {"tensor": {"dtype": "DT_FLOAT", "tensorShape": {"dim": [{"size": "64"}]}}}, "dtype": {"type": "DT_FLOAT"}}}, {"name": "efficientnet-lite0/blocks_10/conv2d/Conv2D_bn_offset", "op": "Const", "attr": {"value": {"tensor": {"dtype": "DT_FLOAT", "tensorShape": {"dim": [{"size": "672"}]}}}, "dtype": {"type": "DT_FLOAT"}}}, {"name": "efficientnet-lite0/blocks_10/depthwise_conv2d/depthwise_weights", "op": "Const", "attr": {"value": {"tensor": {"dtype": "DT_FLOAT", "tensorShape": {"dim": [{"size": "5"}, {"size": "5"}, {"size": "672"}, {"size": "1"}]}}}, "dtype": {"type": "DT_FLOAT"}}}, {"name": "efficientnet-lite0/blocks_10/depthwise_conv2d/depthwise_bn_offset", "op": "Const", "attr": {"value": {"tensor": {"dtype": "DT_FLOAT", "tensorShape": {"dim": [{"size": "672"}]}}}, "dtype": {"type": "DT_FLOAT"}}}, {"name": "efficientnet-lite0/blocks_10/conv2d_1/Conv2D_weights", "op": "Const", "attr": {"value": {"tensor": {"dtype": "DT_FLOAT", "tensorShape": {"dim": [{"size": "1"}, {"size": "1"}, {"size": "672"}, {"size": "112"}]}}}, "dtype": {"type": "DT_FLOAT"}}}, {"name": "efficientnet-lite0/blocks_10/conv2d_1/Conv2D_bn_offset", "op": "Const", "attr": {"value": {"tensor": {"dtype": "DT_FLOAT", "tensorShape": {"dim": [{"size": "112"}]}}}, "dtype": {"type": "DT_FLOAT"}}}, {"name": "efficientnet-lite0/blocks_11/conv2d/Conv2D_weights", "op": "Const", "attr": {"value": {"tensor": {"dtype": "DT_FLOAT", "tensorShape": {"dim": [{"size": "1"}, {"size": "1"}, {"size": "112"}, {"size": "672"}]}}}, "dtype": {"type": "DT_FLOAT"}}}, {"name": "efficientnet-lite0/blocks_11/conv2d/Conv2D_bn_offset", "op": "Const", "attr": {"value": {"tensor": {"dtype": "DT_FLOAT", "tensorShape": {"dim": [{"size": "672"}]}}}, "dtype": {"type": "DT_FLOAT"}}}, {"name": "fpn_cells/cell_0/fnode4/resample_0_1_9/conv2d/Conv2D_weights", "op": "Const", "attr": {"value": {"tensor": {"dtype": "DT_FLOAT", "tensorShape": {"dim": [{"size": "1"}, {"size": "1"}, {"size": "112"}, {"size": "64"}]}}}, "dtype": {"type": "DT_FLOAT"}}}, {"name": "fpn_cells/cell_0/fnode4/resample_0_1_9/conv2d/Conv2D_bn_offset", "op": "Const", "attr": {"value": {"tensor": {"dtype": "DT_FLOAT", "tensorShape": {"dim": [{"size": "64"}]}}}, "dtype": {"type": "DT_FLOAT"}}}, {"name": "fpn_cells/cell_0/fnode2/resample_0_1_7/conv2d/Conv2D_weights", "op": "Const", "attr": {"value": {"tensor": {"dtype": "DT_FLOAT", "tensorShape": {"dim": [{"size": "1"}, {"size": "1"}, {"size": "112"}, {"size": "64"}]}}}, "dtype": {"type": "DT_FLOAT"}}}, {"name": "fpn_cells/cell_0/fnode2/resample_0_1_7/conv2d/Conv2D_bn_offset", "op": "Const", "attr": {"value": {"tensor": {"dtype": "DT_FLOAT", "tensorShape": {"dim": [{"size": "64"}]}}}, "dtype": {"type": "DT_FLOAT"}}}, {"name": "efficientnet-lite0/blocks_11/depthwise_conv2d/depthwise_weights", "op": "Const", "attr": {"value": {"tensor": {"dtype": "DT_FLOAT", "tensorShape": {"dim": [{"size": "5"}, {"size": "5"}, {"size": "672"}, {"size": "1"}]}}}, "dtype": {"type": "DT_FLOAT"}}}, {"name": "efficientnet-lite0/blocks_11/depthwise_conv2d/depthwise_bn_offset", "op": "Const", "attr": {"value": {"tensor": {"dtype": "DT_FLOAT", "tensorShape": {"dim": [{"size": "672"}]}}}, "dtype": {"type": "DT_FLOAT"}}}, {"name": "efficientnet-lite0/blocks_11/conv2d_1/Conv2D_weights", "op": "Const", "attr": {"value": {"tensor": {"dtype": "DT_FLOAT", "tensorShape": {"dim": [{"size": "1"}, {"size": "1"}, {"size": "672"}, {"size": "192"}]}}}, "dtype": {"type": "DT_FLOAT"}}}, {"name": "fpn_cells/cell_2/fnode6/op_after_combine11/conv/separable_conv2d_weights", "op": "Const", "attr": {"value": {"tensor": {"dtype": "DT_FLOAT", "tensorShape": {"dim": [{"size": "1"}, {"size": "1"}, {"size": "64"}, {"size": "64"}]}}}, "dtype": {"type": "DT_FLOAT"}}}, {"name": "efficientnet-lite0/blocks_11/conv2d_1/Conv2D_bn_offset", "op": "Const", "attr": {"value": {"tensor": {"dtype": "DT_FLOAT", "tensorShape": {"dim": [{"size": "192"}]}}}, "dtype": {"type": "DT_FLOAT"}}}, {"name": "efficientnet-lite0/blocks_12/conv2d/Conv2D_weights", "op": "Const", "attr": {"value": {"tensor": {"dtype": "DT_FLOAT", "tensorShape": {"dim": [{"size": "1"}, {"size": "1"}, {"size": "192"}, {"size": "1152"}]}}}, "dtype": {"type": "DT_FLOAT"}}}, {"name": "efficientnet-lite0/blocks_12/conv2d/Conv2D_bn_offset", "op": "Const", "attr": {"value": {"tensor": {"dtype": "DT_FLOAT", "tensorShape": {"dim": [{"size": "1152"}]}}}, "dtype": {"type": "DT_FLOAT"}}}, {"name": "fpn_cells/cell_2/fnode6/op_after_combine11/conv/separable_conv2d_bn_offset", "op": "Const", "attr": {"value": {"tensor": {"dtype": "DT_FLOAT", "tensorShape": {"dim": [{"size": "64"}]}}}, "dtype": {"type": "DT_FLOAT"}}}, {"name": "efficientnet-lite0/blocks_12/depthwise_conv2d/depthwise_weights", "op": "Const", "attr": {"value": {"tensor": {"dtype": "DT_FLOAT", "tensorShape": {"dim": [{"size": "5"}, {"size": "5"}, {"size": "1152"}, {"size": "1"}]}}}, "dtype": {"type": "DT_FLOAT"}}}, {"name": "efficientnet-lite0/blocks_12/depthwise_conv2d/depthwise_bn_offset", "op": "Const", "attr": {"value": {"tensor": {"dtype": "DT_FLOAT", "tensorShape": {"dim": [{"size": "1152"}]}}}, "dtype": {"type": "DT_FLOAT"}}}, {"name": "efficientnet-lite0/blocks_12/conv2d_1/Conv2D_weights", "op": "Const", "attr": {"value": {"tensor": {"dtype": "DT_FLOAT", "tensorShape": {"dim": [{"size": "1"}, {"size": "1"}, {"size": "1152"}, {"size": "192"}]}}}, "dtype": {"type": "DT_FLOAT"}}}, {"name": "efficientnet-lite0/blocks_12/conv2d_1/Conv2D_bn_offset", "op": "Const", "attr": {"value": {"tensor": {"dtype": "DT_FLOAT", "tensorShape": {"dim": [{"size": "192"}]}}}, "dtype": {"type": "DT_FLOAT"}}}, {"name": "efficientnet-lite0/blocks_13/conv2d/Conv2D_weights", "op": "Const", "attr": {"value": {"tensor": {"dtype": "DT_FLOAT", "tensorShape": {"dim": [{"size": "1"}, {"size": "1"}, {"size": "192"}, {"size": "1152"}]}}}, "dtype": {"type": "DT_FLOAT"}}}, {"name": "efficientnet-lite0/blocks_13/conv2d/Conv2D_bn_offset", "op": "Const", "attr": {"value": {"tensor": {"dtype": "DT_FLOAT", "tensorShape": {"dim": [{"size": "1152"}]}}}, "dtype": {"type": "DT_FLOAT"}}}, {"name": "efficientnet-lite0/blocks_13/depthwise_conv2d/depthwise_weights", "op": "Const", "attr": {"value": {"tensor": {"dtype": "DT_FLOAT", "tensorShape": {"dim": [{"size": "5"}, {"size": "5"}, {"size": "1152"}, {"size": "1"}]}}}, "dtype": {"type": "DT_FLOAT"}}}, {"name": "efficientnet-lite0/blocks_13/depthwise_conv2d/depthwise_bn_offset", "op": "Const", "attr": {"value": {"tensor": {"dtype": "DT_FLOAT", "tensorShape": {"dim": [{"size": "1152"}]}}}, "dtype": {"type": "DT_FLOAT"}}}, {"name": "efficientnet-lite0/blocks_13/conv2d_1/Conv2D_weights", "op": "Const", "attr": {"value": {"tensor": {"dtype": "DT_FLOAT", "tensorShape": {"dim": [{"size": "1"}, {"size": "1"}, {"size": "1152"}, {"size": "192"}]}}}, "dtype": {"type": "DT_FLOAT"}}}, {"name": "efficientnet-lite0/blocks_13/conv2d_1/Conv2D_bn_offset", "op": "Const", "attr": {"value": {"tensor": {"dtype": "DT_FLOAT", "tensorShape": {"dim": [{"size": "192"}]}}}, "dtype": {"type": "DT_FLOAT"}}}, {"name": "efficientnet-lite0/blocks_14/conv2d/Conv2D_weights", "op": "Const", "attr": {"value": {"tensor": {"dtype": "DT_FLOAT", "tensorShape": {"dim": [{"size": "1"}, {"size": "1"}, {"size": "192"}, {"size": "1152"}]}}}, "dtype": {"type": "DT_FLOAT"}}}, {"name": "efficientnet-lite0/blocks_14/conv2d/Conv2D_bn_offset", "op": "Const", "attr": {"value": {"tensor": {"dtype": "DT_FLOAT", "tensorShape": {"dim": [{"size": "1152"}]}}}, "dtype": {"type": "DT_FLOAT"}}}, {"name": "efficientnet-lite0/blocks_14/depthwise_conv2d/depthwise_weights", "op": "Const", "attr": {"value": {"tensor": {"dtype": "DT_FLOAT", "tensorShape": {"dim": [{"size": "5"}, {"size": "5"}, {"size": "1152"}, {"size": "1"}]}}}, "dtype": {"type": "DT_FLOAT"}}}, {"name": "efficientnet-lite0/blocks_14/depthwise_conv2d/depthwise_bn_offset", "op": "Const", "attr": {"value": {"tensor": {"dtype": "DT_FLOAT", "tensorShape": {"dim": [{"size": "1152"}]}}}, "dtype": {"type": "DT_FLOAT"}}}, {"name": "efficientnet-lite0/blocks_14/conv2d_1/Conv2D_weights", "op": "Const", "attr": {"value": {"tensor": {"dtype": "DT_FLOAT", "tensorShape": {"dim": [{"size": "1"}, {"size": "1"}, {"size": "1152"}, {"size": "192"}]}}}, "dtype": {"type": "DT_FLOAT"}}}, {"name": "class_net/class-1_2/separable_conv2d_weights", "op": "Const", "attr": {"value": {"tensor": {"dtype": "DT_FLOAT", "tensorShape": {"dim": [{"size": "1"}, {"size": "1"}, {"size": "64"}, {"size": "64"}]}}}, "dtype": {"type": "DT_FLOAT"}}}, {"name": "efficientnet-lite0/blocks_14/conv2d_1/Conv2D_bn_offset", "op": "Const", "attr": {"value": {"tensor": {"dtype": "DT_FLOAT", "tensorShape": {"dim": [{"size": "192"}]}}}, "dtype": {"type": "DT_FLOAT"}}}, {"name": "efficientnet-lite0/blocks_15/conv2d/Conv2D_weights", "op": "Const", "attr": {"value": {"tensor": {"dtype": "DT_FLOAT", "tensorShape": {"dim": [{"size": "1"}, {"size": "1"}, {"size": "192"}, {"size": "1152"}]}}}, "dtype": {"type": "DT_FLOAT"}}}, {"name": "efficientnet-lite0/blocks_15/conv2d/Conv2D_bn_offset", "op": "Const", "attr": {"value": {"tensor": {"dtype": "DT_FLOAT", "tensorShape": {"dim": [{"size": "1152"}]}}}, "dtype": {"type": "DT_FLOAT"}}}, {"name": "class_net/class-1_2/separable_conv2d_bn_offset", "op": "Const", "attr": {"value": {"tensor": {"dtype": "DT_FLOAT", "tensorShape": {"dim": [{"size": "64"}]}}}, "dtype": {"type": "DT_FLOAT"}}}, {"name": "efficientnet-lite0/blocks_15/depthwise_conv2d/depthwise_weights", "op": "Const", "attr": {"value": {"tensor": {"dtype": "DT_FLOAT", "tensorShape": {"dim": [{"size": "3"}, {"size": "3"}, {"size": "1152"}, {"size": "1"}]}}}, "dtype": {"type": "DT_FLOAT"}}}, {"name": "efficientnet-lite0/blocks_15/depthwise_conv2d/depthwise_bn_offset", "op": "Const", "attr": {"value": {"tensor": {"dtype": "DT_FLOAT", "tensorShape": {"dim": [{"size": "1152"}]}}}, "dtype": {"type": "DT_FLOAT"}}}, {"name": "efficientnet-lite0/blocks_15/conv2d_1/Conv2D_weights", "op": "Const", "attr": {"value": {"tensor": {"dtype": "DT_FLOAT", "tensorShape": {"dim": [{"size": "1"}, {"size": "1"}, {"size": "1152"}, {"size": "320"}]}}}, "dtype": {"type": "DT_FLOAT"}}}, {"name": "class_net/class-1_4/separable_conv2d_weights", "op": "Const", "attr": {"value": {"tensor": {"dtype": "DT_FLOAT", "tensorShape": {"dim": [{"size": "1"}, {"size": "1"}, {"size": "64"}, {"size": "64"}]}}}, "dtype": {"type": "DT_FLOAT"}}}, {"name": "efficientnet-lite0/blocks_15/conv2d_1/Conv2D_bn_offset", "op": "Const", "attr": {"value": {"tensor": {"dtype": "DT_FLOAT", "tensorShape": {"dim": [{"size": "320"}]}}}, "dtype": {"type": "DT_FLOAT"}}}, {"name": "fpn_cells/cell_0/fnode5/resample_0_2_10/conv2d/Conv2D_weights", "op": "Const", "attr": {"value": {"tensor": {"dtype": "DT_FLOAT", "tensorShape": {"dim": [{"size": "1"}, {"size": "1"}, {"size": "320"}, {"size": "64"}]}}}, "dtype": {"type": "DT_FLOAT"}}}, {"name": "fpn_cells/cell_0/fnode5/resample_0_2_10/conv2d/Conv2D_bn_offset", "op": "Const", "attr": {"value": {"tensor": {"dtype": "DT_FLOAT", "tensorShape": {"dim": [{"size": "64"}]}}}, "dtype": {"type": "DT_FLOAT"}}}, {"name": "fpn_cells/cell_0/fnode1/resample_0_2_6/conv2d/Conv2D_weights", "op": "Const", "attr": {"value": {"tensor": {"dtype": "DT_FLOAT", "tensorShape": {"dim": [{"size": "1"}, {"size": "1"}, {"size": "320"}, {"size": "64"}]}}}, "dtype": {"type": "DT_FLOAT"}}}, {"name": "fpn_cells/cell_0/fnode1/resample_0_2_6/conv2d/Conv2D_bn_offset", "op": "Const", "attr": {"value": {"tensor": {"dtype": "DT_FLOAT", "tensorShape": {"dim": [{"size": "64"}]}}}, "dtype": {"type": "DT_FLOAT"}}}, {"name": "resample_p6/conv2d/Conv2D_weights", "op": "Const", "attr": {"value": {"tensor": {"dtype": "DT_FLOAT", "tensorShape": {"dim": [{"size": "1"}, {"size": "1"}, {"size": "320"}, {"size": "64"}]}}}, "dtype": {"type": "DT_FLOAT"}}}, {"name": "class_net/class-0_3/separable_conv2d_weights", "op": "Const", "attr": {"value": {"tensor": {"dtype": "DT_FLOAT", "tensorShape": {"dim": [{"size": "1"}, {"size": "1"}, {"size": "64"}, {"size": "64"}]}}}, "dtype": {"type": "DT_FLOAT"}}}, {"name": "resample_p6/conv2d/Conv2D_bn_offset", "op": "Const", "attr": {"value": {"tensor": {"dtype": "DT_FLOAT", "tensorShape": {"dim": [{"size": "64"}]}}}, "dtype": {"type": "DT_FLOAT"}}}, {"name": "fpn_cells/cell_0/fnode0/op_after_combine5/conv/separable_conv2d_weights", "op": "Const", "attr": {"value": {"tensor": {"dtype": "DT_FLOAT", "tensorShape": {"dim": [{"size": "1"}, {"size": "1"}, {"size": "64"}, {"size": "64"}]}}}, "dtype": {"type": "DT_FLOAT"}}}, {"name": "fpn_cells/cell_0/fnode0/op_after_combine5/conv/separable_conv2d_bn_offset", "op": "Const", "attr": {"value": {"tensor": {"dtype": "DT_FLOAT", "tensorShape": {"dim": [{"size": "64"}]}}}, "dtype": {"type": "DT_FLOAT"}}}, {"name": "fpn_cells/cell_0/fnode1/op_after_combine6/conv/separable_conv2d_weights", "op": "Const", "attr": {"value": {"tensor": {"dtype": "DT_FLOAT", "tensorShape": {"dim": [{"size": "1"}, {"size": "1"}, {"size": "64"}, {"size": "64"}]}}}, "dtype": {"type": "DT_FLOAT"}}}, {"name": "class_net/class-0_3/separable_conv2d_bn_offset", "op": "Const", "attr": {"value": {"tensor": {"dtype": "DT_FLOAT", "tensorShape": {"dim": [{"size": "64"}]}}}, "dtype": {"type": "DT_FLOAT"}}}, {"name": "fpn_cells/cell_0/fnode1/op_after_combine6/conv/separable_conv2d_bn_offset", "op": "Const", "attr": {"value": {"tensor": {"dtype": "DT_FLOAT", "tensorShape": {"dim": [{"size": "64"}]}}}, "dtype": {"type": "DT_FLOAT"}}}, {"name": "fpn_cells/cell_0/fnode2/op_after_combine7/conv/separable_conv2d_weights", "op": "Const", "attr": {"value": {"tensor": {"dtype": "DT_FLOAT", "tensorShape": {"dim": [{"size": "1"}, {"size": "1"}, {"size": "64"}, {"size": "64"}]}}}, "dtype": {"type": "DT_FLOAT"}}}, {"name": "class_net/class-1_4/separable_conv2d_bn_offset", "op": "Const", "attr": {"value": {"tensor": {"dtype": "DT_FLOAT", "tensorShape": {"dim": [{"size": "64"}]}}}, "dtype": {"type": "DT_FLOAT"}}}, {"name": "fpn_cells/cell_0/fnode2/op_after_combine7/conv/separable_conv2d_bn_offset", "op": "Const", "attr": {"value": {"tensor": {"dtype": "DT_FLOAT", "tensorShape": {"dim": [{"size": "64"}]}}}, "dtype": {"type": "DT_FLOAT"}}}, {"name": "fpn_cells/cell_0/fnode3/op_after_combine8/conv/separable_conv2d_weights", "op": "Const", "attr": {"value": {"tensor": {"dtype": "DT_FLOAT", "tensorShape": {"dim": [{"size": "1"}, {"size": "1"}, {"size": "64"}, {"size": "64"}]}}}, "dtype": {"type": "DT_FLOAT"}}}, {"name": "fpn_cells/cell_0/fnode3/op_after_combine8/conv/separable_conv2d_bn_offset", "op": "Const", "attr": {"value": {"tensor": {"dtype": "DT_FLOAT", "tensorShape": {"dim": [{"size": "64"}]}}}, "dtype": {"type": "DT_FLOAT"}}}, {"name": "fpn_cells/cell_0/fnode4/op_after_combine9/conv/separable_conv2d_weights", "op": "Const", "attr": {"value": {"tensor": {"dtype": "DT_FLOAT", "tensorShape": {"dim": [{"size": "1"}, {"size": "1"}, {"size": "64"}, {"size": "64"}]}}}, "dtype": {"type": "DT_FLOAT"}}}, {"name": "fpn_cells/cell_0/fnode4/op_after_combine9/conv/separable_conv2d_bn_offset", "op": "Const", "attr": {"value": {"tensor": {"dtype": "DT_FLOAT", "tensorShape": {"dim": [{"size": "64"}]}}}, "dtype": {"type": "DT_FLOAT"}}}, {"name": "fpn_cells/cell_0/fnode5/op_after_combine10/conv/separable_conv2d_weights", "op": "Const", "attr": {"value": {"tensor": {"dtype": "DT_FLOAT", "tensorShape": {"dim": [{"size": "1"}, {"size": "1"}, {"size": "64"}, {"size": "64"}]}}}, "dtype": {"type": "DT_FLOAT"}}}, {"name": "class_net/class-2_2/separable_conv2d_weights", "op": "Const", "attr": {"value": {"tensor": {"dtype": "DT_FLOAT", "tensorShape": {"dim": [{"size": "1"}, {"size": "1"}, {"size": "64"}, {"size": "64"}]}}}, "dtype": {"type": "DT_FLOAT"}}}, {"name": "fpn_cells/cell_0/fnode5/op_after_combine10/conv/separable_conv2d_bn_offset", "op": "Const", "attr": {"value": {"tensor": {"dtype": "DT_FLOAT", "tensorShape": {"dim": [{"size": "64"}]}}}, "dtype": {"type": "DT_FLOAT"}}}, {"name": "fpn_cells/cell_0/fnode6/op_after_combine11/conv/separable_conv2d_weights", "op": "Const", "attr": {"value": {"tensor": {"dtype": "DT_FLOAT", "tensorShape": {"dim": [{"size": "1"}, {"size": "1"}, {"size": "64"}, {"size": "64"}]}}}, "dtype": {"type": "DT_FLOAT"}}}, {"name": "fpn_cells/cell_0/fnode6/op_after_combine11/conv/separable_conv2d_bn_offset", "op": "Const", "attr": {"value": {"tensor": {"dtype": "DT_FLOAT", "tensorShape": {"dim": [{"size": "64"}]}}}, "dtype": {"type": "DT_FLOAT"}}}, {"name": "fpn_cells/cell_0/fnode7/op_after_combine12/conv/separable_conv2d_weights", "op": "Const", "attr": {"value": {"tensor": {"dtype": "DT_FLOAT", "tensorShape": {"dim": [{"size": "1"}, {"size": "1"}, {"size": "64"}, {"size": "64"}]}}}, "dtype": {"type": "DT_FLOAT"}}}, {"name": "class_net/class-2_2/separable_conv2d_bn_offset", "op": "Const", "attr": {"value": {"tensor": {"dtype": "DT_FLOAT", "tensorShape": {"dim": [{"size": "64"}]}}}, "dtype": {"type": "DT_FLOAT"}}}, {"name": "fpn_cells/cell_0/fnode7/op_after_combine12/conv/separable_conv2d_bn_offset", "op": "Const", "attr": {"value": {"tensor": {"dtype": "DT_FLOAT", "tensorShape": {"dim": [{"size": "64"}]}}}, "dtype": {"type": "DT_FLOAT"}}}, {"name": "fpn_cells/cell_1/fnode0/op_after_combine5/conv/separable_conv2d_weights", "op": "Const", "attr": {"value": {"tensor": {"dtype": "DT_FLOAT", "tensorShape": {"dim": [{"size": "1"}, {"size": "1"}, {"size": "64"}, {"size": "64"}]}}}, "dtype": {"type": "DT_FLOAT"}}}, {"name": "fpn_cells/cell_1/fnode0/op_after_combine5/conv/separable_conv2d_bn_offset", "op": "Const", "attr": {"value": {"tensor": {"dtype": "DT_FLOAT", "tensorShape": {"dim": [{"size": "64"}]}}}, "dtype": {"type": "DT_FLOAT"}}}, {"name": "fpn_cells/cell_1/fnode1/op_after_combine6/conv/separable_conv2d_weights", "op": "Const", "attr": {"value": {"tensor": {"dtype": "DT_FLOAT", "tensorShape": {"dim": [{"size": "1"}, {"size": "1"}, {"size": "64"}, {"size": "64"}]}}}, "dtype": {"type": "DT_FLOAT"}}}, {"name": "fpn_cells/cell_1/fnode1/op_after_combine6/conv/separable_conv2d_bn_offset", "op": "Const", "attr": {"value": {"tensor": {"dtype": "DT_FLOAT", "tensorShape": {"dim": [{"size": "64"}]}}}, "dtype": {"type": "DT_FLOAT"}}}, {"name": "fpn_cells/cell_1/fnode2/op_after_combine7/conv/separable_conv2d_weights", "op": "Const", "attr": {"value": {"tensor": {"dtype": "DT_FLOAT", "tensorShape": {"dim": [{"size": "1"}, {"size": "1"}, {"size": "64"}, {"size": "64"}]}}}, "dtype": {"type": "DT_FLOAT"}}}, {"name": "fpn_cells/cell_1/fnode2/op_after_combine7/conv/separable_conv2d_bn_offset", "op": "Const", "attr": {"value": {"tensor": {"dtype": "DT_FLOAT", "tensorShape": {"dim": [{"size": "64"}]}}}, "dtype": {"type": "DT_FLOAT"}}}, {"name": "fpn_cells/cell_1/fnode3/op_after_combine8/conv/separable_conv2d_weights", "op": "Const", "attr": {"value": {"tensor": {"dtype": "DT_FLOAT", "tensorShape": {"dim": [{"size": "1"}, {"size": "1"}, {"size": "64"}, {"size": "64"}]}}}, "dtype": {"type": "DT_FLOAT"}}}, {"name": "fpn_cells/cell_1/fnode3/op_after_combine8/conv/separable_conv2d_bn_offset", "op": "Const", "attr": {"value": {"tensor": {"dtype": "DT_FLOAT", "tensorShape": {"dim": [{"size": "64"}]}}}, "dtype": {"type": "DT_FLOAT"}}}, {"name": "fpn_cells/cell_1/fnode4/op_after_combine9/conv/separable_conv2d_weights", "op": "Const", "attr": {"value": {"tensor": {"dtype": "DT_FLOAT", "tensorShape": {"dim": [{"size": "1"}, {"size": "1"}, {"size": "64"}, {"size": "64"}]}}}, "dtype": {"type": "DT_FLOAT"}}}, {"name": "fpn_cells/cell_1/fnode4/op_after_combine9/conv/separable_conv2d_bn_offset", "op": "Const", "attr": {"value": {"tensor": {"dtype": "DT_FLOAT", "tensorShape": {"dim": [{"size": "64"}]}}}, "dtype": {"type": "DT_FLOAT"}}}, {"name": "fpn_cells/cell_1/fnode5/op_after_combine10/conv/separable_conv2d_weights", "op": "Const", "attr": {"value": {"tensor": {"dtype": "DT_FLOAT", "tensorShape": {"dim": [{"size": "1"}, {"size": "1"}, {"size": "64"}, {"size": "64"}]}}}, "dtype": {"type": "DT_FLOAT"}}}, {"name": "fpn_cells/cell_1/fnode5/op_after_combine10/conv/separable_conv2d_bn_offset", "op": "Const", "attr": {"value": {"tensor": {"dtype": "DT_FLOAT", "tensorShape": {"dim": [{"size": "64"}]}}}, "dtype": {"type": "DT_FLOAT"}}}, {"name": "fpn_cells/cell_1/fnode6/op_after_combine11/conv/separable_conv2d_weights", "op": "Const", "attr": {"value": {"tensor": {"dtype": "DT_FLOAT", "tensorShape": {"dim": [{"size": "1"}, {"size": "1"}, {"size": "64"}, {"size": "64"}]}}}, "dtype": {"type": "DT_FLOAT"}}}, {"name": "fpn_cells/cell_2/fnode7/op_after_combine12/conv/separable_conv2d_weights", "op": "Const", "attr": {"value": {"tensor": {"dtype": "DT_FLOAT", "tensorShape": {"dim": [{"size": "1"}, {"size": "1"}, {"size": "64"}, {"size": "64"}]}}}, "dtype": {"type": "DT_FLOAT"}}}, {"name": "fpn_cells/cell_1/fnode6/op_after_combine11/conv/separable_conv2d_bn_offset", "op": "Const", "attr": {"value": {"tensor": {"dtype": "DT_FLOAT", "tensorShape": {"dim": [{"size": "64"}]}}}, "dtype": {"type": "DT_FLOAT"}}}, {"name": "fpn_cells/cell_1/fnode7/op_after_combine12/conv/separable_conv2d_weights", "op": "Const", "attr": {"value": {"tensor": {"dtype": "DT_FLOAT", "tensorShape": {"dim": [{"size": "1"}, {"size": "1"}, {"size": "64"}, {"size": "64"}]}}}, "dtype": {"type": "DT_FLOAT"}}}, {"name": "class_net/class-2_4/separable_conv2d_weights", "op": "Const", "attr": {"value": {"tensor": {"dtype": "DT_FLOAT", "tensorShape": {"dim": [{"size": "1"}, {"size": "1"}, {"size": "64"}, {"size": "64"}]}}}, "dtype": {"type": "DT_FLOAT"}}}, {"name": "fpn_cells/cell_1/fnode7/op_after_combine12/conv/separable_conv2d_bn_offset", "op": "Const", "attr": {"value": {"tensor": {"dtype": "DT_FLOAT", "tensorShape": {"dim": [{"size": "64"}]}}}, "dtype": {"type": "DT_FLOAT"}}}, {"name": "fpn_cells/cell_2/fnode0/op_after_combine5/conv/separable_conv2d_weights", "op": "Const", "attr": {"value": {"tensor": {"dtype": "DT_FLOAT", "tensorShape": {"dim": [{"size": "1"}, {"size": "1"}, {"size": "64"}, {"size": "64"}]}}}, "dtype": {"type": "DT_FLOAT"}}}, {"name": "fpn_cells/cell_2/fnode7/op_after_combine12/conv/separable_conv2d_bn_offset", "op": "Const", "attr": {"value": {"tensor": {"dtype": "DT_FLOAT", "tensorShape": {"dim": [{"size": "64"}]}}}, "dtype": {"type": "DT_FLOAT"}}}, {"name": "fpn_cells/cell_2/fnode0/op_after_combine5/conv/separable_conv2d_bn_offset", "op": "Const", "attr": {"value": {"tensor": {"dtype": "DT_FLOAT", "tensorShape": {"dim": [{"size": "64"}]}}}, "dtype": {"type": "DT_FLOAT"}}}, {"name": "fpn_cells/cell_2/fnode1/op_after_combine6/conv/separable_conv2d_weights", "op": "Const", "attr": {"value": {"tensor": {"dtype": "DT_FLOAT", "tensorShape": {"dim": [{"size": "1"}, {"size": "1"}, {"size": "64"}, {"size": "64"}]}}}, "dtype": {"type": "DT_FLOAT"}}}, {"name": "fpn_cells/cell_2/fnode1/op_after_combine6/conv/separable_conv2d_bn_offset", "op": "Const", "attr": {"value": {"tensor": {"dtype": "DT_FLOAT", "tensorShape": {"dim": [{"size": "64"}]}}}, "dtype": {"type": "DT_FLOAT"}}}, {"name": "fpn_cells/cell_2/fnode2/op_after_combine7/conv/separable_conv2d_weights", "op": "Const", "attr": {"value": {"tensor": {"dtype": "DT_FLOAT", "tensorShape": {"dim": [{"size": "1"}, {"size": "1"}, {"size": "64"}, {"size": "64"}]}}}, "dtype": {"type": "DT_FLOAT"}}}, {"name": "fpn_cells/cell_2/fnode2/op_after_combine7/conv/separable_conv2d_bn_offset", "op": "Const", "attr": {"value": {"tensor": {"dtype": "DT_FLOAT", "tensorShape": {"dim": [{"size": "64"}]}}}, "dtype": {"type": "DT_FLOAT"}}}, {"name": "fpn_cells/cell_2/fnode3/op_after_combine8/conv/separable_conv2d_weights", "op": "Const", "attr": {"value": {"tensor": {"dtype": "DT_FLOAT", "tensorShape": {"dim": [{"size": "1"}, {"size": "1"}, {"size": "64"}, {"size": "64"}]}}}, "dtype": {"type": "DT_FLOAT"}}}, {"name": "class_net/class-1_3/separable_conv2d_weights", "op": "Const", "attr": {"value": {"tensor": {"dtype": "DT_FLOAT", "tensorShape": {"dim": [{"size": "1"}, {"size": "1"}, {"size": "64"}, {"size": "64"}]}}}, "dtype": {"type": "DT_FLOAT"}}}, {"name": "fpn_cells/cell_2/fnode3/op_after_combine8/conv/separable_conv2d_bn_offset", "op": "Const", "attr": {"value": {"tensor": {"dtype": "DT_FLOAT", "tensorShape": {"dim": [{"size": "64"}]}}}, "dtype": {"type": "DT_FLOAT"}}}, {"name": "class_net/class-0/separable_conv2d_weights", "op": "Const", "attr": {"value": {"tensor": {"dtype": "DT_FLOAT", "tensorShape": {"dim": [{"size": "1"}, {"size": "1"}, {"size": "64"}, {"size": "64"}]}}}, "dtype": {"type": "DT_FLOAT"}}}, {"name": "class_net/class-0/separable_conv2d_bn_offset", "op": "Const", "attr": {"value": {"tensor": {"dtype": "DT_FLOAT", "tensorShape": {"dim": [{"size": "64"}]}}}, "dtype": {"type": "DT_FLOAT"}}}, {"name": "class_net/class-1_3/separable_conv2d_bn_offset", "op": "Const", "attr": {"value": {"tensor": {"dtype": "DT_FLOAT", "tensorShape": {"dim": [{"size": "64"}]}}}, "dtype": {"type": "DT_FLOAT"}}}, {"name": "fpn_cells/cell_2/fnode4/op_after_combine9/conv/separable_conv2d_weights", "op": "Const", "attr": {"value": {"tensor": {"dtype": "DT_FLOAT", "tensorShape": {"dim": [{"size": "1"}, {"size": "1"}, {"size": "64"}, {"size": "64"}]}}}, "dtype": {"type": "DT_FLOAT"}}}, {"name": "class_net/class-2_4/separable_conv2d_bn_offset", "op": "Const", "attr": {"value": {"tensor": {"dtype": "DT_FLOAT", "tensorShape": {"dim": [{"size": "64"}]}}}, "dtype": {"type": "DT_FLOAT"}}}, {"name": "fpn_cells/cell_2/fnode4/op_after_combine9/conv/separable_conv2d_bn_offset", "op": "Const", "attr": {"value": {"tensor": {"dtype": "DT_FLOAT", "tensorShape": {"dim": [{"size": "64"}]}}}, "dtype": {"type": "DT_FLOAT"}}}, {"name": "class_net/class-1/separable_conv2d_weights", "op": "Const", "attr": {"value": {"tensor": {"dtype": "DT_FLOAT", "tensorShape": {"dim": [{"size": "1"}, {"size": "1"}, {"size": "64"}, {"size": "64"}]}}}, "dtype": {"type": "DT_FLOAT"}}}, {"name": "class_net/class-1/separable_conv2d_bn_offset", "op": "Const", "attr": {"value": {"tensor": {"dtype": "DT_FLOAT", "tensorShape": {"dim": [{"size": "64"}]}}}, "dtype": {"type": "DT_FLOAT"}}}, {"name": "class_net/class-0_1/separable_conv2d_weights", "op": "Const", "attr": {"value": {"tensor": {"dtype": "DT_FLOAT", "tensorShape": {"dim": [{"size": "1"}, {"size": "1"}, {"size": "64"}, {"size": "64"}]}}}, "dtype": {"type": "DT_FLOAT"}}}, {"name": "class_net/class-0_4/separable_conv2d_weights", "op": "Const", "attr": {"value": {"tensor": {"dtype": "DT_FLOAT", "tensorShape": {"dim": [{"size": "1"}, {"size": "1"}, {"size": "64"}, {"size": "64"}]}}}, "dtype": {"type": "DT_FLOAT"}}}, {"name": "class_net/class-0_1/separable_conv2d_bn_offset", "op": "Const", "attr": {"value": {"tensor": {"dtype": "DT_FLOAT", "tensorShape": {"dim": [{"size": "64"}]}}}, "dtype": {"type": "DT_FLOAT"}}}, {"name": "class_net/class-2/separable_conv2d_weights", "op": "Const", "attr": {"value": {"tensor": {"dtype": "DT_FLOAT", "tensorShape": {"dim": [{"size": "1"}, {"size": "1"}, {"size": "64"}, {"size": "64"}]}}}, "dtype": {"type": "DT_FLOAT"}}}, {"name": "Cast", "op": "Cast", "input": ["input"], "attr": {"SrcT": {"type": "DT_UINT8"}, "Truncate": {"b": false}, "DstT": {"type": "DT_FLOAT"}}}, {"name": "sub", "op": "Sub", "input": ["Cast", "Const_3"], "attr": {"T": {"type": "DT_FLOAT"}}}, {"name": "truediv", "op": "Mul", "input": ["sub", "ConstantFolding/truediv_recip"], "attr": {"T": {"type": "DT_FLOAT"}}}, {"name": "resize/ExpandDims", "op": "ExpandDims", "input": ["truediv", "resize/ExpandDims/dim"], "attr": {"Tdim": {"type": "DT_INT32"}, "T": {"type": "DT_FLOAT"}}}, {"name": "Shape_3", "op": "Shape", "input": ["truediv"], "attr": {"T": {"type": "DT_FLOAT"}, "out_type": {"type": "DT_INT32"}}}, {"name": "Shape_2", "op": "Shape", "input": ["truediv"], "attr": {"T": {"type": "DT_FLOAT"}, "out_type": {"type": "DT_INT32"}}}, {"name": "strided_slice_3", "op": "StridedSlice", "input": ["Shape_3", "strided_slice_3/stack", "strided_slice_3/stack_1", "strided_slice_3/stack_2"], "attr": {"T": {"type": "DT_INT32"}, "Index": {"type": "DT_INT32"}, "shrink_axis_mask": {"i": "1"}, "begin_mask": {"i": "0"}, "ellipsis_mask": {"i": "0"}, "new_axis_mask": {"i": "0"}, "end_mask": {"i": "0"}}}, {"name": "strided_slice_2", "op": "StridedSlice", "input": ["Shape_2", "strided_slice_2/stack", "strided_slice_2/stack_1", "strided_slice_2/stack_2"], "attr": {"T": {"type": "DT_INT32"}, "Index": {"type": "DT_INT32"}, "shrink_axis_mask": {"i": "1"}, "begin_mask": {"i": "0"}, "ellipsis_mask": {"i": "0"}, "new_axis_mask": {"i": "0"}, "end_mask": {"i": "0"}}}, {"name": "Cast_2", "op": "Cast", "input": ["strided_slice_3"], "attr": {"SrcT": {"type": "DT_INT32"}, "Truncate": {"b": false}, "DstT": {"type": "DT_FLOAT"}}}, {"name": "Cast_1", "op": "Cast", "input": ["strided_slice_2"], "attr": {"SrcT": {"type": "DT_INT32"}, "Truncate": {"b": false}, "DstT": {"type": "DT_FLOAT"}}}, {"name": "truediv_2", "op": "RealDiv", "input": ["Cast_4", "Cast_2"], "attr": {"T": {"type": "DT_FLOAT"}}}, {"name": "truediv_1", "op": "RealDiv", "input": ["Cast_3", "Cast_1"], "attr": {"T": {"type": "DT_FLOAT"}}}, {"name": "Minimum", "op": "Minimum", "input": ["truediv_2", "truediv_1"], "attr": {"T": {"type": "DT_FLOAT"}}}, {"name": "mul_1", "op": "Mul", "input": ["Cast_2", "Minimum"], "attr": {"T": {"type": "DT_FLOAT"}}}, {"name": "truediv_3", "op": "Reciprocal", "input": ["Minimum"], "attr": {"T": {"type": "DT_FLOAT"}}}, {"name": "mul", "op": "Mul", "input": ["Cast_1", "Minimum"], "attr": {"T": {"type": "DT_FLOAT"}}}, {"name": "Cast_6", "op": "Cast", "input": ["mul_1"], "attr": {"SrcT": {"type": "DT_FLOAT"}, "Truncate": {"b": false}, "DstT": {"type": "DT_INT32"}}}, {"name": "Cast_5", "op": "Cast", "input": ["mul"], "attr": {"SrcT": {"type": "DT_FLOAT"}, "Truncate": {"b": false}, "DstT": {"type": "DT_INT32"}}}, {"name": "resize/size", "op": "Pack", "input": ["Cast_5", "Cast_6"], "attr": {"T": {"type": "DT_INT32"}, "axis": {"i": "0"}, "N": {"i": "2"}}}, {"name": "resize/ResizeBilinear", "op": "ResizeBilinear", "input": ["resize/ExpandDims", "resize/size"], "attr": {"align_corners": {"b": false}, "half_pixel_centers": {"b": true}, "T": {"type": "DT_FLOAT"}}}, {"name": "resize/Squeeze", "op": "Squeeze", "input": ["resize/ResizeBilinear"], "attr": {"squeeze_dims": {"list": {"i": ["0"]}}, "T": {"type": "DT_FLOAT"}}}, {"name": "strided_slice_4", "op": "StridedSlice", "input": ["resize/Squeeze", "strided_slice_4/stack", "strided_slice_4/stack_1", "strided_slice_4/stack_2"], "attr": {"T": {"type": "DT_FLOAT"}, "Index": {"type": "DT_INT32"}, "shrink_axis_mask": {"i": "0"}, "begin_mask": {"i": "4"}, "ellipsis_mask": {"i": "0"}, "new_axis_mask": {"i": "0"}, "end_mask": {"i": "4"}}}, {"name": "pad_to_bounding_box/ExpandDims", "op": "ExpandDims", "input": ["strided_slice_4", "pad_to_bounding_box/ExpandDims/dim"], "attr": {"Tdim": {"type": "DT_INT32"}, "T": {"type": "DT_FLOAT"}}}, {"name": "pad_to_bounding_box/Shape_1", "op": "Shape", "input": ["pad_to_bounding_box/ExpandDims"], "attr": {"T": {"type": "DT_FLOAT"}, "out_type": {"type": "DT_INT32"}}}, {"name": "pad_to_bounding_box/unstack", "op": "Unpack", "input": ["pad_to_bounding_box/Shape_1"], "attr": {"T": {"type": "DT_INT32"}, "num": {"i": "4"}, "axis": {"i": "0"}}}, {"name": "pad_to_bounding_box/sub_1", "op": "Sub", "input": ["pad_to_bounding_box/sub_1/x", "pad_to_bounding_box/unstack:1"], "attr": {"T": {"type": "DT_INT32"}}}, {"name": "pad_to_bounding_box/sub", "op": "Sub", "input": ["pad_to_bounding_box/sub/x", "pad_to_bounding_box/unstack:2"], "attr": {"T": {"type": "DT_INT32"}}}, {"name": "pad_to_bounding_box/stack", "op": "Pack", "input": ["pad_to_bounding_box/stack/0", "pad_to_bounding_box/stack/1", "pad_to_bounding_box/stack/2", "pad_to_bounding_box/sub_1", "pad_to_bounding_box/stack/4", "pad_to_bounding_box/sub", "pad_to_bounding_box/stack/6", "pad_to_bounding_box/stack/7"], "attr": {"T": {"type": "DT_INT32"}, "axis": {"i": "0"}, "N": {"i": "8"}}}, {"name": "pad_to_bounding_box/Reshape", "op": "Reshape", "input": ["pad_to_bounding_box/stack", "pad_to_bounding_box/Reshape/shape"], "attr": {"T": {"type": "DT_INT32"}, "Tshape": {"type": "DT_INT32"}}}, {"name": "pad_to_bounding_box/Pad", "op": "Pad", "input": ["pad_to_bounding_box/ExpandDims", "pad_to_bounding_box/Reshape"], "attr": {"T": {"type": "DT_FLOAT"}, "Tpaddings": {"type": "DT_INT32"}}}, {"name": "pad_to_bounding_box/Squeeze", "op": "Squeeze", "input": ["pad_to_bounding_box/Pad"], "attr": {"squeeze_dims": {"list": {"i": ["0"]}}, "T": {"type": "DT_FLOAT"}}}, {"name": "ExpandDims", "op": "ExpandDims", "input": ["pad_to_bounding_box/Squeeze", "ExpandDims/dim"], "attr": {"Tdim": {"type": "DT_INT32"}, "T": {"type": "DT_FLOAT"}}}, {"name": "efficientnet-lite0/stem/Relu6", "op": "_FusedConv2D", "input": ["ExpandDims", "efficientnet-lite0/stem/conv2d/Conv2D_weights", "efficientnet-lite0/stem/conv2d/Conv2D_bn_offset"], "device": "/device:CPU:0", "attr": {"dilations": {"list": {"i": ["1", "1", "1", "1"]}}, "T": {"type": "DT_FLOAT"}, "data_format": {"s": "TkhXQw=="}, "strides": {"list": {"i": ["1", "2", "2", "1"]}}, "explicit_paddings": {"list": {}}, "use_cudnn_on_gpu": {"b": true}, "num_args": {"i": "1"}, "epsilon": {"f": 0.0}, "padding": {"s": "U0FNRQ=="}, "fused_ops": {"list": {"s": ["Qmlhc0FkZA==", "UmVsdTY="]}}}}, {"name": "efficientnet-lite0/blocks_0/depthwise_conv2d/depthwise", "op": "FusedDepthwiseConv2dNative", "input": ["efficientnet-lite0/stem/Relu6", "efficientnet-lite0/blocks_0/depthwise_conv2d/depthwise_weights", "efficientnet-lite0/blocks_0/depthwise_conv2d/depthwise_bn_offset"], "attr": {"dilations": {"list": {"i": ["1", "1", "1", "1"]}}, "T": {"type": "DT_FLOAT"}, "strides": {"list": {"i": ["1", "1", "1", "1"]}}, "data_format": {"s": "TkhXQw=="}, "explicit_paddings": {"list": {}}, "padding": {"s": "U0FNRQ=="}, "fused_ops": {"list": {"s": ["Qmlhc0FkZA==", "UmVsdTY="]}}, "num_args": {"i": "1"}}}, {"name": "efficientnet-lite0/blocks_0/tpu_batch_normalization_1/FusedBatchNormV3", "op": "_FusedConv2D", "input": ["efficientnet-lite0/blocks_0/depthwise_conv2d/depthwise", "efficientnet-lite0/blocks_0/conv2d/Conv2D_weights", "efficientnet-lite0/blocks_0/conv2d/Conv2D_bn_offset"], "device": "/device:CPU:0", "attr": {"dilations": {"list": {"i": ["1", "1", "1", "1"]}}, "T": {"type": "DT_FLOAT"}, "data_format": {"s": "TkhXQw=="}, "strides": {"list": {"i": ["1", "1", "1", "1"]}}, "explicit_paddings": {"list": {}}, "use_cudnn_on_gpu": {"b": true}, "num_args": {"i": "1"}, "epsilon": {"f": 0.0}, "padding": {"s": "U0FNRQ=="}, "fused_ops": {"list": {"s": ["Qmlhc0FkZA=="]}}}}, {"name": "efficientnet-lite0/blocks_1/Relu6", "op": "_FusedConv2D", "input": ["efficientnet-lite0/blocks_0/tpu_batch_normalization_1/FusedBatchNormV3", "efficientnet-lite0/blocks_1/conv2d/Conv2D_weights", "efficientnet-lite0/blocks_1/conv2d/Conv2D_bn_offset"], "device": "/device:CPU:0", "attr": {"dilations": {"list": {"i": ["1", "1", "1", "1"]}}, "T": {"type": "DT_FLOAT"}, "data_format": {"s": "TkhXQw=="}, "strides": {"list": {"i": ["1", "1", "1", "1"]}}, "explicit_paddings": {"list": {}}, "use_cudnn_on_gpu": {"b": true}, "num_args": {"i": "1"}, "epsilon": {"f": 0.0}, "padding": {"s": "U0FNRQ=="}, "fused_ops": {"list": {"s": ["Qmlhc0FkZA==", "UmVsdTY="]}}}}, {"name": "efficientnet-lite0/blocks_1/depthwise_conv2d/depthwise", "op": "FusedDepthwiseConv2dNative", "input": ["efficientnet-lite0/blocks_1/Relu6", "efficientnet-lite0/blocks_1/depthwise_conv2d/depthwise_weights", "efficientnet-lite0/blocks_1/depthwise_conv2d/depthwise_bn_offset"], "attr": {"dilations": {"list": {"i": ["1", "1", "1", "1"]}}, "T": {"type": "DT_FLOAT"}, "strides": {"list": {"i": ["1", "2", "2", "1"]}}, "data_format": {"s": "TkhXQw=="}, "explicit_paddings": {"list": {}}, "padding": {"s": "U0FNRQ=="}, "fused_ops": {"list": {"s": ["Qmlhc0FkZA==", "UmVsdTY="]}}, "num_args": {"i": "1"}}}, {"name": "efficientnet-lite0/blocks_1/tpu_batch_normalization_2/FusedBatchNormV3", "op": "_FusedConv2D", "input": ["efficientnet-lite0/blocks_1/depthwise_conv2d/depthwise", "efficientnet-lite0/blocks_1/conv2d_1/Conv2D_weights", "efficientnet-lite0/blocks_1/conv2d_1/Conv2D_bn_offset"], "device": "/device:CPU:0", "attr": {"dilations": {"list": {"i": ["1", "1", "1", "1"]}}, "T": {"type": "DT_FLOAT"}, "data_format": {"s": "TkhXQw=="}, "strides": {"list": {"i": ["1", "1", "1", "1"]}}, "explicit_paddings": {"list": {}}, "use_cudnn_on_gpu": {"b": true}, "num_args": {"i": "1"}, "epsilon": {"f": 0.0}, "padding": {"s": "U0FNRQ=="}, "fused_ops": {"list": {"s": ["Qmlhc0FkZA=="]}}}}, {"name": "efficientnet-lite0/blocks_2/Relu6", "op": "_FusedConv2D", "input": ["efficientnet-lite0/blocks_1/tpu_batch_normalization_2/FusedBatchNormV3", "efficientnet-lite0/blocks_2/conv2d/Conv2D_weights", "efficientnet-lite0/blocks_2/conv2d/Conv2D_bn_offset"], "device": "/device:CPU:0", "attr": {"dilations": {"list": {"i": ["1", "1", "1", "1"]}}, "T": {"type": "DT_FLOAT"}, "data_format": {"s": "TkhXQw=="}, "strides": {"list": {"i": ["1", "1", "1", "1"]}}, "explicit_paddings": {"list": {}}, "use_cudnn_on_gpu": {"b": true}, "num_args": {"i": "1"}, "epsilon": {"f": 0.0}, "padding": {"s": "U0FNRQ=="}, "fused_ops": {"list": {"s": ["Qmlhc0FkZA==", "UmVsdTY="]}}}}, {"name": "efficientnet-lite0/blocks_2/depthwise_conv2d/depthwise", "op": "FusedDepthwiseConv2dNative", "input": ["efficientnet-lite0/blocks_2/Relu6", "efficientnet-lite0/blocks_2/depthwise_conv2d/depthwise_weights", "efficientnet-lite0/blocks_2/depthwise_conv2d/depthwise_bn_offset"], "attr": {"dilations": {"list": {"i": ["1", "1", "1", "1"]}}, "T": {"type": "DT_FLOAT"}, "strides": {"list": {"i": ["1", "1", "1", "1"]}}, "data_format": {"s": "TkhXQw=="}, "explicit_paddings": {"list": {}}, "padding": {"s": "U0FNRQ=="}, "fused_ops": {"list": {"s": ["Qmlhc0FkZA==", "UmVsdTY="]}}, "num_args": {"i": "1"}}}, {"name": "efficientnet-lite0/blocks_2/tpu_batch_normalization_2/FusedBatchNormV3", "op": "_FusedConv2D", "input": ["efficientnet-lite0/blocks_2/depthwise_conv2d/depthwise", "efficientnet-lite0/blocks_2/conv2d_1/Conv2D_weights", "efficientnet-lite0/blocks_2/conv2d_1/Conv2D_bn_offset"], "device": "/device:CPU:0", "attr": {"dilations": {"list": {"i": ["1", "1", "1", "1"]}}, "T": {"type": "DT_FLOAT"}, "data_format": {"s": "TkhXQw=="}, "strides": {"list": {"i": ["1", "1", "1", "1"]}}, "explicit_paddings": {"list": {}}, "use_cudnn_on_gpu": {"b": true}, "num_args": {"i": "1"}, "epsilon": {"f": 0.0}, "padding": {"s": "U0FNRQ=="}, "fused_ops": {"list": {"s": ["Qmlhc0FkZA=="]}}}}, {"name": "efficientnet-lite0/blocks_2/Add", "op": "Add", "input": ["efficientnet-lite0/blocks_2/tpu_batch_normalization_2/FusedBatchNormV3", "efficientnet-lite0/blocks_1/tpu_batch_normalization_2/FusedBatchNormV3"], "attr": {"T": {"type": "DT_FLOAT"}}}, {"name": "efficientnet-lite0/blocks_3/Relu6", "op": "_FusedConv2D", "input": ["efficientnet-lite0/blocks_2/Add", "efficientnet-lite0/blocks_3/conv2d/Conv2D_weights", "efficientnet-lite0/blocks_3/conv2d/Conv2D_bn_offset"], "device": "/device:CPU:0", "attr": {"dilations": {"list": {"i": ["1", "1", "1", "1"]}}, "T": {"type": "DT_FLOAT"}, "data_format": {"s": "TkhXQw=="}, "strides": {"list": {"i": ["1", "1", "1", "1"]}}, "explicit_paddings": {"list": {}}, "use_cudnn_on_gpu": {"b": true}, "num_args": {"i": "1"}, "epsilon": {"f": 0.0}, "padding": {"s": "U0FNRQ=="}, "fused_ops": {"list": {"s": ["Qmlhc0FkZA==", "UmVsdTY="]}}}}, {"name": "efficientnet-lite0/blocks_3/depthwise_conv2d/depthwise", "op": "FusedDepthwiseConv2dNative", "input": ["efficientnet-lite0/blocks_3/Relu6", "efficientnet-lite0/blocks_3/depthwise_conv2d/depthwise_weights", "efficientnet-lite0/blocks_3/depthwise_conv2d/depthwise_bn_offset"], "attr": {"dilations": {"list": {"i": ["1", "1", "1", "1"]}}, "T": {"type": "DT_FLOAT"}, "strides": {"list": {"i": ["1", "2", "2", "1"]}}, "data_format": {"s": "TkhXQw=="}, "explicit_paddings": {"list": {}}, "padding": {"s": "U0FNRQ=="}, "fused_ops": {"list": {"s": ["Qmlhc0FkZA==", "UmVsdTY="]}}, "num_args": {"i": "1"}}}, {"name": "efficientnet-lite0/blocks_3/tpu_batch_normalization_2/FusedBatchNormV3", "op": "_FusedConv2D", "input": ["efficientnet-lite0/blocks_3/depthwise_conv2d/depthwise", "efficientnet-lite0/blocks_3/conv2d_1/Conv2D_weights", "efficientnet-lite0/blocks_3/conv2d_1/Conv2D_bn_offset"], "device": "/device:CPU:0", "attr": {"dilations": {"list": {"i": ["1", "1", "1", "1"]}}, "T": {"type": "DT_FLOAT"}, "data_format": {"s": "TkhXQw=="}, "strides": {"list": {"i": ["1", "1", "1", "1"]}}, "explicit_paddings": {"list": {}}, "use_cudnn_on_gpu": {"b": true}, "num_args": {"i": "1"}, "epsilon": {"f": 0.0}, "padding": {"s": "U0FNRQ=="}, "fused_ops": {"list": {"s": ["Qmlhc0FkZA=="]}}}}, {"name": "efficientnet-lite0/blocks_4/Relu6", "op": "_FusedConv2D", "input": ["efficientnet-lite0/blocks_3/tpu_batch_normalization_2/FusedBatchNormV3", "efficientnet-lite0/blocks_4/conv2d/Conv2D_weights", "efficientnet-lite0/blocks_4/conv2d/Conv2D_bn_offset"], "device": "/device:CPU:0", "attr": {"dilations": {"list": {"i": ["1", "1", "1", "1"]}}, "T": {"type": "DT_FLOAT"}, "data_format": {"s": "TkhXQw=="}, "strides": {"list": {"i": ["1", "1", "1", "1"]}}, "explicit_paddings": {"list": {}}, "use_cudnn_on_gpu": {"b": true}, "num_args": {"i": "1"}, "epsilon": {"f": 0.0}, "padding": {"s": "U0FNRQ=="}, "fused_ops": {"list": {"s": ["Qmlhc0FkZA==", "UmVsdTY="]}}}}, {"name": "efficientnet-lite0/blocks_4/depthwise_conv2d/depthwise", "op": "FusedDepthwiseConv2dNative", "input": ["efficientnet-lite0/blocks_4/Relu6", "efficientnet-lite0/blocks_4/depthwise_conv2d/depthwise_weights", "efficientnet-lite0/blocks_4/depthwise_conv2d/depthwise_bn_offset"], "attr": {"dilations": {"list": {"i": ["1", "1", "1", "1"]}}, "T": {"type": "DT_FLOAT"}, "strides": {"list": {"i": ["1", "1", "1", "1"]}}, "data_format": {"s": "TkhXQw=="}, "explicit_paddings": {"list": {}}, "padding": {"s": "U0FNRQ=="}, "fused_ops": {"list": {"s": ["Qmlhc0FkZA==", "UmVsdTY="]}}, "num_args": {"i": "1"}}}, {"name": "efficientnet-lite0/blocks_4/tpu_batch_normalization_2/FusedBatchNormV3", "op": "_FusedConv2D", "input": ["efficientnet-lite0/blocks_4/depthwise_conv2d/depthwise", "efficientnet-lite0/blocks_4/conv2d_1/Conv2D_weights", "efficientnet-lite0/blocks_4/conv2d_1/Conv2D_bn_offset"], "device": "/device:CPU:0", "attr": {"dilations": {"list": {"i": ["1", "1", "1", "1"]}}, "T": {"type": "DT_FLOAT"}, "data_format": {"s": "TkhXQw=="}, "strides": {"list": {"i": ["1", "1", "1", "1"]}}, "explicit_paddings": {"list": {}}, "use_cudnn_on_gpu": {"b": true}, "num_args": {"i": "1"}, "epsilon": {"f": 0.0}, "padding": {"s": "U0FNRQ=="}, "fused_ops": {"list": {"s": ["Qmlhc0FkZA=="]}}}}, {"name": "efficientnet-lite0/blocks_4/Add", "op": "Add", "input": ["efficientnet-lite0/blocks_4/tpu_batch_normalization_2/FusedBatchNormV3", "efficientnet-lite0/blocks_3/tpu_batch_normalization_2/FusedBatchNormV3"], "attr": {"T": {"type": "DT_FLOAT"}}}, {"name": "efficientnet-lite0/blocks_5/Relu6", "op": "_FusedConv2D", "input": ["efficientnet-lite0/blocks_4/Add", "efficientnet-lite0/blocks_5/conv2d/Conv2D_weights", "efficientnet-lite0/blocks_5/conv2d/Conv2D_bn_offset"], "device": "/device:CPU:0", "attr": {"dilations": {"list": {"i": ["1", "1", "1", "1"]}}, "T": {"type": "DT_FLOAT"}, "data_format": {"s": "TkhXQw=="}, "strides": {"list": {"i": ["1", "1", "1", "1"]}}, "explicit_paddings": {"list": {}}, "use_cudnn_on_gpu": {"b": true}, "num_args": {"i": "1"}, "epsilon": {"f": 0.0}, "padding": {"s": "U0FNRQ=="}, "fused_ops": {"list": {"s": ["Qmlhc0FkZA==", "UmVsdTY="]}}}}, {"name": "fpn_cells/cell_0/fnode3/resample_0_0_8/bn/FusedBatchNormV3", "op": "_FusedConv2D", "input": ["efficientnet-lite0/blocks_4/Add", "fpn_cells/cell_0/fnode3/resample_0_0_8/conv2d/Conv2D_weights", "fpn_cells/cell_0/fnode3/resample_0_0_8/conv2d/Conv2D_bn_offset"], "device": "/device:CPU:0", "attr": {"dilations": {"list": {"i": ["1", "1", "1", "1"]}}, "T": {"type": "DT_FLOAT"}, "data_format": {"s": "TkhXQw=="}, "strides": {"list": {"i": ["1", "1", "1", "1"]}}, "explicit_paddings": {"list": {}}, "use_cudnn_on_gpu": {"b": true}, "num_args": {"i": "1"}, "epsilon": {"f": 0.0}, "padding": {"s": "U0FNRQ=="}, "fused_ops": {"list": {"s": ["Qmlhc0FkZA=="]}}}}, {"name": "efficientnet-lite0/blocks_5/depthwise_conv2d/depthwise", "op": "FusedDepthwiseConv2dNative", "input": ["efficientnet-lite0/blocks_5/Relu6", "efficientnet-lite0/blocks_5/depthwise_conv2d/depthwise_weights", "efficientnet-lite0/blocks_5/depthwise_conv2d/depthwise_bn_offset"], "attr": {"dilations": {"list": {"i": ["1", "1", "1", "1"]}}, "T": {"type": "DT_FLOAT"}, "strides": {"list": {"i": ["1", "2", "2", "1"]}}, "data_format": {"s": "TkhXQw=="}, "explicit_paddings": {"list": {}}, "padding": {"s": "U0FNRQ=="}, "fused_ops": {"list": {"s": ["Qmlhc0FkZA==", "UmVsdTY="]}}, "num_args": {"i": "1"}}}, {"name": "efficientnet-lite0/blocks_5/tpu_batch_normalization_2/FusedBatchNormV3", "op": "_FusedConv2D", "input": ["efficientnet-lite0/blocks_5/depthwise_conv2d/depthwise", "efficientnet-lite0/blocks_5/conv2d_1/Conv2D_weights", "efficientnet-lite0/blocks_5/conv2d_1/Conv2D_bn_offset"], "device": "/device:CPU:0", "attr": {"dilations": {"list": {"i": ["1", "1", "1", "1"]}}, "T": {"type": "DT_FLOAT"}, "data_format": {"s": "TkhXQw=="}, "strides": {"list": {"i": ["1", "1", "1", "1"]}}, "explicit_paddings": {"list": {}}, "use_cudnn_on_gpu": {"b": true}, "num_args": {"i": "1"}, "epsilon": {"f": 0.0}, "padding": {"s": "U0FNRQ=="}, "fused_ops": {"list": {"s": ["Qmlhc0FkZA=="]}}}}, {"name": "efficientnet-lite0/blocks_6/Relu6", "op": "_FusedConv2D", "input": ["efficientnet-lite0/blocks_5/tpu_batch_normalization_2/FusedBatchNormV3", "efficientnet-lite0/blocks_6/conv2d/Conv2D_weights", "efficientnet-lite0/blocks_6/conv2d/Conv2D_bn_offset"], "device": "/device:CPU:0", "attr": {"dilations": {"list": {"i": ["1", "1", "1", "1"]}}, "T": {"type": "DT_FLOAT"}, "data_format": {"s": "TkhXQw=="}, "strides": {"list": {"i": ["1", "1", "1", "1"]}}, "explicit_paddings": {"list": {}}, "use_cudnn_on_gpu": {"b": true}, "num_args": {"i": "1"}, "epsilon": {"f": 0.0}, "padding": {"s": "U0FNRQ=="}, "fused_ops": {"list": {"s": ["Qmlhc0FkZA==", "UmVsdTY="]}}}}, {"name": "efficientnet-lite0/blocks_6/depthwise_conv2d/depthwise", "op": "FusedDepthwiseConv2dNative", "input": ["efficientnet-lite0/blocks_6/Relu6", "efficientnet-lite0/blocks_6/depthwise_conv2d/depthwise_weights", "efficientnet-lite0/blocks_6/depthwise_conv2d/depthwise_bn_offset"], "attr": {"dilations": {"list": {"i": ["1", "1", "1", "1"]}}, "T": {"type": "DT_FLOAT"}, "strides": {"list": {"i": ["1", "1", "1", "1"]}}, "data_format": {"s": "TkhXQw=="}, "explicit_paddings": {"list": {}}, "padding": {"s": "U0FNRQ=="}, "fused_ops": {"list": {"s": ["Qmlhc0FkZA==", "UmVsdTY="]}}, "num_args": {"i": "1"}}}, {"name": "efficientnet-lite0/blocks_6/tpu_batch_normalization_2/FusedBatchNormV3", "op": "_FusedConv2D", "input": ["efficientnet-lite0/blocks_6/depthwise_conv2d/depthwise", "efficientnet-lite0/blocks_6/conv2d_1/Conv2D_weights", "efficientnet-lite0/blocks_6/conv2d_1/Conv2D_bn_offset"], "device": "/device:CPU:0", "attr": {"dilations": {"list": {"i": ["1", "1", "1", "1"]}}, "T": {"type": "DT_FLOAT"}, "data_format": {"s": "TkhXQw=="}, "strides": {"list": {"i": ["1", "1", "1", "1"]}}, "explicit_paddings": {"list": {}}, "use_cudnn_on_gpu": {"b": true}, "num_args": {"i": "1"}, "epsilon": {"f": 0.0}, "padding": {"s": "U0FNRQ=="}, "fused_ops": {"list": {"s": ["Qmlhc0FkZA=="]}}}}, {"name": "efficientnet-lite0/blocks_6/Add", "op": "Add", "input": ["efficientnet-lite0/blocks_6/tpu_batch_normalization_2/FusedBatchNormV3", "efficientnet-lite0/blocks_5/tpu_batch_normalization_2/FusedBatchNormV3"], "attr": {"T": {"type": "DT_FLOAT"}}}, {"name": "efficientnet-lite0/blocks_7/Relu6", "op": "_FusedConv2D", "input": ["efficientnet-lite0/blocks_6/Add", "efficientnet-lite0/blocks_7/conv2d/Conv2D_weights", "efficientnet-lite0/blocks_7/conv2d/Conv2D_bn_offset"], "device": "/device:CPU:0", "attr": {"dilations": {"list": {"i": ["1", "1", "1", "1"]}}, "T": {"type": "DT_FLOAT"}, "data_format": {"s": "TkhXQw=="}, "strides": {"list": {"i": ["1", "1", "1", "1"]}}, "explicit_paddings": {"list": {}}, "use_cudnn_on_gpu": {"b": true}, "num_args": {"i": "1"}, "epsilon": {"f": 0.0}, "padding": {"s": "U0FNRQ=="}, "fused_ops": {"list": {"s": ["Qmlhc0FkZA==", "UmVsdTY="]}}}}, {"name": "efficientnet-lite0/blocks_7/depthwise_conv2d/depthwise", "op": "FusedDepthwiseConv2dNative", "input": ["efficientnet-lite0/blocks_7/Relu6", "efficientnet-lite0/blocks_7/depthwise_conv2d/depthwise_weights", "efficientnet-lite0/blocks_7/depthwise_conv2d/depthwise_bn_offset"], "attr": {"dilations": {"list": {"i": ["1", "1", "1", "1"]}}, "T": {"type": "DT_FLOAT"}, "strides": {"list": {"i": ["1", "1", "1", "1"]}}, "data_format": {"s": "TkhXQw=="}, "explicit_paddings": {"list": {}}, "padding": {"s": "U0FNRQ=="}, "fused_ops": {"list": {"s": ["Qmlhc0FkZA==", "UmVsdTY="]}}, "num_args": {"i": "1"}}}, {"name": "efficientnet-lite0/blocks_7/tpu_batch_normalization_2/FusedBatchNormV3", "op": "_FusedConv2D", "input": ["efficientnet-lite0/blocks_7/depthwise_conv2d/depthwise", "efficientnet-lite0/blocks_7/conv2d_1/Conv2D_weights", "efficientnet-lite0/blocks_7/conv2d_1/Conv2D_bn_offset"], "device": "/device:CPU:0", "attr": {"dilations": {"list": {"i": ["1", "1", "1", "1"]}}, "T": {"type": "DT_FLOAT"}, "data_format": {"s": "TkhXQw=="}, "strides": {"list": {"i": ["1", "1", "1", "1"]}}, "explicit_paddings": {"list": {}}, "use_cudnn_on_gpu": {"b": true}, "num_args": {"i": "1"}, "epsilon": {"f": 0.0}, "padding": {"s": "U0FNRQ=="}, "fused_ops": {"list": {"s": ["Qmlhc0FkZA=="]}}}}, {"name": "efficientnet-lite0/blocks_7/Add", "op": "Add", "input": ["efficientnet-lite0/blocks_7/tpu_batch_normalization_2/FusedBatchNormV3", "efficientnet-lite0/blocks_6/Add"], "attr": {"T": {"type": "DT_FLOAT"}}}, {"name": "efficientnet-lite0/blocks_8/Relu6", "op": "_FusedConv2D", "input": ["efficientnet-lite0/blocks_7/Add", "efficientnet-lite0/blocks_8/conv2d/Conv2D_weights", "efficientnet-lite0/blocks_8/conv2d/Conv2D_bn_offset"], "device": "/device:CPU:0", "attr": {"dilations": {"list": {"i": ["1", "1", "1", "1"]}}, "T": {"type": "DT_FLOAT"}, "data_format": {"s": "TkhXQw=="}, "strides": {"list": {"i": ["1", "1", "1", "1"]}}, "explicit_paddings": {"list": {}}, "use_cudnn_on_gpu": {"b": true}, "num_args": {"i": "1"}, "epsilon": {"f": 0.0}, "padding": {"s": "U0FNRQ=="}, "fused_ops": {"list": {"s": ["Qmlhc0FkZA==", "UmVsdTY="]}}}}, {"name": "efficientnet-lite0/blocks_8/depthwise_conv2d/depthwise", "op": "FusedDepthwiseConv2dNative", "input": ["efficientnet-lite0/blocks_8/Relu6", "efficientnet-lite0/blocks_8/depthwise_conv2d/depthwise_weights", "efficientnet-lite0/blocks_8/depthwise_conv2d/depthwise_bn_offset"], "attr": {"dilations": {"list": {"i": ["1", "1", "1", "1"]}}, "T": {"type": "DT_FLOAT"}, "strides": {"list": {"i": ["1", "1", "1", "1"]}}, "data_format": {"s": "TkhXQw=="}, "explicit_paddings": {"list": {}}, "padding": {"s": "U0FNRQ=="}, "fused_ops": {"list": {"s": ["Qmlhc0FkZA==", "UmVsdTY="]}}, "num_args": {"i": "1"}}}, {"name": "efficientnet-lite0/blocks_8/tpu_batch_normalization_2/FusedBatchNormV3", "op": "_FusedConv2D", "input": ["efficientnet-lite0/blocks_8/depthwise_conv2d/depthwise", "efficientnet-lite0/blocks_8/conv2d_1/Conv2D_weights", "efficientnet-lite0/blocks_8/conv2d_1/Conv2D_bn_offset"], "device": "/device:CPU:0", "attr": {"dilations": {"list": {"i": ["1", "1", "1", "1"]}}, "T": {"type": "DT_FLOAT"}, "data_format": {"s": "TkhXQw=="}, "strides": {"list": {"i": ["1", "1", "1", "1"]}}, "explicit_paddings": {"list": {}}, "use_cudnn_on_gpu": {"b": true}, "num_args": {"i": "1"}, "epsilon": {"f": 0.0}, "padding": {"s": "U0FNRQ=="}, "fused_ops": {"list": {"s": ["Qmlhc0FkZA=="]}}}}, {"name": "efficientnet-lite0/blocks_9/Relu6", "op": "_FusedConv2D", "input": ["efficientnet-lite0/blocks_8/tpu_batch_normalization_2/FusedBatchNormV3", "efficientnet-lite0/blocks_9/conv2d/Conv2D_weights", "efficientnet-lite0/blocks_9/conv2d/Conv2D_bn_offset"], "device": "/device:CPU:0", "attr": {"dilations": {"list": {"i": ["1", "1", "1", "1"]}}, "T": {"type": "DT_FLOAT"}, "data_format": {"s": "TkhXQw=="}, "strides": {"list": {"i": ["1", "1", "1", "1"]}}, "explicit_paddings": {"list": {}}, "use_cudnn_on_gpu": {"b": true}, "num_args": {"i": "1"}, "epsilon": {"f": 0.0}, "padding": {"s": "U0FNRQ=="}, "fused_ops": {"list": {"s": ["Qmlhc0FkZA==", "UmVsdTY="]}}}}, {"name": "efficientnet-lite0/blocks_9/depthwise_conv2d/depthwise", "op": "FusedDepthwiseConv2dNative", "input": ["efficientnet-lite0/blocks_9/Relu6", "efficientnet-lite0/blocks_9/depthwise_conv2d/depthwise_weights", "efficientnet-lite0/blocks_9/depthwise_conv2d/depthwise_bn_offset"], "attr": {"dilations": {"list": {"i": ["1", "1", "1", "1"]}}, "T": {"type": "DT_FLOAT"}, "strides": {"list": {"i": ["1", "1", "1", "1"]}}, "data_format": {"s": "TkhXQw=="}, "explicit_paddings": {"list": {}}, "padding": {"s": "U0FNRQ=="}, "fused_ops": {"list": {"s": ["Qmlhc0FkZA==", "UmVsdTY="]}}, "num_args": {"i": "1"}}}, {"name": "efficientnet-lite0/blocks_9/tpu_batch_normalization_2/FusedBatchNormV3", "op": "_FusedConv2D", "input": ["efficientnet-lite0/blocks_9/depthwise_conv2d/depthwise", "efficientnet-lite0/blocks_9/conv2d_1/Conv2D_weights", "efficientnet-lite0/blocks_9/conv2d_1/Conv2D_bn_offset"], "device": "/device:CPU:0", "attr": {"dilations": {"list": {"i": ["1", "1", "1", "1"]}}, "T": {"type": "DT_FLOAT"}, "data_format": {"s": "TkhXQw=="}, "strides": {"list": {"i": ["1", "1", "1", "1"]}}, "explicit_paddings": {"list": {}}, "use_cudnn_on_gpu": {"b": true}, "num_args": {"i": "1"}, "epsilon": {"f": 0.0}, "padding": {"s": "U0FNRQ=="}, "fused_ops": {"list": {"s": ["Qmlhc0FkZA=="]}}}}, {"name": "efficientnet-lite0/blocks_9/Add", "op": "Add", "input": ["efficientnet-lite0/blocks_9/tpu_batch_normalization_2/FusedBatchNormV3", "efficientnet-lite0/blocks_8/tpu_batch_normalization_2/FusedBatchNormV3"], "attr": {"T": {"type": "DT_FLOAT"}}}, {"name": "efficientnet-lite0/blocks_10/Relu6", "op": "_FusedConv2D", "input": ["efficientnet-lite0/blocks_9/Add", "efficientnet-lite0/blocks_10/conv2d/Conv2D_weights", "efficientnet-lite0/blocks_10/conv2d/Conv2D_bn_offset"], "device": "/device:CPU:0", "attr": {"dilations": {"list": {"i": ["1", "1", "1", "1"]}}, "T": {"type": "DT_FLOAT"}, "data_format": {"s": "TkhXQw=="}, "strides": {"list": {"i": ["1", "1", "1", "1"]}}, "explicit_paddings": {"list": {}}, "use_cudnn_on_gpu": {"b": true}, "num_args": {"i": "1"}, "epsilon": {"f": 0.0}, "padding": {"s": "U0FNRQ=="}, "fused_ops": {"list": {"s": ["Qmlhc0FkZA==", "UmVsdTY="]}}}}, {"name": "efficientnet-lite0/blocks_10/depthwise_conv2d/depthwise", "op": "FusedDepthwiseConv2dNative", "input": ["efficientnet-lite0/blocks_10/Relu6", "efficientnet-lite0/blocks_10/depthwise_conv2d/depthwise_weights", "efficientnet-lite0/blocks_10/depthwise_conv2d/depthwise_bn_offset"], "attr": {"dilations": {"list": {"i": ["1", "1", "1", "1"]}}, "T": {"type": "DT_FLOAT"}, "strides": {"list": {"i": ["1", "1", "1", "1"]}}, "data_format": {"s": "TkhXQw=="}, "explicit_paddings": {"list": {}}, "padding": {"s": "U0FNRQ=="}, "fused_ops": {"list": {"s": ["Qmlhc0FkZA==", "UmVsdTY="]}}, "num_args": {"i": "1"}}}, {"name": "efficientnet-lite0/blocks_10/tpu_batch_normalization_2/FusedBatchNormV3", "op": "_FusedConv2D", "input": ["efficientnet-lite0/blocks_10/depthwise_conv2d/depthwise", "efficientnet-lite0/blocks_10/conv2d_1/Conv2D_weights", "efficientnet-lite0/blocks_10/conv2d_1/Conv2D_bn_offset"], "device": "/device:CPU:0", "attr": {"dilations": {"list": {"i": ["1", "1", "1", "1"]}}, "T": {"type": "DT_FLOAT"}, "data_format": {"s": "TkhXQw=="}, "strides": {"list": {"i": ["1", "1", "1", "1"]}}, "explicit_paddings": {"list": {}}, "use_cudnn_on_gpu": {"b": true}, "num_args": {"i": "1"}, "epsilon": {"f": 0.0}, "padding": {"s": "U0FNRQ=="}, "fused_ops": {"list": {"s": ["Qmlhc0FkZA=="]}}}}, {"name": "efficientnet-lite0/blocks_10/Add", "op": "Add", "input": ["efficientnet-lite0/blocks_10/tpu_batch_normalization_2/FusedBatchNormV3", "efficientnet-lite0/blocks_9/Add"], "attr": {"T": {"type": "DT_FLOAT"}}}, {"name": "efficientnet-lite0/blocks_11/Relu6", "op": "_FusedConv2D", "input": ["efficientnet-lite0/blocks_10/Add", "efficientnet-lite0/blocks_11/conv2d/Conv2D_weights", "efficientnet-lite0/blocks_11/conv2d/Conv2D_bn_offset"], "device": "/device:CPU:0", "attr": {"dilations": {"list": {"i": ["1", "1", "1", "1"]}}, "T": {"type": "DT_FLOAT"}, "data_format": {"s": "TkhXQw=="}, "strides": {"list": {"i": ["1", "1", "1", "1"]}}, "explicit_paddings": {"list": {}}, "use_cudnn_on_gpu": {"b": true}, "num_args": {"i": "1"}, "epsilon": {"f": 0.0}, "padding": {"s": "U0FNRQ=="}, "fused_ops": {"list": {"s": ["Qmlhc0FkZA==", "UmVsdTY="]}}}}, {"name": "fpn_cells/cell_0/fnode4/resample_0_1_9/bn/FusedBatchNormV3", "op": "_FusedConv2D", "input": ["efficientnet-lite0/blocks_10/Add", "fpn_cells/cell_0/fnode4/resample_0_1_9/conv2d/Conv2D_weights", "fpn_cells/cell_0/fnode4/resample_0_1_9/conv2d/Conv2D_bn_offset"], "device": "/device:CPU:0", "attr": {"dilations": {"list": {"i": ["1", "1", "1", "1"]}}, "T": {"type": "DT_FLOAT"}, "data_format": {"s": "TkhXQw=="}, "strides": {"list": {"i": ["1", "1", "1", "1"]}}, "explicit_paddings": {"list": {}}, "use_cudnn_on_gpu": {"b": true}, "num_args": {"i": "1"}, "epsilon": {"f": 0.0}, "padding": {"s": "U0FNRQ=="}, "fused_ops": {"list": {"s": ["Qmlhc0FkZA=="]}}}}, {"name": "fpn_cells/cell_0/fnode2/resample_0_1_7/bn/FusedBatchNormV3", "op": "_FusedConv2D", "input": ["efficientnet-lite0/blocks_10/Add", "fpn_cells/cell_0/fnode2/resample_0_1_7/conv2d/Conv2D_weights", "fpn_cells/cell_0/fnode2/resample_0_1_7/conv2d/Conv2D_bn_offset"], "device": "/device:CPU:0", "attr": {"dilations": {"list": {"i": ["1", "1", "1", "1"]}}, "T": {"type": "DT_FLOAT"}, "data_format": {"s": "TkhXQw=="}, "strides": {"list": {"i": ["1", "1", "1", "1"]}}, "explicit_paddings": {"list": {}}, "use_cudnn_on_gpu": {"b": true}, "num_args": {"i": "1"}, "epsilon": {"f": 0.0}, "padding": {"s": "U0FNRQ=="}, "fused_ops": {"list": {"s": ["Qmlhc0FkZA=="]}}}}, {"name": "efficientnet-lite0/blocks_11/depthwise_conv2d/depthwise", "op": "FusedDepthwiseConv2dNative", "input": ["efficientnet-lite0/blocks_11/Relu6", "efficientnet-lite0/blocks_11/depthwise_conv2d/depthwise_weights", "efficientnet-lite0/blocks_11/depthwise_conv2d/depthwise_bn_offset"], "attr": {"dilations": {"list": {"i": ["1", "1", "1", "1"]}}, "T": {"type": "DT_FLOAT"}, "strides": {"list": {"i": ["1", "2", "2", "1"]}}, "data_format": {"s": "TkhXQw=="}, "explicit_paddings": {"list": {}}, "padding": {"s": "U0FNRQ=="}, "fused_ops": {"list": {"s": ["Qmlhc0FkZA==", "UmVsdTY="]}}, "num_args": {"i": "1"}}}, {"name": "efficientnet-lite0/blocks_11/tpu_batch_normalization_2/FusedBatchNormV3", "op": "_FusedConv2D", "input": ["efficientnet-lite0/blocks_11/depthwise_conv2d/depthwise", "efficientnet-lite0/blocks_11/conv2d_1/Conv2D_weights", "efficientnet-lite0/blocks_11/conv2d_1/Conv2D_bn_offset"], "device": "/device:CPU:0", "attr": {"dilations": {"list": {"i": ["1", "1", "1", "1"]}}, "T": {"type": "DT_FLOAT"}, "data_format": {"s": "TkhXQw=="}, "strides": {"list": {"i": ["1", "1", "1", "1"]}}, "explicit_paddings": {"list": {}}, "use_cudnn_on_gpu": {"b": true}, "num_args": {"i": "1"}, "epsilon": {"f": 0.0}, "padding": {"s": "U0FNRQ=="}, "fused_ops": {"list": {"s": ["Qmlhc0FkZA=="]}}}}, {"name": "efficientnet-lite0/blocks_12/Relu6", "op": "_FusedConv2D", "input": ["efficientnet-lite0/blocks_11/tpu_batch_normalization_2/FusedBatchNormV3", "efficientnet-lite0/blocks_12/conv2d/Conv2D_weights", "efficientnet-lite0/blocks_12/conv2d/Conv2D_bn_offset"], "device": "/device:CPU:0", "attr": {"dilations": {"list": {"i": ["1", "1", "1", "1"]}}, "T": {"type": "DT_FLOAT"}, "data_format": {"s": "TkhXQw=="}, "strides": {"list": {"i": ["1", "1", "1", "1"]}}, "explicit_paddings": {"list": {}}, "use_cudnn_on_gpu": {"b": true}, "num_args": {"i": "1"}, "epsilon": {"f": 0.0}, "padding": {"s": "U0FNRQ=="}, "fused_ops": {"list": {"s": ["Qmlhc0FkZA==", "UmVsdTY="]}}}}, {"name": "efficientnet-lite0/blocks_12/depthwise_conv2d/depthwise", "op": "FusedDepthwiseConv2dNative", "input": ["efficientnet-lite0/blocks_12/Relu6", "efficientnet-lite0/blocks_12/depthwise_conv2d/depthwise_weights", "efficientnet-lite0/blocks_12/depthwise_conv2d/depthwise_bn_offset"], "attr": {"dilations": {"list": {"i": ["1", "1", "1", "1"]}}, "T": {"type": "DT_FLOAT"}, "strides": {"list": {"i": ["1", "1", "1", "1"]}}, "data_format": {"s": "TkhXQw=="}, "explicit_paddings": {"list": {}}, "padding": {"s": "U0FNRQ=="}, "fused_ops": {"list": {"s": ["Qmlhc0FkZA==", "UmVsdTY="]}}, "num_args": {"i": "1"}}}, {"name": "efficientnet-lite0/blocks_12/tpu_batch_normalization_2/FusedBatchNormV3", "op": "_FusedConv2D", "input": ["efficientnet-lite0/blocks_12/depthwise_conv2d/depthwise", "efficientnet-lite0/blocks_12/conv2d_1/Conv2D_weights", "efficientnet-lite0/blocks_12/conv2d_1/Conv2D_bn_offset"], "device": "/device:CPU:0", "attr": {"dilations": {"list": {"i": ["1", "1", "1", "1"]}}, "T": {"type": "DT_FLOAT"}, "data_format": {"s": "TkhXQw=="}, "strides": {"list": {"i": ["1", "1", "1", "1"]}}, "explicit_paddings": {"list": {}}, "use_cudnn_on_gpu": {"b": true}, "num_args": {"i": "1"}, "epsilon": {"f": 0.0}, "padding": {"s": "U0FNRQ=="}, "fused_ops": {"list": {"s": ["Qmlhc0FkZA=="]}}}}, {"name": "efficientnet-lite0/blocks_12/Add", "op": "Add", "input": ["efficientnet-lite0/blocks_12/tpu_batch_normalization_2/FusedBatchNormV3", "efficientnet-lite0/blocks_11/tpu_batch_normalization_2/FusedBatchNormV3"], "attr": {"T": {"type": "DT_FLOAT"}}}, {"name": "efficientnet-lite0/blocks_13/Relu6", "op": "_FusedConv2D", "input": ["efficientnet-lite0/blocks_12/Add", "efficientnet-lite0/blocks_13/conv2d/Conv2D_weights", "efficientnet-lite0/blocks_13/conv2d/Conv2D_bn_offset"], "device": "/device:CPU:0", "attr": {"dilations": {"list": {"i": ["1", "1", "1", "1"]}}, "T": {"type": "DT_FLOAT"}, "data_format": {"s": "TkhXQw=="}, "strides": {"list": {"i": ["1", "1", "1", "1"]}}, "explicit_paddings": {"list": {}}, "use_cudnn_on_gpu": {"b": true}, "num_args": {"i": "1"}, "epsilon": {"f": 0.0}, "padding": {"s": "U0FNRQ=="}, "fused_ops": {"list": {"s": ["Qmlhc0FkZA==", "UmVsdTY="]}}}}, {"name": "efficientnet-lite0/blocks_13/depthwise_conv2d/depthwise", "op": "FusedDepthwiseConv2dNative", "input": ["efficientnet-lite0/blocks_13/Relu6", "efficientnet-lite0/blocks_13/depthwise_conv2d/depthwise_weights", "efficientnet-lite0/blocks_13/depthwise_conv2d/depthwise_bn_offset"], "attr": {"dilations": {"list": {"i": ["1", "1", "1", "1"]}}, "T": {"type": "DT_FLOAT"}, "strides": {"list": {"i": ["1", "1", "1", "1"]}}, "data_format": {"s": "TkhXQw=="}, "explicit_paddings": {"list": {}}, "padding": {"s": "U0FNRQ=="}, "fused_ops": {"list": {"s": ["Qmlhc0FkZA==", "UmVsdTY="]}}, "num_args": {"i": "1"}}}, {"name": "efficientnet-lite0/blocks_13/tpu_batch_normalization_2/FusedBatchNormV3", "op": "_FusedConv2D", "input": ["efficientnet-lite0/blocks_13/depthwise_conv2d/depthwise", "efficientnet-lite0/blocks_13/conv2d_1/Conv2D_weights", "efficientnet-lite0/blocks_13/conv2d_1/Conv2D_bn_offset"], "device": "/device:CPU:0", "attr": {"dilations": {"list": {"i": ["1", "1", "1", "1"]}}, "T": {"type": "DT_FLOAT"}, "data_format": {"s": "TkhXQw=="}, "strides": {"list": {"i": ["1", "1", "1", "1"]}}, "explicit_paddings": {"list": {}}, "use_cudnn_on_gpu": {"b": true}, "num_args": {"i": "1"}, "epsilon": {"f": 0.0}, "padding": {"s": "U0FNRQ=="}, "fused_ops": {"list": {"s": ["Qmlhc0FkZA=="]}}}}, {"name": "efficientnet-lite0/blocks_13/Add", "op": "Add", "input": ["efficientnet-lite0/blocks_13/tpu_batch_normalization_2/FusedBatchNormV3", "efficientnet-lite0/blocks_12/Add"], "attr": {"T": {"type": "DT_FLOAT"}}}, {"name": "efficientnet-lite0/blocks_14/Relu6", "op": "_FusedConv2D", "input": ["efficientnet-lite0/blocks_13/Add", "efficientnet-lite0/blocks_14/conv2d/Conv2D_weights", "efficientnet-lite0/blocks_14/conv2d/Conv2D_bn_offset"], "device": "/device:CPU:0", "attr": {"dilations": {"list": {"i": ["1", "1", "1", "1"]}}, "T": {"type": "DT_FLOAT"}, "data_format": {"s": "TkhXQw=="}, "strides": {"list": {"i": ["1", "1", "1", "1"]}}, "explicit_paddings": {"list": {}}, "use_cudnn_on_gpu": {"b": true}, "num_args": {"i": "1"}, "epsilon": {"f": 0.0}, "padding": {"s": "U0FNRQ=="}, "fused_ops": {"list": {"s": ["Qmlhc0FkZA==", "UmVsdTY="]}}}}, {"name": "efficientnet-lite0/blocks_14/depthwise_conv2d/depthwise", "op": "FusedDepthwiseConv2dNative", "input": ["efficientnet-lite0/blocks_14/Relu6", "efficientnet-lite0/blocks_14/depthwise_conv2d/depthwise_weights", "efficientnet-lite0/blocks_14/depthwise_conv2d/depthwise_bn_offset"], "attr": {"dilations": {"list": {"i": ["1", "1", "1", "1"]}}, "T": {"type": "DT_FLOAT"}, "strides": {"list": {"i": ["1", "1", "1", "1"]}}, "data_format": {"s": "TkhXQw=="}, "explicit_paddings": {"list": {}}, "padding": {"s": "U0FNRQ=="}, "fused_ops": {"list": {"s": ["Qmlhc0FkZA==", "UmVsdTY="]}}, "num_args": {"i": "1"}}}, {"name": "efficientnet-lite0/blocks_14/tpu_batch_normalization_2/FusedBatchNormV3", "op": "_FusedConv2D", "input": ["efficientnet-lite0/blocks_14/depthwise_conv2d/depthwise", "efficientnet-lite0/blocks_14/conv2d_1/Conv2D_weights", "efficientnet-lite0/blocks_14/conv2d_1/Conv2D_bn_offset"], "device": "/device:CPU:0", "attr": {"dilations": {"list": {"i": ["1", "1", "1", "1"]}}, "T": {"type": "DT_FLOAT"}, "data_format": {"s": "TkhXQw=="}, "strides": {"list": {"i": ["1", "1", "1", "1"]}}, "explicit_paddings": {"list": {}}, "use_cudnn_on_gpu": {"b": true}, "num_args": {"i": "1"}, "epsilon": {"f": 0.0}, "padding": {"s": "U0FNRQ=="}, "fused_ops": {"list": {"s": ["Qmlhc0FkZA=="]}}}}, {"name": "efficientnet-lite0/blocks_14/Add", "op": "Add", "input": ["efficientnet-lite0/blocks_14/tpu_batch_normalization_2/FusedBatchNormV3", "efficientnet-lite0/blocks_13/Add"], "attr": {"T": {"type": "DT_FLOAT"}}}, {"name": "efficientnet-lite0/blocks_15/Relu6", "op": "_FusedConv2D", "input": ["efficientnet-lite0/blocks_14/Add", "efficientnet-lite0/blocks_15/conv2d/Conv2D_weights", "efficientnet-lite0/blocks_15/conv2d/Conv2D_bn_offset"], "device": "/device:CPU:0", "attr": {"dilations": {"list": {"i": ["1", "1", "1", "1"]}}, "T": {"type": "DT_FLOAT"}, "data_format": {"s": "TkhXQw=="}, "strides": {"list": {"i": ["1", "1", "1", "1"]}}, "explicit_paddings": {"list": {}}, "use_cudnn_on_gpu": {"b": true}, "num_args": {"i": "1"}, "epsilon": {"f": 0.0}, "padding": {"s": "U0FNRQ=="}, "fused_ops": {"list": {"s": ["Qmlhc0FkZA==", "UmVsdTY="]}}}}, {"name": "efficientnet-lite0/blocks_15/depthwise_conv2d/depthwise", "op": "FusedDepthwiseConv2dNative", "input": ["efficientnet-lite0/blocks_15/Relu6", "efficientnet-lite0/blocks_15/depthwise_conv2d/depthwise_weights", "efficientnet-lite0/blocks_15/depthwise_conv2d/depthwise_bn_offset"], "attr": {"dilations": {"list": {"i": ["1", "1", "1", "1"]}}, "T": {"type": "DT_FLOAT"}, "strides": {"list": {"i": ["1", "1", "1", "1"]}}, "data_format": {"s": "TkhXQw=="}, "explicit_paddings": {"list": {}}, "padding": {"s": "U0FNRQ=="}, "fused_ops": {"list": {"s": ["Qmlhc0FkZA==", "UmVsdTY="]}}, "num_args": {"i": "1"}}}, {"name": "efficientnet-lite0/blocks_15/tpu_batch_normalization_2/FusedBatchNormV3", "op": "_FusedConv2D", "input": ["efficientnet-lite0/blocks_15/depthwise_conv2d/depthwise", "efficientnet-lite0/blocks_15/conv2d_1/Conv2D_weights", "efficientnet-lite0/blocks_15/conv2d_1/Conv2D_bn_offset"], "device": "/device:CPU:0", "attr": {"dilations": {"list": {"i": ["1", "1", "1", "1"]}}, "T": {"type": "DT_FLOAT"}, "data_format": {"s": "TkhXQw=="}, "strides": {"list": {"i": ["1", "1", "1", "1"]}}, "explicit_paddings": {"list": {}}, "use_cudnn_on_gpu": {"b": true}, "num_args": {"i": "1"}, "epsilon": {"f": 0.0}, "padding": {"s": "U0FNRQ=="}, "fused_ops": {"list": {"s": ["Qmlhc0FkZA=="]}}}}, {"name": "fpn_cells/cell_0/fnode5/resample_0_2_10/bn/FusedBatchNormV3", "op": "_FusedConv2D", "input": ["efficientnet-lite0/blocks_15/tpu_batch_normalization_2/FusedBatchNormV3", "fpn_cells/cell_0/fnode5/resample_0_2_10/conv2d/Conv2D_weights", "fpn_cells/cell_0/fnode5/resample_0_2_10/conv2d/Conv2D_bn_offset"], "device": "/device:CPU:0", "attr": {"dilations": {"list": {"i": ["1", "1", "1", "1"]}}, "T": {"type": "DT_FLOAT"}, "data_format": {"s": "TkhXQw=="}, "strides": {"list": {"i": ["1", "1", "1", "1"]}}, "explicit_paddings": {"list": {}}, "use_cudnn_on_gpu": {"b": true}, "num_args": {"i": "1"}, "epsilon": {"f": 0.0}, "padding": {"s": "U0FNRQ=="}, "fused_ops": {"list": {"s": ["Qmlhc0FkZA=="]}}}}, {"name": "fpn_cells/cell_0/fnode1/resample_0_2_6/bn/FusedBatchNormV3", "op": "_FusedConv2D", "input": ["efficientnet-lite0/blocks_15/tpu_batch_normalization_2/FusedBatchNormV3", "fpn_cells/cell_0/fnode1/resample_0_2_6/conv2d/Conv2D_weights", "fpn_cells/cell_0/fnode1/resample_0_2_6/conv2d/Conv2D_bn_offset"], "device": "/device:CPU:0", "attr": {"dilations": {"list": {"i": ["1", "1", "1", "1"]}}, "T": {"type": "DT_FLOAT"}, "data_format": {"s": "TkhXQw=="}, "strides": {"list": {"i": ["1", "1", "1", "1"]}}, "explicit_paddings": {"list": {}}, "use_cudnn_on_gpu": {"b": true}, "num_args": {"i": "1"}, "epsilon": {"f": 0.0}, "padding": {"s": "U0FNRQ=="}, "fused_ops": {"list": {"s": ["Qmlhc0FkZA=="]}}}}, {"name": "resample_p6/bn/FusedBatchNormV3", "op": "_FusedConv2D", "input": ["efficientnet-lite0/blocks_15/tpu_batch_normalization_2/FusedBatchNormV3", "resample_p6/conv2d/Conv2D_weights", "resample_p6/conv2d/Conv2D_bn_offset"], "device": "/device:CPU:0", "attr": {"dilations": {"list": {"i": ["1", "1", "1", "1"]}}, "T": {"type": "DT_FLOAT"}, "data_format": {"s": "TkhXQw=="}, "strides": {"list": {"i": ["1", "1", "1", "1"]}}, "explicit_paddings": {"list": {}}, "use_cudnn_on_gpu": {"b": true}, "num_args": {"i": "1"}, "epsilon": {"f": 0.0}, "padding": {"s": "U0FNRQ=="}, "fused_ops": {"list": {"s": ["Qmlhc0FkZA=="]}}}}, {"name": "resample_p6/max_pooling2d/MaxPool", "op": "MaxPool", "input": ["resample_p6/bn/FusedBatchNormV3"], "attr": {"T": {"type": "DT_FLOAT"}, "strides": {"list": {"i": ["1", "2", "2", "1"]}}, "data_format": {"s": "TkhXQw=="}, "explicit_paddings": {"list": {}}, "ksize": {"list": {"i": ["1", "3", "3", "1"]}}, "padding": {"s": "U0FNRQ=="}}}, {"name": "resample_p7/max_pooling2d_1/MaxPool", "op": "MaxPool", "input": ["resample_p6/max_pooling2d/MaxPool"], "attr": {"T": {"type": "DT_FLOAT"}, "strides": {"list": {"i": ["1", "2", "2", "1"]}}, "data_format": {"s": "TkhXQw=="}, "explicit_paddings": {"list": {}}, "ksize": {"list": {"i": ["1", "3", "3", "1"]}}, "padding": {"s": "U0FNRQ=="}}}, {"name": "fpn_cells/cell_0/fnode0/resample_1_4_5/ResizeNearestNeighbor", "op": "ResizeNearestNeighbor", "input": ["resample_p7/max_pooling2d_1/MaxPool", "fpn_cells/cell_0/fnode0/resample_1_4_5/ResizeNearestNeighbor/size"], "attr": {"align_corners": {"b": false}, "half_pixel_centers": {"b": false}, "T": {"type": "DT_FLOAT"}}}, {"name": "fpn_cells/cell_0/fnode0/add_n/add", "op": "AddV2", "input": ["resample_p6/max_pooling2d/MaxPool", "fpn_cells/cell_0/fnode0/resample_1_4_5/ResizeNearestNeighbor"], "attr": {"T": {"type": "DT_FLOAT"}}}, {"name": "fpn_cells/cell_0/fnode0/op_after_combine5/Relu6", "op": "Relu6", "input": ["fpn_cells/cell_0/fnode0/add_n/add"], "attr": {"T": {"type": "DT_FLOAT"}}}, {"name": "fpn_cells/cell_0/fnode0/op_after_combine5/conv/separable_conv2d/depthwise", "op": "DepthwiseConv2dNative", "input": ["fpn_cells/cell_0/fnode0/op_after_combine5/Relu6", "fpn_cells/cell_0/fnode0/op_after_combine5/conv/depthwise_kernel"], "attr": {"dilations": {"list": {"i": ["1", "1", "1", "1"]}}, "T": {"type": "DT_FLOAT"}, "strides": {"list": {"i": ["1", "1", "1", "1"]}}, "data_format": {"s": "TkhXQw=="}, "explicit_paddings": {"list": {}}, "padding": {"s": "U0FNRQ=="}}}, {"name": "fpn_cells/cell_0/fnode0/op_after_combine5/bn/FusedBatchNormV3", "op": "_FusedConv2D", "input": ["fpn_cells/cell_0/fnode0/op_after_combine5/conv/separable_conv2d/depthwise", "fpn_cells/cell_0/fnode0/op_after_combine5/conv/separable_conv2d_weights", "fpn_cells/cell_0/fnode0/op_after_combine5/conv/separable_conv2d_bn_offset"], "device": "/device:CPU:0", "attr": {"dilations": {"list": {"i": ["1", "1", "1", "1"]}}, "T": {"type": "DT_FLOAT"}, "data_format": {"s": "TkhXQw=="}, "strides": {"list": {"i": ["1", "1", "1", "1"]}}, "explicit_paddings": {"list": {}}, "use_cudnn_on_gpu": {"b": true}, "num_args": {"i": "1"}, "epsilon": {"f": 0.0}, "padding": {"s": "VkFMSUQ="}, "fused_ops": {"list": {"s": ["Qmlhc0FkZA=="]}}}}, {"name": "fpn_cells/cell_0/fnode6/add_n/add", "op": "AddV2", "input": ["resample_p6/max_pooling2d/MaxPool", "fpn_cells/cell_0/fnode0/op_after_combine5/bn/FusedBatchNormV3"], "attr": {"T": {"type": "DT_FLOAT"}}}, {"name": "fpn_cells/cell_0/fnode1/resample_1_5_6/ResizeNearestNeighbor", "op": "ResizeNearestNeighbor", "input": ["fpn_cells/cell_0/fnode0/op_after_combine5/bn/FusedBatchNormV3", "fpn_cells/cell_0/fnode1/resample_1_5_6/ResizeNearestNeighbor/size"], "attr": {"align_corners": {"b": false}, "half_pixel_centers": {"b": false}, "T": {"type": "DT_FLOAT"}}}, {"name": "fpn_cells/cell_0/fnode1/add_n/add", "op": "AddV2", "input": ["fpn_cells/cell_0/fnode1/resample_0_2_6/bn/FusedBatchNormV3", "fpn_cells/cell_0/fnode1/resample_1_5_6/ResizeNearestNeighbor"], "attr": {"T": {"type": "DT_FLOAT"}}}, {"name": "fpn_cells/cell_0/fnode1/op_after_combine6/Relu6", "op": "Relu6", "input": ["fpn_cells/cell_0/fnode1/add_n/add"], "attr": {"T": {"type": "DT_FLOAT"}}}, {"name": "fpn_cells/cell_0/fnode1/op_after_combine6/conv/separable_conv2d/depthwise", "op": "DepthwiseConv2dNative", "input": ["fpn_cells/cell_0/fnode1/op_after_combine6/Relu6", "fpn_cells/cell_0/fnode1/op_after_combine6/conv/depthwise_kernel"], "attr": {"dilations": {"list": {"i": ["1", "1", "1", "1"]}}, "T": {"type": "DT_FLOAT"}, "strides": {"list": {"i": ["1", "1", "1", "1"]}}, "data_format": {"s": "TkhXQw=="}, "explicit_paddings": {"list": {}}, "padding": {"s": "U0FNRQ=="}}}, {"name": "fpn_cells/cell_0/fnode1/op_after_combine6/bn/FusedBatchNormV3", "op": "_FusedConv2D", "input": ["fpn_cells/cell_0/fnode1/op_after_combine6/conv/separable_conv2d/depthwise", "fpn_cells/cell_0/fnode1/op_after_combine6/conv/separable_conv2d_weights", "fpn_cells/cell_0/fnode1/op_after_combine6/conv/separable_conv2d_bn_offset"], "device": "/device:CPU:0", "attr": {"dilations": {"list": {"i": ["1", "1", "1", "1"]}}, "T": {"type": "DT_FLOAT"}, "data_format": {"s": "TkhXQw=="}, "strides": {"list": {"i": ["1", "1", "1", "1"]}}, "explicit_paddings": {"list": {}}, "use_cudnn_on_gpu": {"b": true}, "num_args": {"i": "1"}, "epsilon": {"f": 0.0}, "padding": {"s": "VkFMSUQ="}, "fused_ops": {"list": {"s": ["Qmlhc0FkZA=="]}}}}, {"name": "fpn_cells/cell_0/fnode5/add_n/add", "op": "AddV2", "input": ["fpn_cells/cell_0/fnode5/resample_0_2_10/bn/FusedBatchNormV3", "fpn_cells/cell_0/fnode1/op_after_combine6/bn/FusedBatchNormV3"], "attr": {"T": {"type": "DT_FLOAT"}}}, {"name": "fpn_cells/cell_0/fnode2/resample_1_6_7/ResizeNearestNeighbor", "op": "ResizeNearestNeighbor", "input": ["fpn_cells/cell_0/fnode1/op_after_combine6/bn/FusedBatchNormV3", "fpn_cells/cell_0/fnode2/resample_1_6_7/ResizeNearestNeighbor/size"], "attr": {"align_corners": {"b": false}, "half_pixel_centers": {"b": false}, "T": {"type": "DT_FLOAT"}}}, {"name": "fpn_cells/cell_0/fnode2/add_n/add", "op": "AddV2", "input": ["fpn_cells/cell_0/fnode2/resample_0_1_7/bn/FusedBatchNormV3", "fpn_cells/cell_0/fnode2/resample_1_6_7/ResizeNearestNeighbor"], "attr": {"T": {"type": "DT_FLOAT"}}}, {"name": "fpn_cells/cell_0/fnode2/op_after_combine7/Relu6", "op": "Relu6", "input": ["fpn_cells/cell_0/fnode2/add_n/add"], "attr": {"T": {"type": "DT_FLOAT"}}}, {"name": "fpn_cells/cell_0/fnode2/op_after_combine7/conv/separable_conv2d/depthwise", "op": "DepthwiseConv2dNative", "input": ["fpn_cells/cell_0/fnode2/op_after_combine7/Relu6", "fpn_cells/cell_0/fnode2/op_after_combine7/conv/depthwise_kernel"], "attr": {"dilations": {"list": {"i": ["1", "1", "1", "1"]}}, "T": {"type": "DT_FLOAT"}, "strides": {"list": {"i": ["1", "1", "1", "1"]}}, "data_format": {"s": "TkhXQw=="}, "explicit_paddings": {"list": {}}, "padding": {"s": "U0FNRQ=="}}}, {"name": "fpn_cells/cell_0/fnode2/op_after_combine7/bn/FusedBatchNormV3", "op": "_FusedConv2D", "input": ["fpn_cells/cell_0/fnode2/op_after_combine7/conv/separable_conv2d/depthwise", "fpn_cells/cell_0/fnode2/op_after_combine7/conv/separable_conv2d_weights", "fpn_cells/cell_0/fnode2/op_after_combine7/conv/separable_conv2d_bn_offset"], "device": "/device:CPU:0", "attr": {"dilations": {"list": {"i": ["1", "1", "1", "1"]}}, "T": {"type": "DT_FLOAT"}, "data_format": {"s": "TkhXQw=="}, "strides": {"list": {"i": ["1", "1", "1", "1"]}}, "explicit_paddings": {"list": {}}, "use_cudnn_on_gpu": {"b": true}, "num_args": {"i": "1"}, "epsilon": {"f": 0.0}, "padding": {"s": "VkFMSUQ="}, "fused_ops": {"list": {"s": ["Qmlhc0FkZA=="]}}}}, {"name": "fpn_cells/cell_0/fnode4/add_n/add", "op": "AddV2", "input": ["fpn_cells/cell_0/fnode4/resample_0_1_9/bn/FusedBatchNormV3", "fpn_cells/cell_0/fnode2/op_after_combine7/bn/FusedBatchNormV3"], "attr": {"T": {"type": "DT_FLOAT"}}}, {"name": "fpn_cells/cell_0/fnode3/resample_1_7_8/ResizeNearestNeighbor", "op": "ResizeNearestNeighbor", "input": ["fpn_cells/cell_0/fnode2/op_after_combine7/bn/FusedBatchNormV3", "fpn_cells/cell_0/fnode3/resample_1_7_8/ResizeNearestNeighbor/size"], "attr": {"align_corners": {"b": false}, "half_pixel_centers": {"b": false}, "T": {"type": "DT_FLOAT"}}}, {"name": "fpn_cells/cell_0/fnode3/add_n/add", "op": "AddV2", "input": ["fpn_cells/cell_0/fnode3/resample_0_0_8/bn/FusedBatchNormV3", "fpn_cells/cell_0/fnode3/resample_1_7_8/ResizeNearestNeighbor"], "attr": {"T": {"type": "DT_FLOAT"}}}, {"name": "fpn_cells/cell_0/fnode3/op_after_combine8/Relu6", "op": "Relu6", "input": ["fpn_cells/cell_0/fnode3/add_n/add"], "attr": {"T": {"type": "DT_FLOAT"}}}, {"name": "fpn_cells/cell_0/fnode3/op_after_combine8/conv/separable_conv2d/depthwise", "op": "DepthwiseConv2dNative", "input": ["fpn_cells/cell_0/fnode3/op_after_combine8/Relu6", "fpn_cells/cell_0/fnode3/op_after_combine8/conv/depthwise_kernel"], "attr": {"dilations": {"list": {"i": ["1", "1", "1", "1"]}}, "T": {"type": "DT_FLOAT"}, "strides": {"list": {"i": ["1", "1", "1", "1"]}}, "data_format": {"s": "TkhXQw=="}, "explicit_paddings": {"list": {}}, "padding": {"s": "U0FNRQ=="}}}, {"name": "fpn_cells/cell_0/fnode3/op_after_combine8/bn/FusedBatchNormV3", "op": "_FusedConv2D", "input": ["fpn_cells/cell_0/fnode3/op_after_combine8/conv/separable_conv2d/depthwise", "fpn_cells/cell_0/fnode3/op_after_combine8/conv/separable_conv2d_weights", "fpn_cells/cell_0/fnode3/op_after_combine8/conv/separable_conv2d_bn_offset"], "device": "/device:CPU:0", "attr": {"dilations": {"list": {"i": ["1", "1", "1", "1"]}}, "T": {"type": "DT_FLOAT"}, "data_format": {"s": "TkhXQw=="}, "strides": {"list": {"i": ["1", "1", "1", "1"]}}, "explicit_paddings": {"list": {}}, "use_cudnn_on_gpu": {"b": true}, "num_args": {"i": "1"}, "epsilon": {"f": 0.0}, "padding": {"s": "VkFMSUQ="}, "fused_ops": {"list": {"s": ["Qmlhc0FkZA=="]}}}}, {"name": "fpn_cells/cell_0/fnode4/resample_2_8_9/max_pooling2d_2/MaxPool", "op": "MaxPool", "input": ["fpn_cells/cell_0/fnode3/op_after_combine8/bn/FusedBatchNormV3"], "attr": {"T": {"type": "DT_FLOAT"}, "strides": {"list": {"i": ["1", "2", "2", "1"]}}, "data_format": {"s": "TkhXQw=="}, "explicit_paddings": {"list": {}}, "ksize": {"list": {"i": ["1", "3", "3", "1"]}}, "padding": {"s": "U0FNRQ=="}}}, {"name": "fpn_cells/cell_0/fnode4/add_n/add_1", "op": "AddV2", "input": ["fpn_cells/cell_0/fnode4/add_n/add", "fpn_cells/cell_0/fnode4/resample_2_8_9/max_pooling2d_2/MaxPool"], "attr": {"T": {"type": "DT_FLOAT"}}}, {"name": "fpn_cells/cell_0/fnode4/op_after_combine9/Relu6", "op": "Relu6", "input": ["fpn_cells/cell_0/fnode4/add_n/add_1"], "attr": {"T": {"type": "DT_FLOAT"}}}, {"name": "fpn_cells/cell_0/fnode4/op_after_combine9/conv/separable_conv2d/depthwise", "op": "DepthwiseConv2dNative", "input": ["fpn_cells/cell_0/fnode4/op_after_combine9/Relu6", "fpn_cells/cell_0/fnode4/op_after_combine9/conv/depthwise_kernel"], "attr": {"dilations": {"list": {"i": ["1", "1", "1", "1"]}}, "T": {"type": "DT_FLOAT"}, "strides": {"list": {"i": ["1", "1", "1", "1"]}}, "data_format": {"s": "TkhXQw=="}, "explicit_paddings": {"list": {}}, "padding": {"s": "U0FNRQ=="}}}, {"name": "fpn_cells/cell_0/fnode4/op_after_combine9/bn/FusedBatchNormV3", "op": "_FusedConv2D", "input": ["fpn_cells/cell_0/fnode4/op_after_combine9/conv/separable_conv2d/depthwise", "fpn_cells/cell_0/fnode4/op_after_combine9/conv/separable_conv2d_weights", "fpn_cells/cell_0/fnode4/op_after_combine9/conv/separable_conv2d_bn_offset"], "device": "/device:CPU:0", "attr": {"dilations": {"list": {"i": ["1", "1", "1", "1"]}}, "T": {"type": "DT_FLOAT"}, "data_format": {"s": "TkhXQw=="}, "strides": {"list": {"i": ["1", "1", "1", "1"]}}, "explicit_paddings": {"list": {}}, "use_cudnn_on_gpu": {"b": true}, "num_args": {"i": "1"}, "epsilon": {"f": 0.0}, "padding": {"s": "VkFMSUQ="}, "fused_ops": {"list": {"s": ["Qmlhc0FkZA=="]}}}}, {"name": "fpn_cells/cell_0/fnode5/resample_2_9_10/max_pooling2d_3/MaxPool", "op": "MaxPool", "input": ["fpn_cells/cell_0/fnode4/op_after_combine9/bn/FusedBatchNormV3"], "attr": {"T": {"type": "DT_FLOAT"}, "strides": {"list": {"i": ["1", "2", "2", "1"]}}, "data_format": {"s": "TkhXQw=="}, "explicit_paddings": {"list": {}}, "ksize": {"list": {"i": ["1", "3", "3", "1"]}}, "padding": {"s": "U0FNRQ=="}}}, {"name": "fpn_cells/cell_0/fnode5/add_n/add_1", "op": "AddV2", "input": ["fpn_cells/cell_0/fnode5/add_n/add", "fpn_cells/cell_0/fnode5/resample_2_9_10/max_pooling2d_3/MaxPool"], "attr": {"T": {"type": "DT_FLOAT"}}}, {"name": "fpn_cells/cell_0/fnode5/op_after_combine10/Relu6", "op": "Relu6", "input": ["fpn_cells/cell_0/fnode5/add_n/add_1"], "attr": {"T": {"type": "DT_FLOAT"}}}, {"name": "fpn_cells/cell_0/fnode5/op_after_combine10/conv/separable_conv2d/depthwise", "op": "DepthwiseConv2dNative", "input": ["fpn_cells/cell_0/fnode5/op_after_combine10/Relu6", "fpn_cells/cell_0/fnode5/op_after_combine10/conv/depthwise_kernel"], "attr": {"dilations": {"list": {"i": ["1", "1", "1", "1"]}}, "T": {"type": "DT_FLOAT"}, "strides": {"list": {"i": ["1", "1", "1", "1"]}}, "data_format": {"s": "TkhXQw=="}, "explicit_paddings": {"list": {}}, "padding": {"s": "U0FNRQ=="}}}, {"name": "fpn_cells/cell_0/fnode5/op_after_combine10/bn/FusedBatchNormV3", "op": "_FusedConv2D", "input": ["fpn_cells/cell_0/fnode5/op_after_combine10/conv/separable_conv2d/depthwise", "fpn_cells/cell_0/fnode5/op_after_combine10/conv/separable_conv2d_weights", "fpn_cells/cell_0/fnode5/op_after_combine10/conv/separable_conv2d_bn_offset"], "device": "/device:CPU:0", "attr": {"dilations": {"list": {"i": ["1", "1", "1", "1"]}}, "T": {"type": "DT_FLOAT"}, "data_format": {"s": "TkhXQw=="}, "strides": {"list": {"i": ["1", "1", "1", "1"]}}, "explicit_paddings": {"list": {}}, "use_cudnn_on_gpu": {"b": true}, "num_args": {"i": "1"}, "epsilon": {"f": 0.0}, "padding": {"s": "VkFMSUQ="}, "fused_ops": {"list": {"s": ["Qmlhc0FkZA=="]}}}}, {"name": "fpn_cells/cell_0/fnode6/resample_2_10_11/max_pooling2d_4/MaxPool", "op": "MaxPool", "input": ["fpn_cells/cell_0/fnode5/op_after_combine10/bn/FusedBatchNormV3"], "attr": {"T": {"type": "DT_FLOAT"}, "strides": {"list": {"i": ["1", "2", "2", "1"]}}, "data_format": {"s": "TkhXQw=="}, "explicit_paddings": {"list": {}}, "ksize": {"list": {"i": ["1", "3", "3", "1"]}}, "padding": {"s": "U0FNRQ=="}}}, {"name": "fpn_cells/cell_0/fnode6/add_n/add_1", "op": "AddV2", "input": ["fpn_cells/cell_0/fnode6/add_n/add", "fpn_cells/cell_0/fnode6/resample_2_10_11/max_pooling2d_4/MaxPool"], "attr": {"T": {"type": "DT_FLOAT"}}}, {"name": "fpn_cells/cell_0/fnode6/op_after_combine11/Relu6", "op": "Relu6", "input": ["fpn_cells/cell_0/fnode6/add_n/add_1"], "attr": {"T": {"type": "DT_FLOAT"}}}, {"name": "fpn_cells/cell_0/fnode6/op_after_combine11/conv/separable_conv2d/depthwise", "op": "DepthwiseConv2dNative", "input": ["fpn_cells/cell_0/fnode6/op_after_combine11/Relu6", "fpn_cells/cell_0/fnode6/op_after_combine11/conv/depthwise_kernel"], "attr": {"dilations": {"list": {"i": ["1", "1", "1", "1"]}}, "T": {"type": "DT_FLOAT"}, "strides": {"list": {"i": ["1", "1", "1", "1"]}}, "data_format": {"s": "TkhXQw=="}, "explicit_paddings": {"list": {}}, "padding": {"s": "U0FNRQ=="}}}, {"name": "fpn_cells/cell_0/fnode6/op_after_combine11/bn/FusedBatchNormV3", "op": "_FusedConv2D", "input": ["fpn_cells/cell_0/fnode6/op_after_combine11/conv/separable_conv2d/depthwise", "fpn_cells/cell_0/fnode6/op_after_combine11/conv/separable_conv2d_weights", "fpn_cells/cell_0/fnode6/op_after_combine11/conv/separable_conv2d_bn_offset"], "device": "/device:CPU:0", "attr": {"dilations": {"list": {"i": ["1", "1", "1", "1"]}}, "T": {"type": "DT_FLOAT"}, "data_format": {"s": "TkhXQw=="}, "strides": {"list": {"i": ["1", "1", "1", "1"]}}, "explicit_paddings": {"list": {}}, "use_cudnn_on_gpu": {"b": true}, "num_args": {"i": "1"}, "epsilon": {"f": 0.0}, "padding": {"s": "VkFMSUQ="}, "fused_ops": {"list": {"s": ["Qmlhc0FkZA=="]}}}}, {"name": "fpn_cells/cell_0/fnode7/resample_1_11_12/max_pooling2d_5/MaxPool", "op": "MaxPool", "input": ["fpn_cells/cell_0/fnode6/op_after_combine11/bn/FusedBatchNormV3"], "attr": {"T": {"type": "DT_FLOAT"}, "strides": {"list": {"i": ["1", "2", "2", "1"]}}, "data_format": {"s": "TkhXQw=="}, "explicit_paddings": {"list": {}}, "ksize": {"list": {"i": ["1", "3", "3", "1"]}}, "padding": {"s": "U0FNRQ=="}}}, {"name": "fpn_cells/cell_0/fnode7/add_n/add", "op": "AddV2", "input": ["resample_p7/max_pooling2d_1/MaxPool", "fpn_cells/cell_0/fnode7/resample_1_11_12/max_pooling2d_5/MaxPool"], "attr": {"T": {"type": "DT_FLOAT"}}}, {"name": "fpn_cells/cell_0/fnode7/op_after_combine12/Relu6", "op": "Relu6", "input": ["fpn_cells/cell_0/fnode7/add_n/add"], "attr": {"T": {"type": "DT_FLOAT"}}}, {"name": "fpn_cells/cell_0/fnode7/op_after_combine12/conv/separable_conv2d/depthwise", "op": "DepthwiseConv2dNative", "input": ["fpn_cells/cell_0/fnode7/op_after_combine12/Relu6", "fpn_cells/cell_0/fnode7/op_after_combine12/conv/depthwise_kernel"], "attr": {"dilations": {"list": {"i": ["1", "1", "1", "1"]}}, "T": {"type": "DT_FLOAT"}, "strides": {"list": {"i": ["1", "1", "1", "1"]}}, "data_format": {"s": "TkhXQw=="}, "explicit_paddings": {"list": {}}, "padding": {"s": "U0FNRQ=="}}}, {"name": "fpn_cells/cell_0/fnode7/op_after_combine12/bn/FusedBatchNormV3", "op": "_FusedConv2D", "input": ["fpn_cells/cell_0/fnode7/op_after_combine12/conv/separable_conv2d/depthwise", "fpn_cells/cell_0/fnode7/op_after_combine12/conv/separable_conv2d_weights", "fpn_cells/cell_0/fnode7/op_after_combine12/conv/separable_conv2d_bn_offset"], "device": "/device:CPU:0", "attr": {"dilations": {"list": {"i": ["1", "1", "1", "1"]}}, "T": {"type": "DT_FLOAT"}, "data_format": {"s": "TkhXQw=="}, "strides": {"list": {"i": ["1", "1", "1", "1"]}}, "explicit_paddings": {"list": {}}, "use_cudnn_on_gpu": {"b": true}, "num_args": {"i": "1"}, "epsilon": {"f": 0.0}, "padding": {"s": "VkFMSUQ="}, "fused_ops": {"list": {"s": ["Qmlhc0FkZA=="]}}}}, {"name": "fpn_cells/cell_1/fnode0/resample_1_4_5/ResizeNearestNeighbor", "op": "ResizeNearestNeighbor", "input": ["fpn_cells/cell_0/fnode7/op_after_combine12/bn/FusedBatchNormV3", "fpn_cells/cell_1/fnode0/resample_1_4_5/ResizeNearestNeighbor/size"], "attr": {"align_corners": {"b": false}, "half_pixel_centers": {"b": false}, "T": {"type": "DT_FLOAT"}}}, {"name": "fpn_cells/cell_1/fnode0/add_n/add", "op": "AddV2", "input": ["fpn_cells/cell_0/fnode6/op_after_combine11/bn/FusedBatchNormV3", "fpn_cells/cell_1/fnode0/resample_1_4_5/ResizeNearestNeighbor"], "attr": {"T": {"type": "DT_FLOAT"}}}, {"name": "fpn_cells/cell_1/fnode0/op_after_combine5/Relu6", "op": "Relu6", "input": ["fpn_cells/cell_1/fnode0/add_n/add"], "attr": {"T": {"type": "DT_FLOAT"}}}, {"name": "fpn_cells/cell_1/fnode0/op_after_combine5/conv/separable_conv2d/depthwise", "op": "DepthwiseConv2dNative", "input": ["fpn_cells/cell_1/fnode0/op_after_combine5/Relu6", "fpn_cells/cell_1/fnode0/op_after_combine5/conv/depthwise_kernel"], "attr": {"dilations": {"list": {"i": ["1", "1", "1", "1"]}}, "T": {"type": "DT_FLOAT"}, "strides": {"list": {"i": ["1", "1", "1", "1"]}}, "data_format": {"s": "TkhXQw=="}, "explicit_paddings": {"list": {}}, "padding": {"s": "U0FNRQ=="}}}, {"name": "fpn_cells/cell_1/fnode0/op_after_combine5/bn/FusedBatchNormV3", "op": "_FusedConv2D", "input": ["fpn_cells/cell_1/fnode0/op_after_combine5/conv/separable_conv2d/depthwise", "fpn_cells/cell_1/fnode0/op_after_combine5/conv/separable_conv2d_weights", "fpn_cells/cell_1/fnode0/op_after_combine5/conv/separable_conv2d_bn_offset"], "device": "/device:CPU:0", "attr": {"dilations": {"list": {"i": ["1", "1", "1", "1"]}}, "T": {"type": "DT_FLOAT"}, "data_format": {"s": "TkhXQw=="}, "strides": {"list": {"i": ["1", "1", "1", "1"]}}, "explicit_paddings": {"list": {}}, "use_cudnn_on_gpu": {"b": true}, "num_args": {"i": "1"}, "epsilon": {"f": 0.0}, "padding": {"s": "VkFMSUQ="}, "fused_ops": {"list": {"s": ["Qmlhc0FkZA=="]}}}}, {"name": "fpn_cells/cell_1/fnode1/resample_1_5_6/ResizeNearestNeighbor", "op": "ResizeNearestNeighbor", "input": ["fpn_cells/cell_1/fnode0/op_after_combine5/bn/FusedBatchNormV3", "fpn_cells/cell_1/fnode1/resample_1_5_6/ResizeNearestNeighbor/size"], "attr": {"align_corners": {"b": false}, "half_pixel_centers": {"b": false}, "T": {"type": "DT_FLOAT"}}}, {"name": "fpn_cells/cell_1/fnode1/add_n/add", "op": "AddV2", "input": ["fpn_cells/cell_0/fnode5/op_after_combine10/bn/FusedBatchNormV3", "fpn_cells/cell_1/fnode1/resample_1_5_6/ResizeNearestNeighbor"], "attr": {"T": {"type": "DT_FLOAT"}}}, {"name": "fpn_cells/cell_1/fnode1/op_after_combine6/Relu6", "op": "Relu6", "input": ["fpn_cells/cell_1/fnode1/add_n/add"], "attr": {"T": {"type": "DT_FLOAT"}}}, {"name": "fpn_cells/cell_1/fnode1/op_after_combine6/conv/separable_conv2d/depthwise", "op": "DepthwiseConv2dNative", "input": ["fpn_cells/cell_1/fnode1/op_after_combine6/Relu6", "fpn_cells/cell_1/fnode1/op_after_combine6/conv/depthwise_kernel"], "attr": {"dilations": {"list": {"i": ["1", "1", "1", "1"]}}, "T": {"type": "DT_FLOAT"}, "strides": {"list": {"i": ["1", "1", "1", "1"]}}, "data_format": {"s": "TkhXQw=="}, "explicit_paddings": {"list": {}}, "padding": {"s": "U0FNRQ=="}}}, {"name": "fpn_cells/cell_1/fnode1/op_after_combine6/bn/FusedBatchNormV3", "op": "_FusedConv2D", "input": ["fpn_cells/cell_1/fnode1/op_after_combine6/conv/separable_conv2d/depthwise", "fpn_cells/cell_1/fnode1/op_after_combine6/conv/separable_conv2d_weights", "fpn_cells/cell_1/fnode1/op_after_combine6/conv/separable_conv2d_bn_offset"], "device": "/device:CPU:0", "attr": {"dilations": {"list": {"i": ["1", "1", "1", "1"]}}, "T": {"type": "DT_FLOAT"}, "data_format": {"s": "TkhXQw=="}, "strides": {"list": {"i": ["1", "1", "1", "1"]}}, "explicit_paddings": {"list": {}}, "use_cudnn_on_gpu": {"b": true}, "num_args": {"i": "1"}, "epsilon": {"f": 0.0}, "padding": {"s": "VkFMSUQ="}, "fused_ops": {"list": {"s": ["Qmlhc0FkZA=="]}}}}, {"name": "fpn_cells/cell_1/fnode2/resample_1_6_7/ResizeNearestNeighbor", "op": "ResizeNearestNeighbor", "input": ["fpn_cells/cell_1/fnode1/op_after_combine6/bn/FusedBatchNormV3", "fpn_cells/cell_1/fnode2/resample_1_6_7/ResizeNearestNeighbor/size"], "attr": {"align_corners": {"b": false}, "half_pixel_centers": {"b": false}, "T": {"type": "DT_FLOAT"}}}, {"name": "fpn_cells/cell_1/fnode2/add_n/add", "op": "AddV2", "input": ["fpn_cells/cell_0/fnode4/op_after_combine9/bn/FusedBatchNormV3", "fpn_cells/cell_1/fnode2/resample_1_6_7/ResizeNearestNeighbor"], "attr": {"T": {"type": "DT_FLOAT"}}}, {"name": "fpn_cells/cell_1/fnode2/op_after_combine7/Relu6", "op": "Relu6", "input": ["fpn_cells/cell_1/fnode2/add_n/add"], "attr": {"T": {"type": "DT_FLOAT"}}}, {"name": "fpn_cells/cell_1/fnode2/op_after_combine7/conv/separable_conv2d/depthwise", "op": "DepthwiseConv2dNative", "input": ["fpn_cells/cell_1/fnode2/op_after_combine7/Relu6", "fpn_cells/cell_1/fnode2/op_after_combine7/conv/depthwise_kernel"], "attr": {"dilations": {"list": {"i": ["1", "1", "1", "1"]}}, "T": {"type": "DT_FLOAT"}, "strides": {"list": {"i": ["1", "1", "1", "1"]}}, "data_format": {"s": "TkhXQw=="}, "explicit_paddings": {"list": {}}, "padding": {"s": "U0FNRQ=="}}}, {"name": "fpn_cells/cell_1/fnode2/op_after_combine7/bn/FusedBatchNormV3", "op": "_FusedConv2D", "input": ["fpn_cells/cell_1/fnode2/op_after_combine7/conv/separable_conv2d/depthwise", "fpn_cells/cell_1/fnode2/op_after_combine7/conv/separable_conv2d_weights", "fpn_cells/cell_1/fnode2/op_after_combine7/conv/separable_conv2d_bn_offset"], "device": "/device:CPU:0", "attr": {"dilations": {"list": {"i": ["1", "1", "1", "1"]}}, "T": {"type": "DT_FLOAT"}, "data_format": {"s": "TkhXQw=="}, "strides": {"list": {"i": ["1", "1", "1", "1"]}}, "explicit_paddings": {"list": {}}, "use_cudnn_on_gpu": {"b": true}, "num_args": {"i": "1"}, "epsilon": {"f": 0.0}, "padding": {"s": "VkFMSUQ="}, "fused_ops": {"list": {"s": ["Qmlhc0FkZA=="]}}}}, {"name": "fpn_cells/cell_1/fnode3/resample_1_7_8/ResizeNearestNeighbor", "op": "ResizeNearestNeighbor", "input": ["fpn_cells/cell_1/fnode2/op_after_combine7/bn/FusedBatchNormV3", "fpn_cells/cell_1/fnode3/resample_1_7_8/ResizeNearestNeighbor/size"], "attr": {"align_corners": {"b": false}, "half_pixel_centers": {"b": false}, "T": {"type": "DT_FLOAT"}}}, {"name": "fpn_cells/cell_1/fnode3/add_n/add", "op": "AddV2", "input": ["fpn_cells/cell_0/fnode3/op_after_combine8/bn/FusedBatchNormV3", "fpn_cells/cell_1/fnode3/resample_1_7_8/ResizeNearestNeighbor"], "attr": {"T": {"type": "DT_FLOAT"}}}, {"name": "fpn_cells/cell_1/fnode3/op_after_combine8/Relu6", "op": "Relu6", "input": ["fpn_cells/cell_1/fnode3/add_n/add"], "attr": {"T": {"type": "DT_FLOAT"}}}, {"name": "fpn_cells/cell_1/fnode3/op_after_combine8/conv/separable_conv2d/depthwise", "op": "DepthwiseConv2dNative", "input": ["fpn_cells/cell_1/fnode3/op_after_combine8/Relu6", "fpn_cells/cell_1/fnode3/op_after_combine8/conv/depthwise_kernel"], "attr": {"dilations": {"list": {"i": ["1", "1", "1", "1"]}}, "T": {"type": "DT_FLOAT"}, "strides": {"list": {"i": ["1", "1", "1", "1"]}}, "data_format": {"s": "TkhXQw=="}, "explicit_paddings": {"list": {}}, "padding": {"s": "U0FNRQ=="}}}, {"name": "fpn_cells/cell_1/fnode3/op_after_combine8/bn/FusedBatchNormV3", "op": "_FusedConv2D", "input": ["fpn_cells/cell_1/fnode3/op_after_combine8/conv/separable_conv2d/depthwise", "fpn_cells/cell_1/fnode3/op_after_combine8/conv/separable_conv2d_weights", "fpn_cells/cell_1/fnode3/op_after_combine8/conv/separable_conv2d_bn_offset"], "device": "/device:CPU:0", "attr": {"dilations": {"list": {"i": ["1", "1", "1", "1"]}}, "T": {"type": "DT_FLOAT"}, "data_format": {"s": "TkhXQw=="}, "strides": {"list": {"i": ["1", "1", "1", "1"]}}, "explicit_paddings": {"list": {}}, "use_cudnn_on_gpu": {"b": true}, "num_args": {"i": "1"}, "epsilon": {"f": 0.0}, "padding": {"s": "VkFMSUQ="}, "fused_ops": {"list": {"s": ["Qmlhc0FkZA=="]}}}}, {"name": "fpn_cells/cell_1/fnode4/resample_2_8_9/max_pooling2d_6/MaxPool", "op": "MaxPool", "input": ["fpn_cells/cell_1/fnode3/op_after_combine8/bn/FusedBatchNormV3"], "attr": {"T": {"type": "DT_FLOAT"}, "strides": {"list": {"i": ["1", "2", "2", "1"]}}, "data_format": {"s": "TkhXQw=="}, "explicit_paddings": {"list": {}}, "ksize": {"list": {"i": ["1", "3", "3", "1"]}}, "padding": {"s": "U0FNRQ=="}}}, {"name": "fpn_cells/cell_1/fnode4/add_n/ArithmeticOptimizer/AddOpsRewrite_add_1", "op": "AddN", "input": ["fpn_cells/cell_0/fnode4/op_after_combine9/bn/FusedBatchNormV3", "fpn_cells/cell_1/fnode2/op_after_combine7/bn/FusedBatchNormV3", "fpn_cells/cell_1/fnode4/resample_2_8_9/max_pooling2d_6/MaxPool"], "attr": {"_grappler_ArithmeticOptimizer_AddOpsRewriteStage": {"b": true}, "T": {"type": "DT_FLOAT"}, "N": {"i": "3"}}}, {"name": "fpn_cells/cell_1/fnode4/op_after_combine9/Relu6", "op": "Relu6", "input": ["fpn_cells/cell_1/fnode4/add_n/ArithmeticOptimizer/AddOpsRewrite_add_1"], "attr": {"T": {"type": "DT_FLOAT"}}}, {"name": "fpn_cells/cell_1/fnode4/op_after_combine9/conv/separable_conv2d/depthwise", "op": "DepthwiseConv2dNative", "input": ["fpn_cells/cell_1/fnode4/op_after_combine9/Relu6", "fpn_cells/cell_1/fnode4/op_after_combine9/conv/depthwise_kernel"], "attr": {"dilations": {"list": {"i": ["1", "1", "1", "1"]}}, "T": {"type": "DT_FLOAT"}, "strides": {"list": {"i": ["1", "1", "1", "1"]}}, "data_format": {"s": "TkhXQw=="}, "explicit_paddings": {"list": {}}, "padding": {"s": "U0FNRQ=="}}}, {"name": "fpn_cells/cell_1/fnode4/op_after_combine9/bn/FusedBatchNormV3", "op": "_FusedConv2D", "input": ["fpn_cells/cell_1/fnode4/op_after_combine9/conv/separable_conv2d/depthwise", "fpn_cells/cell_1/fnode4/op_after_combine9/conv/separable_conv2d_weights", "fpn_cells/cell_1/fnode4/op_after_combine9/conv/separable_conv2d_bn_offset"], "device": "/device:CPU:0", "attr": {"dilations": {"list": {"i": ["1", "1", "1", "1"]}}, "T": {"type": "DT_FLOAT"}, "data_format": {"s": "TkhXQw=="}, "strides": {"list": {"i": ["1", "1", "1", "1"]}}, "explicit_paddings": {"list": {}}, "use_cudnn_on_gpu": {"b": true}, "num_args": {"i": "1"}, "epsilon": {"f": 0.0}, "padding": {"s": "VkFMSUQ="}, "fused_ops": {"list": {"s": ["Qmlhc0FkZA=="]}}}}, {"name": "fpn_cells/cell_1/fnode5/resample_2_9_10/max_pooling2d_7/MaxPool", "op": "MaxPool", "input": ["fpn_cells/cell_1/fnode4/op_after_combine9/bn/FusedBatchNormV3"], "attr": {"T": {"type": "DT_FLOAT"}, "strides": {"list": {"i": ["1", "2", "2", "1"]}}, "data_format": {"s": "TkhXQw=="}, "explicit_paddings": {"list": {}}, "ksize": {"list": {"i": ["1", "3", "3", "1"]}}, "padding": {"s": "U0FNRQ=="}}}, {"name": "fpn_cells/cell_1/fnode5/add_n/ArithmeticOptimizer/AddOpsRewrite_add_1", "op": "AddN", "input": ["fpn_cells/cell_0/fnode5/op_after_combine10/bn/FusedBatchNormV3", "fpn_cells/cell_1/fnode1/op_after_combine6/bn/FusedBatchNormV3", "fpn_cells/cell_1/fnode5/resample_2_9_10/max_pooling2d_7/MaxPool"], "attr": {"_grappler_ArithmeticOptimizer_AddOpsRewriteStage": {"b": true}, "T": {"type": "DT_FLOAT"}, "N": {"i": "3"}}}, {"name": "fpn_cells/cell_1/fnode5/op_after_combine10/Relu6", "op": "Relu6", "input": ["fpn_cells/cell_1/fnode5/add_n/ArithmeticOptimizer/AddOpsRewrite_add_1"], "attr": {"T": {"type": "DT_FLOAT"}}}, {"name": "fpn_cells/cell_1/fnode5/op_after_combine10/conv/separable_conv2d/depthwise", "op": "DepthwiseConv2dNative", "input": ["fpn_cells/cell_1/fnode5/op_after_combine10/Relu6", "fpn_cells/cell_1/fnode5/op_after_combine10/conv/depthwise_kernel"], "attr": {"dilations": {"list": {"i": ["1", "1", "1", "1"]}}, "T": {"type": "DT_FLOAT"}, "strides": {"list": {"i": ["1", "1", "1", "1"]}}, "data_format": {"s": "TkhXQw=="}, "explicit_paddings": {"list": {}}, "padding": {"s": "U0FNRQ=="}}}, {"name": "fpn_cells/cell_1/fnode5/op_after_combine10/bn/FusedBatchNormV3", "op": "_FusedConv2D", "input": ["fpn_cells/cell_1/fnode5/op_after_combine10/conv/separable_conv2d/depthwise", "fpn_cells/cell_1/fnode5/op_after_combine10/conv/separable_conv2d_weights", "fpn_cells/cell_1/fnode5/op_after_combine10/conv/separable_conv2d_bn_offset"], "device": "/device:CPU:0", "attr": {"dilations": {"list": {"i": ["1", "1", "1", "1"]}}, "T": {"type": "DT_FLOAT"}, "data_format": {"s": "TkhXQw=="}, "strides": {"list": {"i": ["1", "1", "1", "1"]}}, "explicit_paddings": {"list": {}}, "use_cudnn_on_gpu": {"b": true}, "num_args": {"i": "1"}, "epsilon": {"f": 0.0}, "padding": {"s": "VkFMSUQ="}, "fused_ops": {"list": {"s": ["Qmlhc0FkZA=="]}}}}, {"name": "fpn_cells/cell_1/fnode6/resample_2_10_11/max_pooling2d_8/MaxPool", "op": "MaxPool", "input": ["fpn_cells/cell_1/fnode5/op_after_combine10/bn/FusedBatchNormV3"], "attr": {"T": {"type": "DT_FLOAT"}, "strides": {"list": {"i": ["1", "2", "2", "1"]}}, "data_format": {"s": "TkhXQw=="}, "explicit_paddings": {"list": {}}, "ksize": {"list": {"i": ["1", "3", "3", "1"]}}, "padding": {"s": "U0FNRQ=="}}}, {"name": "fpn_cells/cell_1/fnode6/add_n/ArithmeticOptimizer/AddOpsRewrite_add_1", "op": "AddN", "input": ["fpn_cells/cell_0/fnode6/op_after_combine11/bn/FusedBatchNormV3", "fpn_cells/cell_1/fnode0/op_after_combine5/bn/FusedBatchNormV3", "fpn_cells/cell_1/fnode6/resample_2_10_11/max_pooling2d_8/MaxPool"], "attr": {"_grappler_ArithmeticOptimizer_AddOpsRewriteStage": {"b": true}, "T": {"type": "DT_FLOAT"}, "N": {"i": "3"}}}, {"name": "fpn_cells/cell_1/fnode6/op_after_combine11/Relu6", "op": "Relu6", "input": ["fpn_cells/cell_1/fnode6/add_n/ArithmeticOptimizer/AddOpsRewrite_add_1"], "attr": {"T": {"type": "DT_FLOAT"}}}, {"name": "fpn_cells/cell_1/fnode6/op_after_combine11/conv/separable_conv2d/depthwise", "op": "DepthwiseConv2dNative", "input": ["fpn_cells/cell_1/fnode6/op_after_combine11/Relu6", "fpn_cells/cell_1/fnode6/op_after_combine11/conv/depthwise_kernel"], "attr": {"dilations": {"list": {"i": ["1", "1", "1", "1"]}}, "T": {"type": "DT_FLOAT"}, "strides": {"list": {"i": ["1", "1", "1", "1"]}}, "data_format": {"s": "TkhXQw=="}, "explicit_paddings": {"list": {}}, "padding": {"s": "U0FNRQ=="}}}, {"name": "fpn_cells/cell_1/fnode6/op_after_combine11/bn/FusedBatchNormV3", "op": "_FusedConv2D", "input": ["fpn_cells/cell_1/fnode6/op_after_combine11/conv/separable_conv2d/depthwise", "fpn_cells/cell_1/fnode6/op_after_combine11/conv/separable_conv2d_weights", "fpn_cells/cell_1/fnode6/op_after_combine11/conv/separable_conv2d_bn_offset"], "device": "/device:CPU:0", "attr": {"dilations": {"list": {"i": ["1", "1", "1", "1"]}}, "T": {"type": "DT_FLOAT"}, "data_format": {"s": "TkhXQw=="}, "strides": {"list": {"i": ["1", "1", "1", "1"]}}, "explicit_paddings": {"list": {}}, "use_cudnn_on_gpu": {"b": true}, "num_args": {"i": "1"}, "epsilon": {"f": 0.0}, "padding": {"s": "VkFMSUQ="}, "fused_ops": {"list": {"s": ["Qmlhc0FkZA=="]}}}}, {"name": "fpn_cells/cell_1/fnode7/resample_1_11_12/max_pooling2d_9/MaxPool", "op": "MaxPool", "input": ["fpn_cells/cell_1/fnode6/op_after_combine11/bn/FusedBatchNormV3"], "attr": {"T": {"type": "DT_FLOAT"}, "strides": {"list": {"i": ["1", "2", "2", "1"]}}, "data_format": {"s": "TkhXQw=="}, "explicit_paddings": {"list": {}}, "ksize": {"list": {"i": ["1", "3", "3", "1"]}}, "padding": {"s": "U0FNRQ=="}}}, {"name": "fpn_cells/cell_1/fnode7/add_n/add", "op": "AddV2", "input": ["fpn_cells/cell_0/fnode7/op_after_combine12/bn/FusedBatchNormV3", "fpn_cells/cell_1/fnode7/resample_1_11_12/max_pooling2d_9/MaxPool"], "attr": {"T": {"type": "DT_FLOAT"}}}, {"name": "fpn_cells/cell_1/fnode7/op_after_combine12/Relu6", "op": "Relu6", "input": ["fpn_cells/cell_1/fnode7/add_n/add"], "attr": {"T": {"type": "DT_FLOAT"}}}, {"name": "fpn_cells/cell_1/fnode7/op_after_combine12/conv/separable_conv2d/depthwise", "op": "DepthwiseConv2dNative", "input": ["fpn_cells/cell_1/fnode7/op_after_combine12/Relu6", "fpn_cells/cell_1/fnode7/op_after_combine12/conv/depthwise_kernel"], "attr": {"dilations": {"list": {"i": ["1", "1", "1", "1"]}}, "T": {"type": "DT_FLOAT"}, "strides": {"list": {"i": ["1", "1", "1", "1"]}}, "data_format": {"s": "TkhXQw=="}, "explicit_paddings": {"list": {}}, "padding": {"s": "U0FNRQ=="}}}, {"name": "fpn_cells/cell_1/fnode7/op_after_combine12/bn/FusedBatchNormV3", "op": "_FusedConv2D", "input": ["fpn_cells/cell_1/fnode7/op_after_combine12/conv/separable_conv2d/depthwise", "fpn_cells/cell_1/fnode7/op_after_combine12/conv/separable_conv2d_weights", "fpn_cells/cell_1/fnode7/op_after_combine12/conv/separable_conv2d_bn_offset"], "device": "/device:CPU:0", "attr": {"dilations": {"list": {"i": ["1", "1", "1", "1"]}}, "T": {"type": "DT_FLOAT"}, "data_format": {"s": "TkhXQw=="}, "strides": {"list": {"i": ["1", "1", "1", "1"]}}, "explicit_paddings": {"list": {}}, "use_cudnn_on_gpu": {"b": true}, "num_args": {"i": "1"}, "epsilon": {"f": 0.0}, "padding": {"s": "VkFMSUQ="}, "fused_ops": {"list": {"s": ["Qmlhc0FkZA=="]}}}}, {"name": "fpn_cells/cell_2/fnode0/resample_1_4_5/ResizeNearestNeighbor", "op": "ResizeNearestNeighbor", "input": ["fpn_cells/cell_1/fnode7/op_after_combine12/bn/FusedBatchNormV3", "fpn_cells/cell_2/fnode0/resample_1_4_5/ResizeNearestNeighbor/size"], "attr": {"align_corners": {"b": false}, "half_pixel_centers": {"b": false}, "T": {"type": "DT_FLOAT"}}}, {"name": "fpn_cells/cell_2/fnode0/add_n/add", "op": "AddV2", "input": ["fpn_cells/cell_1/fnode6/op_after_combine11/bn/FusedBatchNormV3", "fpn_cells/cell_2/fnode0/resample_1_4_5/ResizeNearestNeighbor"], "attr": {"T": {"type": "DT_FLOAT"}}}, {"name": "fpn_cells/cell_2/fnode0/op_after_combine5/Relu6", "op": "Relu6", "input": ["fpn_cells/cell_2/fnode0/add_n/add"], "attr": {"T": {"type": "DT_FLOAT"}}}, {"name": "fpn_cells/cell_2/fnode0/op_after_combine5/conv/separable_conv2d/depthwise", "op": "DepthwiseConv2dNative", "input": ["fpn_cells/cell_2/fnode0/op_after_combine5/Relu6", "fpn_cells/cell_2/fnode0/op_after_combine5/conv/depthwise_kernel"], "attr": {"dilations": {"list": {"i": ["1", "1", "1", "1"]}}, "T": {"type": "DT_FLOAT"}, "strides": {"list": {"i": ["1", "1", "1", "1"]}}, "data_format": {"s": "TkhXQw=="}, "explicit_paddings": {"list": {}}, "padding": {"s": "U0FNRQ=="}}}, {"name": "fpn_cells/cell_2/fnode0/op_after_combine5/bn/FusedBatchNormV3", "op": "_FusedConv2D", "input": ["fpn_cells/cell_2/fnode0/op_after_combine5/conv/separable_conv2d/depthwise", "fpn_cells/cell_2/fnode0/op_after_combine5/conv/separable_conv2d_weights", "fpn_cells/cell_2/fnode0/op_after_combine5/conv/separable_conv2d_bn_offset"], "device": "/device:CPU:0", "attr": {"dilations": {"list": {"i": ["1", "1", "1", "1"]}}, "T": {"type": "DT_FLOAT"}, "data_format": {"s": "TkhXQw=="}, "strides": {"list": {"i": ["1", "1", "1", "1"]}}, "explicit_paddings": {"list": {}}, "use_cudnn_on_gpu": {"b": true}, "num_args": {"i": "1"}, "epsilon": {"f": 0.0}, "padding": {"s": "VkFMSUQ="}, "fused_ops": {"list": {"s": ["Qmlhc0FkZA=="]}}}}, {"name": "fpn_cells/cell_2/fnode1/resample_1_5_6/ResizeNearestNeighbor", "op": "ResizeNearestNeighbor", "input": ["fpn_cells/cell_2/fnode0/op_after_combine5/bn/FusedBatchNormV3", "fpn_cells/cell_2/fnode1/resample_1_5_6/ResizeNearestNeighbor/size"], "attr": {"align_corners": {"b": false}, "half_pixel_centers": {"b": false}, "T": {"type": "DT_FLOAT"}}}, {"name": "fpn_cells/cell_2/fnode1/add_n/add", "op": "AddV2", "input": ["fpn_cells/cell_1/fnode5/op_after_combine10/bn/FusedBatchNormV3", "fpn_cells/cell_2/fnode1/resample_1_5_6/ResizeNearestNeighbor"], "attr": {"T": {"type": "DT_FLOAT"}}}, {"name": "fpn_cells/cell_2/fnode1/op_after_combine6/Relu6", "op": "Relu6", "input": ["fpn_cells/cell_2/fnode1/add_n/add"], "attr": {"T": {"type": "DT_FLOAT"}}}, {"name": "fpn_cells/cell_2/fnode1/op_after_combine6/conv/separable_conv2d/depthwise", "op": "DepthwiseConv2dNative", "input": ["fpn_cells/cell_2/fnode1/op_after_combine6/Relu6", "fpn_cells/cell_2/fnode1/op_after_combine6/conv/depthwise_kernel"], "attr": {"dilations": {"list": {"i": ["1", "1", "1", "1"]}}, "T": {"type": "DT_FLOAT"}, "strides": {"list": {"i": ["1", "1", "1", "1"]}}, "data_format": {"s": "TkhXQw=="}, "explicit_paddings": {"list": {}}, "padding": {"s": "U0FNRQ=="}}}, {"name": "fpn_cells/cell_2/fnode1/op_after_combine6/bn/FusedBatchNormV3", "op": "_FusedConv2D", "input": ["fpn_cells/cell_2/fnode1/op_after_combine6/conv/separable_conv2d/depthwise", "fpn_cells/cell_2/fnode1/op_after_combine6/conv/separable_conv2d_weights", "fpn_cells/cell_2/fnode1/op_after_combine6/conv/separable_conv2d_bn_offset"], "device": "/device:CPU:0", "attr": {"dilations": {"list": {"i": ["1", "1", "1", "1"]}}, "T": {"type": "DT_FLOAT"}, "data_format": {"s": "TkhXQw=="}, "strides": {"list": {"i": ["1", "1", "1", "1"]}}, "explicit_paddings": {"list": {}}, "use_cudnn_on_gpu": {"b": true}, "num_args": {"i": "1"}, "epsilon": {"f": 0.0}, "padding": {"s": "VkFMSUQ="}, "fused_ops": {"list": {"s": ["Qmlhc0FkZA=="]}}}}, {"name": "fpn_cells/cell_2/fnode2/resample_1_6_7/ResizeNearestNeighbor", "op": "ResizeNearestNeighbor", "input": ["fpn_cells/cell_2/fnode1/op_after_combine6/bn/FusedBatchNormV3", "fpn_cells/cell_2/fnode2/resample_1_6_7/ResizeNearestNeighbor/size"], "attr": {"align_corners": {"b": false}, "half_pixel_centers": {"b": false}, "T": {"type": "DT_FLOAT"}}}, {"name": "fpn_cells/cell_2/fnode2/add_n/add", "op": "AddV2", "input": ["fpn_cells/cell_1/fnode4/op_after_combine9/bn/FusedBatchNormV3", "fpn_cells/cell_2/fnode2/resample_1_6_7/ResizeNearestNeighbor"], "attr": {"T": {"type": "DT_FLOAT"}}}, {"name": "fpn_cells/cell_2/fnode2/op_after_combine7/Relu6", "op": "Relu6", "input": ["fpn_cells/cell_2/fnode2/add_n/add"], "attr": {"T": {"type": "DT_FLOAT"}}}, {"name": "fpn_cells/cell_2/fnode2/op_after_combine7/conv/separable_conv2d/depthwise", "op": "DepthwiseConv2dNative", "input": ["fpn_cells/cell_2/fnode2/op_after_combine7/Relu6", "fpn_cells/cell_2/fnode2/op_after_combine7/conv/depthwise_kernel"], "attr": {"dilations": {"list": {"i": ["1", "1", "1", "1"]}}, "T": {"type": "DT_FLOAT"}, "strides": {"list": {"i": ["1", "1", "1", "1"]}}, "data_format": {"s": "TkhXQw=="}, "explicit_paddings": {"list": {}}, "padding": {"s": "U0FNRQ=="}}}, {"name": "fpn_cells/cell_2/fnode2/op_after_combine7/bn/FusedBatchNormV3", "op": "_FusedConv2D", "input": ["fpn_cells/cell_2/fnode2/op_after_combine7/conv/separable_conv2d/depthwise", "fpn_cells/cell_2/fnode2/op_after_combine7/conv/separable_conv2d_weights", "fpn_cells/cell_2/fnode2/op_after_combine7/conv/separable_conv2d_bn_offset"], "device": "/device:CPU:0", "attr": {"dilations": {"list": {"i": ["1", "1", "1", "1"]}}, "T": {"type": "DT_FLOAT"}, "data_format": {"s": "TkhXQw=="}, "strides": {"list": {"i": ["1", "1", "1", "1"]}}, "explicit_paddings": {"list": {}}, "use_cudnn_on_gpu": {"b": true}, "num_args": {"i": "1"}, "epsilon": {"f": 0.0}, "padding": {"s": "VkFMSUQ="}, "fused_ops": {"list": {"s": ["Qmlhc0FkZA=="]}}}}, {"name": "fpn_cells/cell_2/fnode3/resample_1_7_8/ResizeNearestNeighbor", "op": "ResizeNearestNeighbor", "input": ["fpn_cells/cell_2/fnode2/op_after_combine7/bn/FusedBatchNormV3", "fpn_cells/cell_2/fnode3/resample_1_7_8/ResizeNearestNeighbor/size"], "attr": {"align_corners": {"b": false}, "half_pixel_centers": {"b": false}, "T": {"type": "DT_FLOAT"}}}, {"name": "fpn_cells/cell_2/fnode3/add_n/add", "op": "AddV2", "input": ["fpn_cells/cell_1/fnode3/op_after_combine8/bn/FusedBatchNormV3", "fpn_cells/cell_2/fnode3/resample_1_7_8/ResizeNearestNeighbor"], "attr": {"T": {"type": "DT_FLOAT"}}}, {"name": "fpn_cells/cell_2/fnode3/op_after_combine8/Relu6", "op": "Relu6", "input": ["fpn_cells/cell_2/fnode3/add_n/add"], "attr": {"T": {"type": "DT_FLOAT"}}}, {"name": "fpn_cells/cell_2/fnode3/op_after_combine8/conv/separable_conv2d/depthwise", "op": "DepthwiseConv2dNative", "input": ["fpn_cells/cell_2/fnode3/op_after_combine8/Relu6", "fpn_cells/cell_2/fnode3/op_after_combine8/conv/depthwise_kernel"], "attr": {"dilations": {"list": {"i": ["1", "1", "1", "1"]}}, "T": {"type": "DT_FLOAT"}, "strides": {"list": {"i": ["1", "1", "1", "1"]}}, "data_format": {"s": "TkhXQw=="}, "explicit_paddings": {"list": {}}, "padding": {"s": "U0FNRQ=="}}}, {"name": "fpn_cells/cell_2/fnode3/op_after_combine8/bn/FusedBatchNormV3", "op": "_FusedConv2D", "input": ["fpn_cells/cell_2/fnode3/op_after_combine8/conv/separable_conv2d/depthwise", "fpn_cells/cell_2/fnode3/op_after_combine8/conv/separable_conv2d_weights", "fpn_cells/cell_2/fnode3/op_after_combine8/conv/separable_conv2d_bn_offset"], "device": "/device:CPU:0", "attr": {"dilations": {"list": {"i": ["1", "1", "1", "1"]}}, "T": {"type": "DT_FLOAT"}, "data_format": {"s": "TkhXQw=="}, "strides": {"list": {"i": ["1", "1", "1", "1"]}}, "explicit_paddings": {"list": {}}, "use_cudnn_on_gpu": {"b": true}, "num_args": {"i": "1"}, "epsilon": {"f": 0.0}, "padding": {"s": "VkFMSUQ="}, "fused_ops": {"list": {"s": ["Qmlhc0FkZA=="]}}}}, {"name": "class_net/class-0/separable_conv2d/depthwise", "op": "DepthwiseConv2dNative", "input": ["fpn_cells/cell_2/fnode3/op_after_combine8/bn/FusedBatchNormV3", "class_net/class-0/depthwise_kernel"], "attr": {"dilations": {"list": {"i": ["1", "1", "1", "1"]}}, "T": {"type": "DT_FLOAT"}, "strides": {"list": {"i": ["1", "1", "1", "1"]}}, "data_format": {"s": "TkhXQw=="}, "explicit_paddings": {"list": {}}, "padding": {"s": "U0FNRQ=="}}}, {"name": "fpn_cells/cell_2/fnode4/resample_2_8_9/max_pooling2d_10/MaxPool", "op": "MaxPool", "input": ["fpn_cells/cell_2/fnode3/op_after_combine8/bn/FusedBatchNormV3"], "attr": {"T": {"type": "DT_FLOAT"}, "strides": {"list": {"i": ["1", "2", "2", "1"]}}, "data_format": {"s": "TkhXQw=="}, "explicit_paddings": {"list": {}}, "ksize": {"list": {"i": ["1", "3", "3", "1"]}}, "padding": {"s": "U0FNRQ=="}}}, {"name": "class_net/Relu6", "op": "_FusedConv2D", "input": ["class_net/class-0/separable_conv2d/depthwise", "class_net/class-0/separable_conv2d_weights", "class_net/class-0/separable_conv2d_bn_offset"], "device": "/device:CPU:0", "attr": {"dilations": {"list": {"i": ["1", "1", "1", "1"]}}, "T": {"type": "DT_FLOAT"}, "data_format": {"s": "TkhXQw=="}, "strides": {"list": {"i": ["1", "1", "1", "1"]}}, "explicit_paddings": {"list": {}}, "use_cudnn_on_gpu": {"b": true}, "num_args": {"i": "1"}, "epsilon": {"f": 0.0}, "padding": {"s": "VkFMSUQ="}, "fused_ops": {"list": {"s": ["Qmlhc0FkZA==", "UmVsdTY="]}}}}, {"name": "fpn_cells/cell_2/fnode4/add_n/ArithmeticOptimizer/AddOpsRewrite_add_1", "op": "AddN", "input": ["fpn_cells/cell_1/fnode4/op_after_combine9/bn/FusedBatchNormV3", "fpn_cells/cell_2/fnode2/op_after_combine7/bn/FusedBatchNormV3", "fpn_cells/cell_2/fnode4/resample_2_8_9/max_pooling2d_10/MaxPool"], "attr": {"_grappler_ArithmeticOptimizer_AddOpsRewriteStage": {"b": true}, "T": {"type": "DT_FLOAT"}, "N": {"i": "3"}}}, {"name": "class_net/class-1/separable_conv2d/depthwise", "op": "DepthwiseConv2dNative", "input": ["class_net/Relu6", "class_net/class-1/depthwise_kernel"], "attr": {"dilations": {"list": {"i": ["1", "1", "1", "1"]}}, "T": {"type": "DT_FLOAT"}, "strides": {"list": {"i": ["1", "1", "1", "1"]}}, "data_format": {"s": "TkhXQw=="}, "explicit_paddings": {"list": {}}, "padding": {"s": "U0FNRQ=="}}}, {"name": "fpn_cells/cell_2/fnode4/op_after_combine9/Relu6", "op": "Relu6", "input": ["fpn_cells/cell_2/fnode4/add_n/ArithmeticOptimizer/AddOpsRewrite_add_1"], "attr": {"T": {"type": "DT_FLOAT"}}}, {"name": "class_net/Relu6_1", "op": "_FusedConv2D", "input": ["class_net/class-1/separable_conv2d/depthwise", "class_net/class-1/separable_conv2d_weights", "class_net/class-1/separable_conv2d_bn_offset"], "device": "/device:CPU:0", "attr": {"dilations": {"list": {"i": ["1", "1", "1", "1"]}}, "T": {"type": "DT_FLOAT"}, "data_format": {"s": "TkhXQw=="}, "strides": {"list": {"i": ["1", "1", "1", "1"]}}, "explicit_paddings": {"list": {}}, "use_cudnn_on_gpu": {"b": true}, "num_args": {"i": "1"}, "epsilon": {"f": 0.0}, "padding": {"s": "VkFMSUQ="}, "fused_ops": {"list": {"s": ["Qmlhc0FkZA==", "UmVsdTY="]}}}}, {"name": "fpn_cells/cell_2/fnode4/op_after_combine9/conv/separable_conv2d/depthwise", "op": "DepthwiseConv2dNative", "input": ["fpn_cells/cell_2/fnode4/op_after_combine9/Relu6", "fpn_cells/cell_2/fnode4/op_after_combine9/conv/depthwise_kernel"], "attr": {"dilations": {"list": {"i": ["1", "1", "1", "1"]}}, "T": {"type": "DT_FLOAT"}, "strides": {"list": {"i": ["1", "1", "1", "1"]}}, "data_format": {"s": "TkhXQw=="}, "explicit_paddings": {"list": {}}, "padding": {"s": "U0FNRQ=="}}}, {"name": "class_net/class-2/separable_conv2d/depthwise", "op": "DepthwiseConv2dNative", "input": ["class_net/Relu6_1", "class_net/class-2/depthwise_kernel"], "attr": {"dilations": {"list": {"i": ["1", "1", "1", "1"]}}, "T": {"type": "DT_FLOAT"}, "strides": {"list": {"i": ["1", "1", "1", "1"]}}, "data_format": {"s": "TkhXQw=="}, "explicit_paddings": {"list": {}}, "padding": {"s": "U0FNRQ=="}}}, {"name": "fpn_cells/cell_2/fnode4/op_after_combine9/bn/FusedBatchNormV3", "op": "_FusedConv2D", "input": ["fpn_cells/cell_2/fnode4/op_after_combine9/conv/separable_conv2d/depthwise", "fpn_cells/cell_2/fnode4/op_after_combine9/conv/separable_conv2d_weights", "fpn_cells/cell_2/fnode4/op_after_combine9/conv/separable_conv2d_bn_offset"], "device": "/device:CPU:0", "attr": {"dilations": {"list": {"i": ["1", "1", "1", "1"]}}, "T": {"type": "…
nput": ["class_net/class-1_1/separable_conv2d/depthwise", "class_net/class-1_1/separable_conv2d_weights", "class_net/class-1_1/separable_conv2d_bn_offset"], "device": "/device:CPU:0", "attr": {"dilations": {"list": {"i": ["1", "1", "1", "1"]}}, "T": {"type": "DT_FLOAT"}, "data_format": {"s": "TkhXQw=="}, "strides": {"list": {"i": ["1", "1", "1", "1"]}}, "explicit_paddings": {"list": {}}, "use_cudnn_on_gpu": {"b": true}, "num_args": {"i": "1"}, "epsilon": {"f": 0.0}, "padding": {"s": "VkFMSUQ="}, "fused_ops": {"list": {"s": ["Qmlhc0FkZA==", "UmVsdTY="]}}}}, {"name": "fpn_cells/cell_2/fnode5/op_after_combine10/conv/separable_conv2d/depthwise", "op": "DepthwiseConv2dNative", "input": ["fpn_cells/cell_2/fnode5/op_after_combine10/Relu6", "fpn_cells/cell_2/fnode5/op_after_combine10/conv/depthwise_kernel"], "attr": {"dilations": {"list": {"i": ["1", "1", "1", "1"]}}, "T": {"type": "DT_FLOAT"}, "strides": {"list": {"i": ["1", "1", "1", "1"]}}, "data_format": {"s": "TkhXQw=="}, "explicit_paddings": {"list": {}}, "padding": {"s": "U0FNRQ=="}}}, {"name": "class_net/class-2_1/separable_conv2d/depthwise", "op": "DepthwiseConv2dNative", "input": ["class_net/Relu6_4", "class_net/class-2/depthwise_kernel"], "attr": {"dilations": {"list": {"i": ["1", "1", "1", "1"]}}, "T": {"type": "DT_FLOAT"}, "strides": {"list": {"i": ["1", "1", "1", "1"]}}, "data_format": {"s": "TkhXQw=="}, "explicit_paddings": {"list": {}}, "padding": {"s": "U0FNRQ=="}}}, {"name": "fpn_cells/cell_2/fnode5/op_after_combine10/bn/FusedBatchNormV3", "op": "_FusedConv2D", "input": ["fpn_cells/cell_2/fnode5/op_after_combine10/conv/separable_conv2d/depthwise", "fpn_cells/cell_2/fnode5/op_after_combine10/conv/separable_conv2d_weights", "fpn_cells/cell_2/fnode5/op_after_combine10/conv/separable_conv2d_bn_offset"], "device": "/device:CPU:0", "attr": {"dilations": {"list": {"i": ["1", "1", "1", "1"]}}, "T": {"type": "DT_FLOAT"}, "data_format": {"s": "TkhXQw=="}, "strides": {"list": {"i": ["1", "1", "1", "1"]}}, "explicit_paddings": {"list": {}}, "use_cudnn_on_gpu": {"b": true}, "num_args": {"i": "1"}, "epsilon": {"f": 0.0}, "padding": {"s": "VkFMSUQ="}, "fused_ops": {"list": {"s": ["Qmlhc0FkZA=="]}}}}, {"name": "class_net/Relu6_5", "op": "_FusedConv2D", "input": ["class_net/class-2_1/separable_conv2d/depthwise", "class_net/class-2_1/separable_conv2d_weights", "class_net/class-2_1/separable_conv2d_bn_offset"], "device": "/device:CPU:0", "attr": {"dilations": {"list": {"i": ["1", "1", "1", "1"]}}, "T": {"type": "DT_FLOAT"}, "data_format": {"s": "TkhXQw=="}, "strides": {"list": {"i": ["1", "1", "1", "1"]}}, "explicit_paddings": {"list": {}}, "use_cudnn_on_gpu": {"b": true}, "num_args": {"i": "1"}, "epsilon": {"f": 0.0}, "padding": {"s": "VkFMSUQ="}, "fused_ops": {"list": {"s": ["Qmlhc0FkZA==", "UmVsdTY="]}}}}, {"name": "class_net/class-0_2/separable_conv2d/depthwise", "op": "DepthwiseConv2dNative", "input": ["fpn_cells/cell_2/fnode5/op_after_combine10/bn/FusedBatchNormV3", "class_net/class-0/depthwise_kernel"], "attr": {"dilations": {"list": {"i": ["1", "1", "1", "1"]}}, "T": {"type": "DT_FLOAT"}, "strides": {"list": {"i": ["1", "1", "1", "1"]}}, "data_format": {"s": "TkhXQw=="}, "explicit_paddings": {"list": {}}, "padding": {"s": "U0FNRQ=="}}}, {"name": "fpn_cells/cell_2/fnode6/resample_2_10_11/max_pooling2d_12/MaxPool", "op": "MaxPool", "input": ["fpn_cells/cell_2/fnode5/op_after_combine10/bn/FusedBatchNormV3"], "attr": {"T": {"type": "DT_FLOAT"}, "strides": {"list": {"i": ["1", "2", "2", "1"]}}, "data_format": {"s": "TkhXQw=="}, "explicit_paddings": {"list": {}}, "ksize": {"list": {"i": ["1", "3", "3", "1"]}}, "padding": {"s": "U0FNRQ=="}}}, {"name": "class_net/class-predict_1/separable_conv2d/depthwise", "op": "DepthwiseConv2dNative", "input": ["class_net/Relu6_5", "class_net/class-predict/depthwise_kernel"], "attr": {"dilations": {"list": {"i": ["1", "1", "1", "1"]}}, "T": {"type": "DT_FLOAT"}, "strides": {"list": {"i": ["1", "1", "1", "1"]}}, "data_format": {"s": "TkhXQw=="}, "explicit_paddings": {"list": {}}, "padding": {"s": "U0FNRQ=="}}}, {"name": "class_net/Relu6_6", "op": "_FusedConv2D", "input": ["class_net/class-0_2/separable_conv2d/depthwise", "class_net/class-0_2/separable_conv2d_weights", "class_net/class-0_2/separable_conv2d_bn_offset"], "device": "/device:CPU:0", "attr": {"dilations": {"list": {"i": ["1", "1", "1", "1"]}}, "T": {"type": "DT_FLOAT"}, "data_format": {"s": "TkhXQw=="}, "strides": {"list": {"i": ["1", "1", "1", "1"]}}, "explicit_paddings": {"list": {}}, "use_cudnn_on_gpu": {"b": true}, "num_args": {"i": "1"}, "epsilon": {"f": 0.0}, "padding": {"s": "VkFMSUQ="}, "fused_ops": {"list": {"s": ["Qmlhc0FkZA==", "UmVsdTY="]}}}}, {"name": "fpn_cells/cell_2/fnode6/add_n/ArithmeticOptimizer/AddOpsRewrite_add_1", "op": "AddN", "input": ["fpn_cells/cell_1/fnode6/op_after_combine11/bn/FusedBatchNormV3", "fpn_cells/cell_2/fnode0/op_after_combine5/bn/FusedBatchNormV3", "fpn_cells/cell_2/fnode6/resample_2_10_11/max_pooling2d_12/MaxPool"], "attr": {"_grappler_ArithmeticOptimizer_AddOpsRewriteStage": {"b": true}, "T": {"type": "DT_FLOAT"}, "N": {"i": "3"}}}, {"name": "class_net/class-predict_1/BiasAdd", "op": "_FusedConv2D", "input": ["class_net/class-predict_1/separable_conv2d/depthwise", "class_net/class-predict/pointwise_kernel", "class_net/class-predict/bias"], "device": "/device:CPU:0", "attr": {"dilations": {"list": {"i": ["1", "1", "1", "1"]}}, "T": {"type": "DT_FLOAT"}, "data_format": {"s": "TkhXQw=="}, "strides": {"list": {"i": ["1", "1", "1", "1"]}}, "explicit_paddings": {"list": {}}, "use_cudnn_on_gpu": {"b": true}, "num_args": {"i": "1"}, "epsilon": {"f": 0.0}, "padding": {"s": "VkFMSUQ="}, "fused_ops": {"list": {"s": ["Qmlhc0FkZA=="]}}}}, {"name": "class_net/class-1_2/separable_conv2d/depthwise", "op": "DepthwiseConv2dNative", "input": ["class_net/Relu6_6", "class_net/class-1/depthwise_kernel"], "attr": {"dilations": {"list": {"i": ["1", "1", "1", "1"]}}, "T": {"type": "DT_FLOAT"}, "strides": {"list": {"i": ["1", "1", "1", "1"]}}, "data_format": {"s": "TkhXQw=="}, "explicit_paddings": {"list": {}}, "padding": {"s": "U0FNRQ=="}}}, {"name": "fpn_cells/cell_2/fnode6/op_after_combine11/Relu6", "op": "Relu6", "input": ["fpn_cells/cell_2/fnode6/add_n/ArithmeticOptimizer/AddOpsRewrite_add_1"], "attr": {"T": {"type": "DT_FLOAT"}}}, {"name": "Reshape_2", "op": "Reshape", "input": ["class_net/class-predict_1/BiasAdd", "Reshape_2/shape"], "attr": {"T": {"type": "DT_FLOAT"}, "Tshape": {"type": "DT_INT32"}}}, {"name": "class_net/Relu6_7", "op": "_FusedConv2D", "input": ["class_net/class-1_2/separable_conv2d/depthwise", "class_net/class-1_2/separable_conv2d_weights", "class_net/class-1_2/separable_conv2d_bn_offset"], "device": "/device:CPU:0", "attr": {"dilations": {"list": {"i": ["1", "1", "1", "1"]}}, "T": {"type": "DT_FLOAT"}, "data_format": {"s": "TkhXQw=="}, "strides": {"list": {"i": ["1", "1", "1", "1"]}}, "explicit_paddings": {"list": {}}, "use_cudnn_on_gpu": {"b": true}, "num_args": {"i": "1"}, "epsilon": {"f": 0.0}, "padding": {"s": "VkFMSUQ="}, "fused_ops": {"list": {"s": ["Qmlhc0FkZA==", "UmVsdTY="]}}}}, {"name": "fpn_cells/cell_2/fnode6/op_after_combine11/conv/separable_conv2d/depthwise", "op": "DepthwiseConv2dNative", "input": ["fpn_cells/cell_2/fnode6/op_after_combine11/Relu6", "fpn_cells/cell_2/fnode6/op_after_combine11/conv/depthwise_kernel"], "attr": {"dilations": {"list": {"i": ["1", "1", "1", "1"]}}, "T": {"type": "DT_FLOAT"}, "strides": {"list": {"i": ["1", "1", "1", "1"]}}, "data_format": {"s": "TkhXQw=="}, "explicit_paddings": {"list": {}}, "padding": {"s": "U0FNRQ=="}}}, {"name": "class_net/class-2_2/separable_conv2d/depthwise", "op": "DepthwiseConv2dNative", "input": ["class_net/Relu6_7", "class_net/class-2/depthwise_kernel"], "attr": {"dilations": {"list": {"i": ["1", "1", "1", "1"]}}, "T": {"type": "DT_FLOAT"}, "strides": {"list": {"i": ["1", "1", "1", "1"]}}, "data_format": {"s": "TkhXQw=="}, "explicit_paddings": {"list": {}}, "padding": {"s": "U0FNRQ=="}}}, {"name": "fpn_cells/cell_2/fnode6/op_after_combine11/bn/FusedBatchNormV3", "op": "_FusedConv2D", "input": ["fpn_cells/cell_2/fnode6/op_after_combine11/conv/separable_conv2d/depthwise", "fpn_cells/cell_2/fnode6/op_after_combine11/conv/separable_conv2d_weights", "fpn_cells/cell_2/fnode6/op_after_combine11/conv/separable_conv2d_bn_offset"], "device": "/device:CPU:0", "attr": {"dilations": {"list": {"i": ["1", "1", "1", "1"]}}, "T": {"type": "DT_FLOAT"}, "data_format": {"s": "TkhXQw=="}, "strides": {"list": {"i": ["1", "1", "1", "1"]}}, "explicit_paddings": {"list": {}}, "use_cudnn_on_gpu": {"b": true}, "num_args": {"i": "1"}, "epsilon": {"f": 0.0}, "padding": {"s": "VkFMSUQ="}, "fused_ops": {"list": {"s": ["Qmlhc0FkZA=="]}}}}, {"name": "class_net/Relu6_8", "op": "_FusedConv2D", "input": ["class_net/class-2_2/separable_conv2d/depthwise", "class_net/class-2_2/separable_conv2d_weights", "class_net/class-2_2/separable_conv2d_bn_offset"], "device": "/device:CPU:0", "attr": {"dilations": {"list": {"i": ["1", "1", "1", "1"]}}, "T": {"type": "DT_FLOAT"}, "data_format": {"s": "TkhXQw=="}, "strides": {"list": {"i": ["1", "1", "1", "1"]}}, "explicit_paddings": {"list": {}}, "use_cudnn_on_gpu": {"b": true}, "num_args": {"i": "1"}, "epsilon": {"f": 0.0}, "padding": {"s": "VkFMSUQ="}, "fused_ops": {"list": {"s": ["Qmlhc0FkZA==", "UmVsdTY="]}}}}, {"name": "class_net/class-0_3/separable_conv2d/depthwise", "op": "DepthwiseConv2dNative", "input": ["fpn_cells/cell_2/fnode6/op_after_combine11/bn/FusedBatchNormV3", "class_net/class-0/depthwise_kernel"], "attr": {"dilations": {"list": {"i": ["1", "1", "1", "1"]}}, "T": {"type": "DT_FLOAT"}, "strides": {"list": {"i": ["1", "1", "1", "1"]}}, "data_format": {"s": "TkhXQw=="}, "explicit_paddings": {"list": {}}, "padding": {"s": "U0FNRQ=="}}}, {"name": "fpn_cells/cell_2/fnode7/resample_1_11_12/max_pooling2d_13/MaxPool", "op": "MaxPool", "input": ["fpn_cells/cell_2/fnode6/op_after_combine11/bn/FusedBatchNormV3"], "attr": {"T": {"type": "DT_FLOAT"}, "strides": {"list": {"i": ["1", "2", "2", "1"]}}, "data_format": {"s": "TkhXQw=="}, "explicit_paddings": {"list": {}}, "ksize": {"list": {"i": ["1", "3", "3", "1"]}}, "padding": {"s": "U0FNRQ=="}}}, {"name": "class_net/class-predict_2/separable_conv2d/depthwise", "op": "DepthwiseConv2dNative", "input": ["class_net/Relu6_8", "class_net/class-predict/depthwise_kernel"], "attr": {"dilations": {"list": {"i": ["1", "1", "1", "1"]}}, "T": {"type": "DT_FLOAT"}, "strides": {"list": {"i": ["1", "1", "1", "1"]}}, "data_format": {"s": "TkhXQw=="}, "explicit_paddings": {"list": {}}, "padding": {"s": "U0FNRQ=="}}}, {"name": "class_net/Relu6_9", "op": "_FusedConv2D", "input": ["class_net/class-0_3/separable_conv2d/depthwise", "class_net/class-0_3/separable_conv2d_weights", "class_net/class-0_3/separable_conv2d_bn_offset"], "device": "/device:CPU:0", "attr": {"dilations": {"list": {"i": ["1", "1", "1", "1"]}}, "T": {"type": "DT_FLOAT"}, "data_format": {"s": "TkhXQw=="}, "strides": {"list": {"i": ["1", "1", "1", "1"]}}, "explicit_paddings": {"list": {}}, "use_cudnn_on_gpu": {"b": true}, "num_args": {"i": "1"}, "epsilon": {"f": 0.0}, "padding": {"s": "VkFMSUQ="}, "fused_ops": {"list": {"s": ["Qmlhc0FkZA==", "UmVsdTY="]}}}}, {"name": "fpn_cells/cell_2/fnode7/add_n/add", "op": "AddV2", "input": ["fpn_cells/cell_1/fnode7/op_after_combine12/bn/FusedBatchNormV3", "fpn_cells/cell_2/fnode7/resample_1_11_12/max_pooling2d_13/MaxPool"], "attr": {"T": {"type": "DT_FLOAT"}}}, {"name": "class_net/class-predict_2/BiasAdd", "op": "_FusedConv2D", "input": ["class_net/class-predict_2/separable_conv2d/depthwise", "class_net/class-predict/pointwise_kernel", "class_net/class-predict/bias"], "device": "/device:CPU:0", "attr": {"dilations": {"list": {"i": ["1", "1", "1", "1"]}}, "T": {"type": "DT_FLOAT"}, "data_format": {"s": "TkhXQw=="}, "strides": {"list": {"i": ["1", "1", "1", "1"]}}, "explicit_paddings": {"list": {}}, "use_cudnn_on_gpu": {"b": true}, "num_args": {"i": "1"}, "epsilon": {"f": 0.0}, "padding": {"s": "VkFMSUQ="}, "fused_ops": {"list": {"s": ["Qmlhc0FkZA=="]}}}}, {"name": "class_net/class-1_3/separable_conv2d/depthwise", "op": "DepthwiseConv2dNative", "input": ["class_net/Relu6_9", "class_net/class-1/depthwise_kernel"], "attr": {"dilations": {"list": {"i": ["1", "1", "1", "1"]}}, "T": {"type": "DT_FLOAT"}, "strides": {"list": {"i": ["1", "1", "1", "1"]}}, "data_format": {"s": "TkhXQw=="}, "explicit_paddings": {"list": {}}, "padding": {"s": "U0FNRQ=="}}}, {"name": "fpn_cells/cell_2/fnode7/op_after_combine12/Relu6", "op": "Relu6", "input": ["fpn_cells/cell_2/fnode7/add_n/add"], "attr": {"T": {"type": "DT_FLOAT"}}}, {"name": "Reshape_4", "op": "Reshape", "input": ["class_net/class-predict_2/BiasAdd", "Reshape_4/shape"], "attr": {"T": {"type": "DT_FLOAT"}, "Tshape": {"type": "DT_INT32"}}}, {"name": "class_net/Relu6_10", "op": "_FusedConv2D", "input": ["class_net/class-1_3/separable_conv2d/depthwise", "class_net/class-1_3/separable_conv2d_weights", "class_net/class-1_3/separable_conv2d_bn_offset"], "device": "/device:CPU:0", "attr": {"dilations": {"list": {"i": ["1", "1", "1", "1"]}}, "T": {"type": "DT_FLOAT"}, "data_format": {"s": "TkhXQw=="}, "strides": {"list": {"i": ["1", "1", "1", "1"]}}, "explicit_paddings": {"list": {}}, "use_cudnn_on_gpu": {"b": true}, "num_args": {"i": "1"}, "epsilon": {"f": 0.0}, "padding": {"s": "VkFMSUQ="}, "fused_ops": {"list": {"s": ["Qmlhc0FkZA==", "UmVsdTY="]}}}}, {"name": "fpn_cells/cell_2/fnode7/op_after_combine12/conv/separable_conv2d/depthwise", "op": "DepthwiseConv2dNative", "input": ["fpn_cells/cell_2/fnode7/op_after_combine12/Relu6", "fpn_cells/cell_2/fnode7/op_after_combine12/conv/depthwise_kernel"], "attr": {"dilations": {"list": {"i": ["1", "1", "1", "1"]}}, "T": {"type": "DT_FLOAT"}, "strides": {"list": {"i": ["1", "1", "1", "1"]}}, "data_format": {"s": "TkhXQw=="}, "explicit_paddings": {"list": {}}, "padding": {"s": "U0FNRQ=="}}}, {"name": "class_net/class-2_3/separable_conv2d/depthwise", "op": "DepthwiseConv2dNative", "input": ["class_net/Relu6_10", "class_net/class-2/depthwise_kernel"], "attr": {"dilations": {"list": {"i": ["1", "1", "1", "1"]}}, "T": {"type": "DT_FLOAT"}, "strides": {"list": {"i": ["1", "1", "1", "1"]}}, "data_format": {"s": "TkhXQw=="}, "explicit_paddings": {"list": {}}, "padding": {"s": "U0FNRQ=="}}}, {"name": "fpn_cells/cell_2/fnode7/op_after_combine12/bn/FusedBatchNormV3", "op": "_FusedConv2D", "input": ["fpn_cells/cell_2/fnode7/op_after_combine12/conv/separable_conv2d/depthwise", "fpn_cells/cell_2/fnode7/op_after_combine12/conv/separable_conv2d_weights", "fpn_cells/cell_2/fnode7/op_after_combine12/conv/separable_conv2d_bn_offset"], "device": "/device:CPU:0", "attr": {"dilations": {"list": {"i": ["1", "1", "1", "1"]}}, "T": {"type": "DT_FLOAT"}, "data_format": {"s": "TkhXQw=="}, "strides": {"list": {"i": ["1", "1", "1", "1"]}}, "explicit_paddings": {"list": {}}, "use_cudnn_on_gpu": {"b": true}, "num_args": {"i": "1"}, "epsilon": {"f": 0.0}, "padding": {"s": "VkFMSUQ="}, "fused_ops": {"list": {"s": ["Qmlhc0FkZA=="]}}}}, {"name": "class_net/Relu6_11", "op": "_FusedConv2D", "input": ["class_net/class-2_3/separable_conv2d/depthwise", "class_net/class-2_3/separable_conv2d_weights", "class_net/class-2_3/separable_conv2d_bn_offset"], "device": "/device:CPU:0", "attr": {"dilations": {"list": {"i": ["1", "1", "1", "1"]}}, "T": {"type": "DT_FLOAT"}, "data_format": {"s": "TkhXQw=="}, "strides": {"list": {"i": ["1", "1", "1", "1"]}}, "explicit_paddings": {"list": {}}, "use_cudnn_on_gpu": {"b": true}, "num_args": {"i": "1"}, "epsilon": {"f": 0.0}, "padding": {"s": "VkFMSUQ="}, "fused_ops": {"list": {"s": ["Qmlhc0FkZA==", "UmVsdTY="]}}}}, {"name": "class_net/class-0_4/separable_conv2d/depthwise", "op": "DepthwiseConv2dNative", "input": ["fpn_cells/cell_2/fnode7/op_after_combine12/bn/FusedBatchNormV3", "class_net/class-0/depthwise_kernel"], "attr": {"dilations": {"list": {"i": ["1", "1", "1", "1"]}}, "T": {"type": "DT_FLOAT"}, "strides": {"list": {"i": ["1", "1", "1", "1"]}}, "data_format": {"s": "TkhXQw=="}, "explicit_paddings": {"list": {}}, "padding": {"s": "U0FNRQ=="}}}, {"name": "class_net/class-predict_3/separable_conv2d/depthwise", "op": "DepthwiseConv2dNative", "input": ["class_net/Relu6_11", "class_net/class-predict/depthwise_kernel"], "attr": {"dilations": {"list": {"i": ["1", "1", "1", "1"]}}, "T": {"type": "DT_FLOAT"}, "strides": {"list": {"i": ["1", "1", "1", "1"]}}, "data_format": {"s": "TkhXQw=="}, "explicit_paddings": {"list": {}}, "padding": {"s": "U0FNRQ=="}}}, {"name": "class_net/Relu6_12", "op": "_FusedConv2D", "input": ["class_net/class-0_4/separable_conv2d/depthwise", "class_net/class-0_4/separable_conv2d_weights", "class_net/class-0_4/separable_conv2d_bn_offset"], "device": "/device:CPU:0", "attr": {"dilations": {"list": {"i": ["1", "1", "1", "1"]}}, "T": {"type": "DT_FLOAT"}, "data_format": {"s": "TkhXQw=="}, "strides": {"list": {"i": ["1", "1", "1", "1"]}}, "explicit_paddings": {"list": {}}, "use_cudnn_on_gpu": {"b": true}, "num_args": {"i": "1"}, "epsilon": {"f": 0.0}, "padding": {"s": "VkFMSUQ="}, "fused_ops": {"list": {"s": ["Qmlhc0FkZA==", "UmVsdTY="]}}}}, {"name": "class_net/class-predict_3/BiasAdd", "op": "_FusedConv2D", "input": ["class_net/class-predict_3/separable_conv2d/depthwise", "class_net/class-predict/pointwise_kernel", "class_net/class-predict/bias"], "device": "/device:CPU:0", "attr": {"dilations": {"list": {"i": ["1", "1", "1", "1"]}}, "T": {"type": "DT_FLOAT"}, "data_format": {"s": "TkhXQw=="}, "strides": {"list": {"i": ["1", "1", "1", "1"]}}, "explicit_paddings": {"list": {}}, "use_cudnn_on_gpu": {"b": true}, "num_args": {"i": "1"}, "epsilon": {"f": 0.0}, "padding": {"s": "VkFMSUQ="}, "fused_ops": {"list": {"s": ["Qmlhc0FkZA=="]}}}}, {"name": "class_net/class-1_4/separable_conv2d/depthwise", "op": "DepthwiseConv2dNative", "input": ["class_net/Relu6_12", "class_net/class-1/depthwise_kernel"], "attr": {"dilations": {"list": {"i": ["1", "1", "1", "1"]}}, "T": {"type": "DT_FLOAT"}, "strides": {"list": {"i": ["1", "1", "1", "1"]}}, "data_format": {"s": "TkhXQw=="}, "explicit_paddings": {"list": {}}, "padding": {"s": "U0FNRQ=="}}}, {"name": "Reshape_6", "op": "Reshape", "input": ["class_net/class-predict_3/BiasAdd", "Reshape_6/shape"], "attr": {"T": {"type": "DT_FLOAT"}, "Tshape": {"type": "DT_INT32"}}}, {"name": "class_net/Relu6_13", "op": "_FusedConv2D", "input": ["class_net/class-1_4/separable_conv2d/depthwise", "class_net/class-1_4/separable_conv2d_weights", "class_net/class-1_4/separable_conv2d_bn_offset"], "device": "/device:CPU:0", "attr": {"dilations": {"list": {"i": ["1", "1", "1", "1"]}}, "T": {"type": "DT_FLOAT"}, "data_format": {"s": "TkhXQw=="}, "strides": {"list": {"i": ["1", "1", "1", "1"]}}, "explicit_paddings": {"list": {}}, "use_cudnn_on_gpu": {"b": true}, "num_args": {"i": "1"}, "epsilon": {"f": 0.0}, "padding": {"s": "VkFMSUQ="}, "fused_ops": {"list": {"s": ["Qmlhc0FkZA==", "UmVsdTY="]}}}}, {"name": "class_net/class-2_4/separable_conv2d/depthwise", "op": "DepthwiseConv2dNative", "input": ["class_net/Relu6_13", "class_net/class-2/depthwise_kernel"], "attr": {"dilations": {"list": {"i": ["1", "1", "1", "1"]}}, "T": {"type": "DT_FLOAT"}, "strides": {"list": {"i": ["1", "1", "1", "1"]}}, "data_format": {"s": "TkhXQw=="}, "explicit_paddings": {"list": {}}, "padding": {"s": "U0FNRQ=="}}}, {"name": "class_net/Relu6_14", "op": "_FusedConv2D", "input": ["class_net/class-2_4/separable_conv2d/depthwise", "class_net/class-2_4/separable_conv2d_weights", "class_net/class-2_4/separable_conv2d_bn_offset"], "device": "/device:CPU:0", "attr": {"dilations": {"list": {"i": ["1", "1", "1", "1"]}}, "T": {"type": "DT_FLOAT"}, "data_format": {"s": "TkhXQw=="}, "strides": {"list": {"i": ["1", "1", "1", "1"]}}, "explicit_paddings": {"list": {}}, "use_cudnn_on_gpu": {"b": true}, "num_args": {"i": "1"}, "epsilon": {"f": 0.0}, "padding": {"s": "VkFMSUQ="}, "fused_ops": {"list": {"s": ["Qmlhc0FkZA==", "UmVsdTY="]}}}}, {"name": "class_net/class-predict_4/separable_conv2d/depthwise", "op": "DepthwiseConv2dNative", "input": ["class_net/Relu6_14", "class_net/class-predict/depthwise_kernel"], "attr": {"dilations": {"list": {"i": ["1", "1", "1", "1"]}}, "T": {"type": "DT_FLOAT"}, "strides": {"list": {"i": ["1", "1", "1", "1"]}}, "data_format": {"s": "TkhXQw=="}, "explicit_paddings": {"list": {}}, "padding": {"s": "U0FNRQ=="}}}, {"name": "class_net/class-predict_4/BiasAdd", "op": "_FusedConv2D", "input": ["class_net/class-predict_4/separable_conv2d/depthwise", "class_net/class-predict/pointwise_kernel", "class_net/class-predict/bias"], "device": "/device:CPU:0", "attr": {"dilations": {"list": {"i": ["1", "1", "1", "1"]}}, "T": {"type": "DT_FLOAT"}, "data_format": {"s": "TkhXQw=="}, "strides": {"list": {"i": ["1", "1", "1", "1"]}}, "explicit_paddings": {"list": {}}, "use_cudnn_on_gpu": {"b": true}, "num_args": {"i": "1"}, "epsilon": {"f": 0.0}, "padding": {"s": "VkFMSUQ="}, "fused_ops": {"list": {"s": ["Qmlhc0FkZA=="]}}}}, {"name": "Reshape_8", "op": "Reshape", "input": ["class_net/class-predict_4/BiasAdd", "Reshape_8/shape"], "attr": {"T": {"type": "DT_FLOAT"}, "Tshape": {"type": "DT_INT32"}}}, {"name": "concat", "op": "ConcatV2", "input": ["Reshape", "Reshape_2", "Reshape_4", "Reshape_6", "Reshape_8", "concat/axis"], "attr": {"Tidx": {"type": "DT_INT32"}, "T": {"type": "DT_FLOAT"}, "N": {"i": "5"}}}, {"name": "ArgMax", "op": "ArgMax", "input": ["concat", "ArgMax/dimension"], "attr": {"Tidx": {"type": "DT_INT32"}, "T": {"type": "DT_FLOAT"}, "output_type": {"type": "DT_INT32"}}}, {"name": "Max", "op": "Max", "input": ["concat", "Max/reduction_indices"], "attr": {"Tidx": {"type": "DT_INT32"}, "keep_dims": {"b": false}, "T": {"type": "DT_FLOAT"}}}, {"name": "Sigmoid", "op": "Sigmoid", "input": ["Max"], "attr": {"T": {"type": "DT_FLOAT"}}}], "library": {}, "versions": {"producer": 561}}, "weightsManifest": [{"paths": ["group1-shard1of4.bin", "group1-shard2of4.bin", "group1-shard3of4.bin", "group1-shard4of4.bin"], "weights": [{"name": "ArgMax/dimension", "shape": [], "dtype": "int32"}, {"name": "Reshape/shape", "shape": [3], "dtype": "int32"}, {"name": "Reshape_2/shape", "shape": [3], "dtype": "int32"}, {"name": "Reshape_4/shape", "shape": [3], "dtype": "int32"}, {"name": "Reshape_6/shape", "shape": [3], "dtype": "int32"}, {"name": "pad_to_bounding_box/stack/0", "shape": [], "dtype": "int32"}, {"name": "pad_to_bounding_box/stack/1", "shape": [], "dtype": "int32"}, {"name": "pad_to_bounding_box/stack/2", "shape": [], "dtype": "int32"}, {"name": "pad_to_bounding_box/sub_1/x", "shape": [], "dtype": "int32"}, {"name": "pad_to_bounding_box/stack/4", "shape": [], "dtype": "int32"}, {"name": "pad_to_bounding_box/sub/x", "shape": [], "dtype": "int32"}, {"name": "resize/ExpandDims/dim", "shape": [], "dtype": "int32"}, {"name": "strided_slice_4/stack", "shape": [3], "dtype": "int32"}, {"name": "strided_slice_4/stack_1", "shape": [3], "dtype": "int32"}, {"name": "strided_slice_4/stack_2", "shape": [3], "dtype": "int32"}, {"name": "pad_to_bounding_box/ExpandDims/dim", "shape": [], "dtype": "int32"}, {"name": "pad_to_bounding_box/stack/6", "shape": [], "dtype": "int32"}, {"name": "pad_to_bounding_box/stack/7", "shape": [], "dtype": "int32"}, {"name": "pad_to_bounding_box/Reshape/shape", "shape": [2], "dtype": "int32"}, {"name": "ExpandDims/dim", "shape": [], "dtype": "int32"}, {"name": "fpn_cells/cell_0/fnode0/resample_1_4_5/ResizeNearestNeighbor/size", "shape": [2], "dtype": "int32"}, {"name": "fpn_cells/cell_0/fnode0/op_after_combine5/conv/depthwise_kernel", "shape": [3, 3, 64, 1], "dtype": "float32"}, {"name": "fpn_cells/cell_0/fnode1/resample_1_5_6/ResizeNearestNeighbor/size", "shape": [2], "dtype": "int32"}, {"name": "fpn_cells/cell_0/fnode1/op_after_combine6/conv/depthwise_kernel", "shape": [3, 3, 64, 1], "dtype": "float32"}, {"name": "fpn_cells/cell_0/fnode2/resample_1_6_7/ResizeNearestNeighbor/size", "shape": [2], "dtype": "int32"}, {"name": "fpn_cells/cell_0/fnode2/op_after_combine7/conv/depthwise_kernel", "shape": [3, 3, 64, 1], "dtype": "float32"}, {"name": "fpn_cells/cell_0/fnode3/resample_1_7_8/ResizeNearestNeighbor/size", "shape": [2], "dtype": "int32"}, {"name": "fpn_cells/cell_0/fnode3/op_after_combine8/conv/depthwise_kernel", "shape": [3, 3, 64, 1], "dtype": "float32"}, {"name": "fpn_cells/cell_0/fnode4/op_after_combine9/conv/depthwise_kernel", "shape": [3, 3, 64, 1], "dtype": "float32"}, {"name": "fpn_cells/cell_0/fnode5/op_after_combine10/conv/depthwise_kernel", "shape": [3, 3, 64, 1], "dtype": "float32"}, {"name": "fpn_cells/cell_0/fnode6/op_after_combine11/conv/depthwise_kernel", "shape": [3, 3, 64, 1], "dtype": "float32"}, {"name": "fpn_cells/cell_0/fnode7/op_after_combine12/conv/depthwise_kernel", "shape": [3, 3, 64, 1], "dtype": "float32"}, {"name": "fpn_cells/cell_1/fnode0/resample_1_4_5/ResizeNearestNeighbor/size", "shape": [2], "dtype": "int32"}, {"name": "fpn_cells/cell_1/fnode0/op_after_combine5/conv/depthwise_kernel", "shape": [3, 3, 64, 1], "dtype": "float32"}, {"name": "fpn_cells/cell_1/fnode1/resample_1_5_6/ResizeNearestNeighbor/size", "shape": [2], "dtype": "int32"}, {"name": "fpn_cells/cell_1/fnode1/op_after_combine6/conv/depthwise_kernel", "shape": [3, 3, 64, 1], "dtype": "float32"}, {"name": "fpn_cells/cell_1/fnode2/resample_1_6_7/ResizeNearestNeighbor/size", "shape": [2], "dtype": "int32"}, {"name": "fpn_cells/cell_1/fnode2/op_after_combine7/conv/depthwise_kernel", "shape": [3, 3, 64, 1], "dtype": "float32"}, {"name": "fpn_cells/cell_1/fnode3/resample_1_7_8/ResizeNearestNeighbor/size", "shape": [2], "dtype": "int32"}, {"name": "fpn_cells/cell_1/fnode3/op_after_combine8/conv/depthwise_kernel", "shape": [3, 3, 64, 1], "dtype": "float32"}, {"name": "fpn_cells/cell_1/fnode4/op_after_combine9/conv/depthwise_kernel", "shape": [3, 3, 64, 1], "dtype": "float32"}, {"name": "fpn_cells/cell_1/fnode5/op_after_combine10/conv/depthwise_kernel", "shape": [3, 3, 64, 1], "dtype": "float32"}, {"name": "fpn_cells/cell_1/fnode6/op_after_combine11/conv/depthwise_kernel", "shape": [3, 3, 64, 1], "dtype": "float32"}, {"name": "fpn_cells/cell_1/fnode7/op_after_combine12/conv/depthwise_kernel", "shape": [3, 3, 64, 1], "dtype": "float32"}, {"name": "fpn_cells/cell_2/fnode0/resample_1_4_5/ResizeNearestNeighbor/size", "shape": [2], "dtype": "int32"}, {"name": "fpn_cells/cell_2/fnode0/op_after_combine5/conv/depthwise_kernel", "shape": [3, 3, 64, 1], "dtype": "float32"}, {"name": "fpn_cells/cell_2/fnode1/resample_1_5_6/ResizeNearestNeighbor/size", "shape": [2], "dtype": "int32"}, {"name": "fpn_cells/cell_2/fnode1/op_after_combine6/conv/depthwise_kernel", "shape": [3, 3, 64, 1], "dtype": "float32"}, {"name": "fpn_cells/cell_2/fnode2/resample_1_6_7/ResizeNearestNeighbor/size", "shape": [2], "dtype": "int32"}, {"name": "fpn_cells/cell_2/fnode2/op_after_combine7/conv/depthwise_kernel", "shape": [3, 3, 64, 1], "dtype": "float32"}, {"name": "fpn_cells/cell_2/fnode3/resample_1_7_8/ResizeNearestNeighbor/size", "shape": [2], "dtype": "int32"}, {"name": "fpn_cells/cell_2/fnode3/op_after_combine8/conv/depthwise_kernel", "shape": [3, 3, 64, 1], "dtype": "float32"}, {"name": "fpn_cells/cell_2/fnode4/op_after_combine9/conv/depthwise_kernel", "shape": [3, 3, 64, 1], "dtype": "float32"}, {"name": "fpn_cells/cell_2/fnode5/op_after_combine10/conv/depthwise_kernel", "shape": [3, 3, 64, 1], "dtype": "float32"}, {"name": "fpn_cells/cell_2/fnode6/op_after_combine11/conv/depthwise_kernel", "shape": [3, 3, 64, 1], "dtype": "float32"}, {"name": "fpn_cells/cell_2/fnode7/op_after_combine12/conv/depthwise_kernel", "shape": [3, 3, 64, 1], "dtype": "float32"}, {"name": "class_net/class-0/depthwise_kernel", "shape": [3, 3, 64, 1], "dtype": "float32"}, {"name": "class_net/class-1/depthwise_kernel", "shape": [3, 3, 64, 1], "dtype": "float32"}, {"name": "class_net/class-2/depthwise_kernel", "shape": [3, 3, 64, 1], "dtype": "float32"}, {"name": "class_net/class-predict/depthwise_kernel", "shape": [3, 3, 64, 1], "dtype": "float32"}, {"name": "class_net/class-predict/pointwise_kernel", "shape": [1, 1, 64, 45], "dtype": "float32"}, {"name": "class_net/class-predict/bias", "shape": [45], "dtype": "float32"}, {"name": "Reshape_8/shape", "shape": [3], "dtype": "int32"}, {"name": "concat/axis", "shape": [], "dtype": "int32"}, {"name": "Max/reduction_indices", "shape": [], "dtype": "int32"}, {"name": "stack", "shape": [1, 19206, 4], "dtype": "float32"}, {"name": "Cast_4", "shape": [], "dtype": "float32"}, {"name": "strided_slice_3/stack", "shape": [1], "dtype": "int32"}, {"name": "strided_slice_3/stack_1", "shape": [1], "dtype": "int32"}, {"name": "strided_slice_3/stack_2", "shape": [1], "dtype": "int32"}, {"name": "Cast_3", "shape": [], "dtype": "float32"}, {"name": "Const_3", "shape": [1, 1, 3], "dtype": "float32"}, {"name": "ConstantFolding/truediv_recip", "shape": [1, 1, 3], "dtype": "float32"}, {"name": "strided_slice_2/stack", "shape": [1], "dtype": "int32"}, {"name": "strided_slice_2/stack_1", "shape": [1], "dtype": "int32"}, {"name": "strided_slice_2/stack_2", "shape": [1], "dtype": "int32"}, {"name": "efficientnet-lite0/stem/conv2d/Conv2D_weights", "shape": [3, 3, 3, 32], "dtype": "float32"}, {"name": "class_net/class-0_4/separable_conv2d_bn_offset", "shape": [64], "dtype": "float32"}, {"name": "efficientnet-lite0/stem/conv2d/Conv2D_bn_offset", "shape": [32], "dtype": "float32"}, {"name": "class_net/class-2/separable_conv2d_bn_offset", "shape": [64], "dtype": "float32"}, {"name": "efficientnet-lite0/blocks_0/depthwise_conv2d/depthwise_weights", "shape": [3, 3, 32, 1], "dtype": "float32"}, {"name": "efficientnet-lite0/blocks_0/depthwise_conv2d/depthwise_bn_offset", "shape": [32], "dtype": "float32"}, {"name": "efficientnet-lite0/blocks_0/conv2d/Conv2D_weights", "shape": [1, 1, 32, 16], "dtype": "float32"}, {"name": "efficientnet-lite0/blocks_0/conv2d/Conv2D_bn_offset", "shape": [16], "dtype": "float32"}, {"name": "efficientnet-lite0/blocks_1/conv2d/Conv2D_weights", "shape": [1, 1, 16, 96], "dtype": "float32"}, {"name": "efficientnet-lite0/blocks_1/conv2d/Conv2D_bn_offset", "shape": [96], "dtype": "float32"}, {"name": "efficientnet-lite0/blocks_1/depthwise_conv2d/depthwise_weights", "shape": [3, 3, 96, 1], "dtype": "float32"}, {"name": "efficientnet-lite0/blocks_1/depthwise_conv2d/depthwise_bn_offset", "shape": [96], "dtype": "float32"}, {"name": "efficientnet-lite0/blocks_1/conv2d_1/Conv2D_weights", "shape": [1, 1, 96, 24], "dtype": "float32"}, {"name": "efficientnet-lite0/blocks_1/conv2d_1/Conv2D_bn_offset", "shape": [24], "dtype": "float32"}, {"name": "efficientnet-lite0/blocks_2/conv2d/Conv2D_weights", "shape": [1, 1, 24, 144], "dtype": "float32"}, {"name": "efficientnet-lite0/blocks_2/conv2d/Conv2D_bn_offset", "shape": [144], "dtype": "float32"}, {"name": "efficientnet-lite0/blocks_2/depthwise_conv2d/depthwise_weights", "shape": [3, 3, 144, 1], "dtype": "float32"}, {"name": "efficientnet-lite0/blocks_2/depthwise_conv2d/depthwise_bn_offset", "shape": [144], "dtype": "float32"}, {"name": "efficientnet-lite0/blocks_2/conv2d_1/Conv2D_weights", "shape": [1, 1, 144, 24], "dtype": "float32"}, {"name": "fpn_cells/cell_2/fnode5/op_after_combine10/conv/separable_conv2d_weights", "shape": [1, 1, 64, 64], "dtype": "float32"}, {"name": "efficientnet-lite0/blocks_2/conv2d_1/Conv2D_bn_offset", "shape": [24], "dtype": "float32"}, {"name": "efficientnet-lite0/blocks_3/conv2d/Conv2D_weights", "shape": [1, 1, 24, 144], "dtype": "float32"}, {"name": "efficientnet-lite0/blocks_3/conv2d/Conv2D_bn_offset", "shape": [144], "dtype": "float32"}, {"name": "fpn_cells/cell_2/fnode5/op_after_combine10/conv/separable_conv2d_bn_offset", "shape": [64], "dtype": "float32"}, {"name": "efficientnet-lite0/blocks_3/depthwise_conv2d/depthwise_weights", "shape": [5, 5, 144, 1], "dtype": "float32"}, {"name": "efficientnet-lite0/blocks_3/depthwise_conv2d/depthwise_bn_offset", "shape": [144], "dtype": "float32"}, {"name": "efficientnet-lite0/blocks_3/conv2d_1/Conv2D_weights", "shape": [1, 1, 144, 40], "dtype": "float32"}, {"name": "efficientnet-lite0/blocks_3/conv2d_1/Conv2D_bn_offset", "shape": [40], "dtype": "float32"}, {"name": "efficientnet-lite0/blocks_4/conv2d/Conv2D_weights", "shape": [1, 1, 40, 240], "dtype": "float32"}, {"name": "efficientnet-lite0/blocks_4/conv2d/Conv2D_bn_offset", "shape": [240], "dtype": "float32"}, {"name": "efficientnet-lite0/blocks_4/depthwise_conv2d/depthwise_weights", "shape": [5, 5, 240, 1], "dtype": "float32"}, {"name": "efficientnet-lite0/blocks_4/depthwise_conv2d/depthwise_bn_offset", "shape": [240], "dtype": "float32"}, {"name": "efficientnet-lite0/blocks_4/conv2d_1/Conv2D_weights", "shape": [1, 1, 240, 40], "dtype": "float32"}, {"name": "efficientnet-lite0/blocks_4/conv2d_1/Conv2D_bn_offset", "shape": [40], "dtype": "float32"}, {"name": "efficientnet-lite0/blocks_5/conv2d/Conv2D_weights", "shape": [1, 1, 40, 240], "dtype": "float32"}, {"name": "efficientnet-lite0/blocks_5/conv2d/Conv2D_bn_offset", "shape": [240], "dtype": "float32"}, {"name": "fpn_cells/cell_0/fnode3/resample_0_0_8/conv2d/Conv2D_weights", "shape": [1, 1, 40, 64], "dtype": "float32"}, {"name": "class_net/class-1_1/separable_conv2d_weights", "shape": [1, 1, 64, 64], "dtype": "float32"}, {"name": "fpn_cells/cell_0/fnode3/resample_0_0_8/conv2d/Conv2D_bn_offset", "shape": [64], "dtype": "float32"}, {"name": "efficientnet-lite0/blocks_5/depthwise_conv2d/depthwise_weights", "shape": [3, 3, 240, 1], "dtype": "float32"}, {"name": "efficientnet-lite0/blocks_5/depthwise_conv2d/depthwise_bn_offset", "shape": [240], "dtype": "float32"}, {"name": "efficientnet-lite0/blocks_5/conv2d_1/Conv2D_weights", "shape": [1, 1, 240, 80], "dtype": "float32"}, {"name": "class_net/class-2_3/separable_conv2d_weights", "shape": [1, 1, 64, 64], "dtype": "float32"}, {"name": "efficientnet-lite0/blocks_5/conv2d_1/Conv2D_bn_offset", "shape": [80], "dtype": "float32"}, {"name": "efficientnet-lite0/blocks_6/conv2d/Conv2D_weights", "shape": [1, 1, 80, 480], "dtype": "float32"}, {"name": "class_net/class-1_1/separable_conv2d_bn_offset", "shape": [64], "dtype": "float32"}, {"name": "efficientnet-lite0/blocks_6/conv2d/Conv2D_bn_offset", "shape": [480], "dtype": "float32"}, {"name": "efficientnet-lite0/blocks_6/depthwise_conv2d/depthwise_weights", "shape": [3, 3, 480, 1], "dtype": "float32"}, {"name": "efficientnet-lite0/blocks_6/depthwise_conv2d/depthwise_bn_offset", "shape": [480], "dtype": "float32"}, {"name": "efficientnet-lite0/blocks_6/conv2d_1/Conv2D_weights", "shape": [1, 1, 480, 80], "dtype": "float32"}, {"name": "efficientnet-lite0/blocks_6/conv2d_1/Conv2D_bn_offset", "shape": [80], "dtype": "float32"}, {"name": "efficientnet-lite0/blocks_7/conv2d/Conv2D_weights", "shape": [1, 1, 80, 480], "dtype": "float32"}, {"name": "efficientnet-lite0/blocks_7/conv2d/Conv2D_bn_offset", "shape": [480], "dtype": "float32"}, {"name": "class_net/class-0_2/separable_conv2d_weights", "shape": [1, 1, 64, 64], "dtype": "float32"}, {"name": "efficientnet-lite0/blocks_7/depthwise_conv2d/depthwise_weights", "shape": [3, 3, 480, 1], "dtype": "float32"}, {"name": "efficientnet-lite0/blocks_7/depthwise_conv2d/depthwise_bn_offset", "shape": [480], "dtype": "float32"}, {"name": "efficientnet-lite0/blocks_7/conv2d_1/Conv2D_weights", "shape": [1, 1, 480, 80], "dtype": "float32"}, {"name": "class_net/class-2_3/separable_conv2d_bn_offset", "shape": [64], "dtype": "float32"}, {"name": "efficientnet-lite0/blocks_7/conv2d_1/Conv2D_bn_offset", "shape": [80], "dtype": "float32"}, {"name": "efficientnet-lite0/blocks_8/conv2d/Conv2D_weights", "shape": [1, 1, 80, 480], "dtype": "float32"}, {"name": "class_net/class-0_2/separable_conv2d_bn_offset", "shape": [64], "dtype": "float32"}, {"name": "efficientnet-lite0/blocks_8/conv2d/Conv2D_bn_offset", "shape": [480], "dtype": "float32"}, {"name": "efficientnet-lite0/blocks_8/depthwise_conv2d/depthwise_weights", "shape": [5, 5, 480, 1], "dtype": "float32"}, {"name": "efficientnet-lite0/blocks_8/depthwise_conv2d/depthwise_bn_offset", "shape": [480], "dtype": "float32"}, {"name": "efficientnet-lite0/blocks_8/conv2d_1/Conv2D_weights", "shape": [1, 1, 480, 112], "dtype": "float32"}, {"name": "efficientnet-lite0/blocks_8/conv2d_1/Conv2D_bn_offset", "shape": [112], "dtype": "float32"}, {"name": "efficientnet-lite0/blocks_9/conv2d/Conv2D_weights", "shape": [1, 1, 112, 672], "dtype": "float32"}, {"name": "efficientnet-lite0/blocks_9/conv2d/Conv2D_bn_offset", "shape": [672], "dtype": "float32"}, {"name": "class_net/class-2_1/separable_conv2d_weights", "shape": [1, 1, 64, 64], "dtype": "float32"}, {"name": "efficientnet-lite0/blocks_9/depthwise_conv2d/depthwise_weights", "shape": [5, 5, 672, 1], "dtype": "float32"}, {"name": "efficientnet-lite0/blocks_9/depthwise_conv2d/depthwise_bn_offset", "shape": [672], "dtype": "float32"}, {"name": "efficientnet-lite0/blocks_9/conv2d_1/Conv2D_weights", "shape": [1, 1, 672, 112], "dtype": "float32"}, {"name": "efficientnet-lite0/blocks_9/conv2d_1/Conv2D_bn_offset", "shape": [112], "dtype": "float32"}, {"name": "efficientnet-lite0/blocks_10/conv2d/Conv2D_weights", "shape": [1, 1, 112, 672], "dtype": "float32"}, {"name": "class_net/class-2_1/separable_conv2d_bn_offset", "shape": [64], "dtype": "float32"}, {"name": "efficientnet-lite0/blocks_10/conv2d/Conv2D_bn_offset", "shape": [672], "dtype": "float32"}, {"name": "efficientnet-lite0/blocks_10/depthwise_conv2d/depthwise_weights", "shape": [5, 5, 672, 1], "dtype": "float32"}, {"name": "efficientnet-lite0/blocks_10/depthwise_conv2d/depthwise_bn_offset", "shape": [672], "dtype": "float32"}, {"name": "efficientnet-lite0/blocks_10/conv2d_1/Conv2D_weights", "shape": [1, 1, 672, 112], "dtype": "float32"}, {"name": "efficientnet-lite0/blocks_10/conv2d_1/Conv2D_bn_offset", "shape": [112], "dtype": "float32"}, {"name": "efficientnet-lite0/blocks_11/conv2d/Conv2D_weights", "shape": [1, 1, 112, 672], "dtype": "float32"}, {"name": "efficientnet-lite0/blocks_11/conv2d/Conv2D_bn_offset", "shape": [672], "dtype": "float32"}, {"name": "fpn_cells/cell_0/fnode4/resample_0_1_9/conv2d/Conv2D_weights", "shape": [1, 1, 112, 64], "dtype": "float32"}, {"name": "fpn_cells/cell_0/fnode4/resample_0_1_9/conv2d/Conv2D_bn_offset", "shape": [64], "dtype": "float32"}, {"name": "fpn_cells/cell_0/fnode2/resample_0_1_7/conv2d/Conv2D_weights", "shape": [1, 1, 112, 64], "dtype": "float32"}, {"name": "fpn_cells/cell_0/fnode2/resample_0_1_7/conv2d/Conv2D_bn_offset", "shape": [64], "dtype": "float32"}, {"name": "efficientnet-lite0/blocks_11/depthwise_conv2d/depthwise_weights", "shape": [5, 5, 672, 1], "dtype": "float32"}, {"name": "efficientnet-lite0/blocks_11/depthwise_conv2d/depthwise_bn_offset", "shape": [672], "dtype": "float32"}, {"name": "efficientnet-lite0/blocks_11/conv2d_1/Conv2D_weights", "shape": [1, 1, 672, 192], "dtype": "float32"}, {"name": "fpn_cells/cell_2/fnode6/op_after_combine11/conv/separable_conv2d_weights", "shape": [1, 1, 64, 64], "dtype": "float32"}, {"name": "efficientnet-lite0/blocks_11/conv2d_1/Conv2D_bn_offset", "shape": [192], "dtype": "float32"}, {"name": "efficientnet-lite0/blocks_12/conv2d/Conv2D_weights", "shape": [1, 1, 192, 1152], "dtype": "float32"}, {"name": "efficientnet-lite0/blocks_12/conv2d/Conv2D_bn_offset", "shape": [1152], "dtype": "float32"}, {"name": "fpn_cells/cell_2/fnode6/op_after_combine11/conv/separable_conv2d_bn_offset", "shape": [64], "dtype": "float32"}, {"name": "efficientnet-lite0/blocks_12/depthwise_conv2d/depthwise_weights", "shape": [5, 5, 1152, 1], "dtype": "float32"}, {"name": "efficientnet-lite0/blocks_12/depthwise_conv2d/depthwise_bn_offset", "shape": [1152], "dtype": "float32"}, {"name": "efficientnet-lite0/blocks_12/conv2d_1/Conv2D_weights", "shape": [1, 1, 1152, 192], "dtype": "float32"}, {"name": "efficientnet-lite0/blocks_12/conv2d_1/Conv2D_bn_offset", "shape": [192], "dtype": "float32"}, {"name": "efficientnet-lite0/blocks_13/conv2d/Conv2D_weights", "shape": [1, 1, 192, 1152], "dtype": "float32"}, {"name": "efficientnet-lite0/blocks_13/conv2d/Conv2D_bn_offset", "shape": [1152], "dtype": "float32"}, {"name": "efficientnet-lite0/blocks_13/depthwise_conv2d/depthwise_weights", "shape": [5, 5, 1152, 1], "dtype": "float32"}, {"name": "efficientnet-lite0/blocks_13/depthwise_conv2d/depthwise_bn_offset", "shape": [1152], "dtype": "float32"}, {"name": "efficientnet-lite0/blocks_13/conv2d_1/Conv2D_weights", "shape": [1, 1, 1152, 192], "dtype": "float32"}, {"name": "efficientnet-lite0/blocks_13/conv2d_1/Conv2D_bn_offset", "shape": [192], "dtype": "float32"}, {"name": "efficientnet-lite0/blocks_14/conv2d/Conv2D_weights", "shape": [1, 1, 192, 1152], "dtype": "float32"}, {"name": "efficientnet-lite0/blocks_14/conv2d/Conv2D_bn_offset", "shape": [1152], "dtype": "float32"}, {"name": "efficientnet-lite0/blocks_14/depthwise_conv2d/depthwise_weights", "shape": [5, 5, 1152, 1], "dtype": "float32"}, {"name": "efficientnet-lite0/blocks_14/depthwise_conv2d/depthwise_bn_offset", "shape": [1152], "dtype": "float32"}, {"name": "efficientnet-lite0/blocks_14/conv2d_1/Conv2D_weights", "shape": [1, 1, 1152, 192], "dtype": "float32"}, {"name": "class_net/class-1_2/separable_conv2d_weights", "shape": [1, 1, 64, 64], "dtype": "float32"}, {"name": "efficientnet-lite0/blocks_14/conv2d_1/Conv2D_bn_offset", "shape": [192], "dtype": "float32"}, {"name": "efficientnet-lite0/blocks_15/conv2d/Conv2D_weights", "shape": [1, 1, 192, 1152], "dtype": "float32"}, {"name": "efficientnet-lite0/blocks_15/conv2d/Conv2D_bn_offset", "shape": [1152], "dtype": "float32"}, {"name": "class_net/class-1_2/separable_conv2d_bn_offset", "shape": [64], "dtype": "float32"}, {"name": "efficientnet-lite0/blocks_15/depthwise_conv2d/depthwise_weights", "shape": [3, 3, 1152, 1], "dtype": "float32"}, {"name": "efficientnet-lite0/blocks_15/depthwise_conv2d/depthwise_bn_offset", "shape": [1152], "dtype": "float32"}, {"name": "efficientnet-lite0/blocks_15/conv2d_1/Conv2D_weights", "shape": [1, 1, 1152, 320], "dtype": "float32"}, {"name": "class_net/class-1_4/separable_conv2d_weights", "shape": [1, 1, 64, 64], "dtype": "float32"}, {"name": "efficientnet-lite0/blocks_15/conv2d_1/Conv2D_bn_offset", "shape": [320], "dtype": "float32"}, {"name": "fpn_cells/cell_0/fnode5/resample_0_2_10/conv2d/Conv2D_weights", "shape": [1, 1, 320, 64], "dtype": "float32"}, {"name": "fpn_cells/cell_0/fnode5/resample_0_2_10/conv2d/Conv2D_bn_offset", "shape": [64], "dtype": "float32"}, {"name": "fpn_cells/cell_0/fnode1/resample_0_2_6/conv2d/Conv2D_weights", "shape": [1, 1, 320, 64], "dtype": "float32"}, {"name": "fpn_cells/cell_0/fnode1/resample_0_2_6/conv2d/Conv2D_bn_offset", "shape": [64], "dtype": "float32"}, {"name": "resample_p6/conv2d/Conv2D_weights", "shape": [1, 1, 320, 64], "dtype": "float32"}, {"name": "class_net/class-0_3/separable_conv2d_weights", "shape": [1, 1, 64, 64], "dtype": "float32"}, {"name": "resample_p6/conv2d/Conv2D_bn_offset", "shape": [64], "dtype": "float32"}, {"name": "fpn_cells/cell_0/fnode0/op_after_combine5/conv/separable_conv2d_weights", "shape": [1, 1, 64, 64], "dtype": "float32"}, {"name": "fpn_cells/cell_0/fnode0/op_after_combine5/conv/separable_conv2d_bn_offset", "shape": [64], "dtype": "float32"}, {"name": "fpn_cells/cell_0/fnode1/op_after_combine6/conv/separable_conv2d_weights", "shape": [1, 1, 64, 64], "dtype": "float32"}, {"name": "class_net/class-0_3/separable_conv2d_bn_offset", "shape": [64], "dtype": "float32"}, {"name": "fpn_cells/cell_0/fnode1/op_after_combine6/conv/separable_conv2d_bn_offset", "shape": [64], "dtype": "float32"}, {"name": "fpn_cells/cell_0/fnode2/op_after_combine7/conv/separable_conv2d_weights", "shape": [1, 1, 64, 64], "dtype": "float32"}, {"name": "class_net/class-1_4/separable_conv2d_bn_offset", "shape": [64], "dtype": "float32"}, {"name": "fpn_cells/cell_0/fnode2/op_after_combine7/conv/separable_conv2d_bn_offset", "shape": [64], "dtype": "float32"}, {"name": "fpn_cells/cell_0/fnode3/op_after_combine8/conv/separable_conv2d_weights", "shape": [1, 1, 64, 64], "dtype": "float32"}, {"name": "fpn_cells/cell_0/fnode3/op_after_combine8/conv/separable_conv2d_bn_offset", "shape": [64], "dtype": "float32"}, {"name": "fpn_cells/cell_0/fnode4/op_after_combine9/conv/separable_conv2d_weights", "shape": [1, 1, 64, 64], "dtype": "float32"}, {"name": "fpn_cells/cell_0/fnode4/op_after_combine9/conv/separable_conv2d_bn_offset", "shape": [64], "dtype": "float32"}, {"name": "fpn_cells/cell_0/fnode5/op_after_combine10/conv/separable_conv2d_weights", "shape": [1, 1, 64, 64], "dtype": "float32"}, {"name": "class_net/class-2_2/separable_conv2d_weights", "shape": [1, 1, 64, 64], "dtype": "float32"}, {"name": "fpn_cells/cell_0/fnode5/op_after_combine10/conv/separable_conv2d_bn_offset", "shape": [64], "dtype": "float32"}, {"name": "fpn_cells/cell_0/fnode6/op_after_combine11/conv/separable_conv2d_weights", "shape": [1, 1, 64, 64], "dtype": "float32"}, {"name": "fpn_cells/cell_0/fnode6/op_after_combine11/conv/separable_conv2d_bn_offset", "shape": [64], "dtype": "float32"}, {"name": "fpn_cells/cell_0/fnode7/op_after_combine12/conv/separable_conv2d_weights", "shape": [1, 1, 64, 64], "dtype": "float32"}, {"name": "class_net/class-2_2/separable_conv2d_bn_offset", "shape": [64], "dtype": "float32"}, {"name": "fpn_cells/cell_0/fnode7/op_after_combine12/conv/separable_conv2d_bn_offset", "shape": [64], "dtype": "float32"}, {"name": "fpn_cells/cell_1/fnode0/op_after_combine5/conv/separable_conv2d_weights", "shape": [1, 1, 64, 64], "dtype": "float32"}, {"name": "fpn_cells/cell_1/fnode0/op_after_combine5/conv/separable_conv2d_bn_offset", "shape": [64], "dtype": "float32"}, {"name": "fpn_cells/cell_1/fnode1/op_after_combine6/conv/separable_conv2d_weights", "shape": [1, 1, 64, 64], "dtype": "float32"}, {"name": "fpn_cells/cell_1/fnode1/op_after_combine6/conv/separable_conv2d_bn_offset", "shape": [64], "dtype": "float32"}, {"name": "fpn_cells/cell_1/fnode2/op_after_combine7/conv/separable_conv2d_weights", "shape": [1, 1, 64, 64], "dtype": "float32"}, {"name": "fpn_cells/cell_1/fnode2/op_after_combine7/conv/separable_conv2d_bn_offset", "shape": [64], "dtype": "float32"}, {"name": "fpn_cells/cell_1/fnode3/op_after_combine8/conv/separable_conv2d_weights", "shape": [1, 1, 64, 64], "dtype": "float32"}, {"name": "fpn_cells/cell_1/fnode3/op_after_combine8/conv/separable_conv2d_bn_offset", "shape": [64], "dtype": "float32"}, {"name": "fpn_cells/cell_1/fnode4/op_after_combine9/conv/separable_conv2d_weights", "shape": [1, 1, 64, 64], "dtype": "float32"}, {"name": "fpn_cells/cell_1/fnode4/op_after_combine9/conv/separable_conv2d_bn_offset", "shape": [64], "dtype": "float32"}, {"name": "fpn_cells/cell_1/fnode5/op_after_combine10/conv/separable_conv2d_weights", "shape": [1, 1, 64, 64], "dtype": "float32"}, {"name": "fpn_cells/cell_1/fnode5/op_after_combine10/conv/separable_conv2d_bn_offset", "shape": [64], "dtype": "float32"}, {"name": "fpn_cells/cell_1/fnode6/op_after_combine11/conv/separable_conv2d_weights", "shape": [1, 1, 64, 64], "dtype": "float32"}, {"name": "fpn_cells/cell_2/fnode7/op_after_combine12/conv/separable_conv2d_weights", "shape": [1, 1, 64, 64], "dtype": "float32"}, {"name": "fpn_cells/cell_1/fnode6/op_after_combine11/conv/separable_conv2d_bn_offset", "shape": [64], "dtype": "float32"}, {"name": "fpn_cells/cell_1/fnode7/op_after_combine12/conv/separable_conv2d_weights", "shape": [1, 1, 64, 64], "dtype": "float32"}, {"name": "class_net/class-2_4/separable_conv2d_weights", "shape": [1, 1, 64, 64], "dtype": "float32"}, {"name": "fpn_cells/cell_1/fnode7/op_after_combine12/conv/separable_conv2d_bn_offset", "shape": [64], "dtype": "float32"}, {"name": "fpn_cells/cell_2/fnode0/op_after_combine5/conv/separable_conv2d_weights", "shape": [1, 1, 64, 64], "dtype": "float32"}, {"name": "fpn_cells/cell_2/fnode7/op_after_combine12/conv/separable_conv2d_bn_offset", "shape": [64], "dtype": "float32"}, {"name": "fpn_cells/cell_2/fnode0/op_after_combine5/conv/separable_conv2d_bn_offset", "shape": [64], "dtype": "float32"}, {"name": "fpn_cells/cell_2/fnode1/op_after_combine6/conv/separable_conv2d_weights", "shape": [1, 1, 64, 64], "dtype": "float32"}, {"name": "fpn_cells/cell_2/fnode1/op_after_combine6/conv/separable_conv2d_bn_offset", "shape": [64], "dtype": "float32"}, {"name": "fpn_cells/cell_2/fnode2/op_after_combine7/conv/separable_conv2d_weights", "shape": [1, 1, 64, 64], "dtype": "float32"}, {"name": "fpn_cells/cell_2/fnode2/op_after_combine7/conv/separable_conv2d_bn_offset", "shape": [64], "dtype": "float32"}, {"name": "fpn_cells/cell_2/fnode3/op_after_combine8/conv/separable_conv2d_weights", "shape": [1, 1, 64, 64], "dtype": "float32"}, {"name": "class_net/class-1_3/separable_conv2d_weights", "shape": [1, 1, 64, 64], "dtype": "float32"}, {"name": "fpn_cells/cell_2/fnode3/op_after_combine8/conv/separable_conv2d_bn_offset", "shape": [64], "dtype": "float32"}, {"name": "class_net/class-0/separable_conv2d_weights", "shape": [1, 1, 64, 64], "dtype": "float32"}, {"name": "class_net/class-0/separable_conv2d_bn_offset", "shape": [64], "dtype": "float32"}, {"name": "class_net/class-1_3/separable_conv2d_bn_offset", "shape": [64], "dtype": "float32"}, {"name": "fpn_cells/cell_2/fnode4/op_after_combine9/conv/separable_conv2d_weights", "shape": [1, 1, 64, 64], "dtype": "float32"}, {"name": "class_net/class-2_4/separable_conv2d_bn_offset", "shape": [64], "dtype": "float32"}, {"name": "fpn_cells/cell_2/fnode4/op_after_combine9/conv/separable_conv2d_bn_offset", "shape": [64], "dtype": "float32"}, {"name": "class_net/class-1/separable_conv2d_weights", "shape": [1, 1, 64, 64], "dtype": "float32"}, {"name": "class_net/class-1/separable_conv2d_bn_offset", "shape": [64], "dtype": "float32"}, {"name": "class_net/class-0_1/separable_conv2d_weights", "shape": [1, 1, 64, 64], "dtype": "float32"}, {"name": "class_net/class-0_4/separable_conv2d_weights", "shape": [1, 1, 64, 64], "dtype": "float32"}, {"name": "class_net/class-0_1/separable_conv2d_bn_offset", "shape": [64], "dtype": "float32"}, {"name": "class_net/class-2/separable_conv2d_weights", "shape": [1, 1, 64, 64], "dtype": "float32"}]}]}